
2018-04-20 22:50:10.198556PM --- starting process for: (((conv*1)vazio)*2)fc*2
2018-04-20 22:50:11.251218PM
_________________________________________________________________
Layer (type)                 Output Shape              Param #   
=================================================================
conv2d_1 (Conv2D)            (None, 32, 32, 32)        896       
_________________________________________________________________
conv2d_2 (Conv2D)            (None, 32, 32, 32)        9248      
_________________________________________________________________
flatten_1 (Flatten)          (None, 32768)             0         
_________________________________________________________________
dense_1 (Dense)              (None, 128)               4194432   
_________________________________________________________________
activation_1 (Activation)    (None, 128)               0         
_________________________________________________________________
dense_2 (Dense)              (None, 128)               16512     
_________________________________________________________________
activation_2 (Activation)    (None, 128)               0         
_________________________________________________________________
dense_3 (Dense)              (None, 10)                1290      
=================================================================
Total params: 4,222,378
Trainable params: 4,222,378
Non-trainable params: 0
_________________________________________________________________

2018-04-20 22:54:37.613269PM --- Model took seconds to train 266.3461730480194
2018-04-20 22:54:37.914446PM --- Accuracy on test data is: 61.199999999999996
2018-04-20 22:54:37.967904PM --- starting process for: (((conv*1)vazio)*2)fc*0
2018-04-20 22:54:38.700455PM
_________________________________________________________________
Layer (type)                 Output Shape              Param #   
=================================================================
conv2d_1 (Conv2D)            (None, 32, 32, 32)        896       
_________________________________________________________________
conv2d_2 (Conv2D)            (None, 32, 32, 32)        9248      
_________________________________________________________________
flatten_1 (Flatten)          (None, 32768)             0         
_________________________________________________________________
dense_1 (Dense)              (None, 10)                327690    
=================================================================
Total params: 337,834
Trainable params: 337,834
Non-trainable params: 0
_________________________________________________________________

2018-04-20 23:00:31.895988PM --- Model took seconds to train 353.17922735214233
2018-04-20 23:00:32.176568PM --- Accuracy on test data is: 61.6
2018-04-20 23:00:32.221982PM --- starting process for: (((conv*1)vazio)*2)fc*0
2018-04-20 23:00:32.937944PM
_________________________________________________________________
Layer (type)                 Output Shape              Param #   
=================================================================
conv2d_1 (Conv2D)            (None, 32, 32, 32)        896       
_________________________________________________________________
conv2d_2 (Conv2D)            (None, 32, 32, 32)        9248      
_________________________________________________________________
flatten_1 (Flatten)          (None, 32768)             0         
_________________________________________________________________
dense_1 (Dense)              (None, 10)                327690    
=================================================================
Total params: 337,834
Trainable params: 337,834
Non-trainable params: 0
_________________________________________________________________

2018-04-20 23:06:25.193301PM --- Model took seconds to train 352.2401225566864
2018-04-20 23:06:25.458812PM --- Accuracy on test data is: 59.85
2018-04-20 23:06:25.501103PM --- starting process for: (((conv*1)vazio)*3)fc*1
2018-04-20 23:06:26.228253PM
_________________________________________________________________
Layer (type)                 Output Shape              Param #   
=================================================================
conv2d_1 (Conv2D)            (None, 32, 32, 32)        896       
_________________________________________________________________
conv2d_2 (Conv2D)            (None, 32, 32, 32)        9248      
_________________________________________________________________
conv2d_3 (Conv2D)            (None, 32, 32, 64)        18496     
_________________________________________________________________
flatten_1 (Flatten)          (None, 65536)             0         
_________________________________________________________________
dense_1 (Dense)              (None, 128)               8388736   
_________________________________________________________________
activation_1 (Activation)    (None, 128)               0         
_________________________________________________________________
dense_2 (Dense)              (None, 10)                1290      
=================================================================
Total params: 8,418,666
Trainable params: 8,418,666
Non-trainable params: 0
_________________________________________________________________

2018-04-20 23:13:22.157769PM --- Model took seconds to train 415.91329622268677
2018-04-20 23:13:22.646368PM --- Accuracy on test data is: 64.45
2018-04-20 23:13:22.689145PM --- starting process for: (((conv*1)vazio)*6)fc*1
2018-04-20 23:13:23.436304PM
_________________________________________________________________
Layer (type)                 Output Shape              Param #   
=================================================================
conv2d_1 (Conv2D)            (None, 32, 32, 32)        896       
_________________________________________________________________
conv2d_2 (Conv2D)            (None, 32, 32, 32)        9248      
_________________________________________________________________
conv2d_3 (Conv2D)            (None, 32, 32, 64)        18496     
_________________________________________________________________
conv2d_4 (Conv2D)            (None, 32, 32, 64)        36928     
_________________________________________________________________
conv2d_5 (Conv2D)            (None, 32, 32, 128)       73856     
_________________________________________________________________
conv2d_6 (Conv2D)            (None, 32, 32, 128)       147584    
_________________________________________________________________
flatten_1 (Flatten)          (None, 131072)            0         
_________________________________________________________________
dense_1 (Dense)              (None, 128)               16777344  
_________________________________________________________________
activation_1 (Activation)    (None, 128)               0         
_________________________________________________________________
dense_2 (Dense)              (None, 10)                1290      
=================================================================
Total params: 17,065,642
Trainable params: 17,065,642
Non-trainable params: 0
_________________________________________________________________

2018-04-20 23:32:10.788884PM --- Model took seconds to train 1127.336612701416
2018-04-20 23:32:11.795153PM --- Accuracy on test data is: 65.14999999999999
2018-04-20 23:32:11.838042PM --- starting process for: (((conv*1)vazio)*1)fc*0
2018-04-20 23:32:12.554244PM
_________________________________________________________________
Layer (type)                 Output Shape              Param #   
=================================================================
conv2d_1 (Conv2D)            (None, 32, 32, 32)        896       
_________________________________________________________________
flatten_1 (Flatten)          (None, 32768)             0         
_________________________________________________________________
dense_1 (Dense)              (None, 10)                327690    
=================================================================
Total params: 328,586
Trainable params: 328,586
Non-trainable params: 0
_________________________________________________________________

2018-04-20 23:36:54.387177PM --- Model took seconds to train 281.81747603416443
2018-04-20 23:36:54.648241PM --- Accuracy on test data is: 60.0
2018-04-20 23:36:54.695056PM --- starting proc
…
