
2018-04-29 00:05:34.055479AM --- Model took seconds to train 337.2382709980011
2018-04-29 00:05:34.227983AM --- Accuracy on test data is: 74.0
2018-04-29 00:05:34.277878AM --- starting process for: (((conv*1)pool)*2)fc*2
2018-04-29 00:05:34.987970AM
_________________________________________________________________
Layer (type)                 Output Shape              Param #   
=================================================================
conv2d_1 (Conv2D)            (None, 32, 32, 32)        896       
_________________________________________________________________
max_pooling2d_1 (MaxPooling2 (None, 16, 16, 32)        0         
_________________________________________________________________
conv2d_2 (Conv2D)            (None, 16, 16, 32)        9248      
_________________________________________________________________
max_pooling2d_2 (MaxPooling2 (None, 8, 8, 32)          0         
_________________________________________________________________
flatten_1 (Flatten)          (None, 2048)              0         
_________________________________________________________________
dense_1 (Dense)              (None, 128)               262272    
_________________________________________________________________
activation_1 (Activation)    (None, 128)               0         
_________________________________________________________________
dense_2 (Dense)              (None, 128)               16512     
_________________________________________________________________
activation_2 (Activation)    (None, 128)               0         
_________________________________________________________________
dense_3 (Dense)              (None, 10)                1290      
=================================================================
Total params: 290,218
Trainable params: 290,218
Non-trainable params: 0
_________________________________________________________________

2018-04-29 00:08:29.885000AM --- Model took seconds to train 174.88192224502563
2018-04-29 00:08:29.989218AM --- Accuracy on test data is: 69.05
2018-04-29 00:08:30.036085AM --- starting process for: (((conv*2)pool)*3)fc*2
2018-04-29 00:08:30.765918AM
_________________________________________________________________
Layer (type)                 Output Shape              Param #   
=================================================================
conv2d_1 (Conv2D)            (None, 32, 32, 32)        896       
_________________________________________________________________
conv2d_2 (Conv2D)            (None, 32, 32, 32)        9248      
_________________________________________________________________
max_pooling2d_1 (MaxPooling2 (None, 16, 16, 32)        0         
_________________________________________________________________
conv2d_3 (Conv2D)            (None, 16, 16, 64)        18496     
_________________________________________________________________
conv2d_4 (Conv2D)            (None, 16, 16, 128)       73856     
_________________________________________________________________
max_pooling2d_2 (MaxPooling2 (None, 8, 8, 128)         0         
_________________________________________________________________
conv2d_5 (Conv2D)            (None, 8, 8, 128)         147584    
_________________________________________________________________
conv2d_6 (Conv2D)            (None, 8, 8, 128)         147584    
_________________________________________________________________
max_pooling2d_3 (MaxPooling2 (None, 4, 4, 128)         0         
_________________________________________________________________
flatten_1 (Flatten)          (None, 2048)              0         
_________________________________________________________________
dense_1 (Dense)              (None, 128)               262272    
_________________________________________________________________
activation_1 (Activation)    (None, 128)               0         
_________________________________________________________________
dense_2 (Dense)              (None, 128)               16512     
_________________________________________________________________
activation_2 (Activation)    (None, 128)               0         
_________________________________________________________________
dense_3 (Dense)              (None, 10)                1290      
=================================================================
Total params: 677,738
Trainable params: 677,738
Non-trainable params: 0
_________________________________________________________________

2018-04-29 00:15:03.084815AM --- Model took seconds to train 392.30343103408813
2018-04-29 00:15:03.244975AM --- Accuracy on test data is: 78.14999999999999
2018-04-29 00:15:03.285394AM --- starting process for: (((conv*2)vazio)*3)fc*1
2018-04-29 00:15:04.016688AM
_________________________________________________________________
Layer (type)                 Output Shape              Param #   
=================================================================
conv2d_1 (Conv2D)            (None, 32, 32, 32)        896       
_________________________________________________________________
conv2d_2 (Conv2D)            (None, 32, 32, 32)        9248      
_________________________________________________________________
conv2d_3 (Conv2D)            (None, 32, 32, 64)        18496     
_________________________________________________________________
conv2d_4 (Conv2D)            (None, 32, 32, 128)       73856     
_________________________________________________________________
conv2d_5 (Conv2D)            (None, 32, 32, 128)       147584    
_________________________________________________________________
conv2d_6 (Conv2D)            (None, 32, 32, 128)       147584    
_________________________________________________________________
flatten_1 (Flatten)          (None, 131072)            0         
_________________________________________________________________
dense_1 (Dense)              (None, 128)               16777344  
_________________________________________________________________
activation_1 (Activation)    (None, 128)               0         
_________________________________________________________________
dense_2 (Dense)              (None, 10)                1290      
=================================================================
Total params: 17,176,298
Trainable params: 17,176,298
Non-trainable params: 0
_________________________________________________________________

2018-04-29 00:36:10.680512AM --- Model took seconds to train 1266.647644996643
2018-04-29 00:36:11.728911AM --- Accuracy on test data is: 64.8
2018-04-29 00:36:11.771567AM --- starting process for: (((conv*2)vazio)*3)fc*1
2018-04-29 00:36:12.497422AM
_________________________________________________________________
Layer (type)                 Output Shape              Param #   
=================================================================
conv2d_1 (Conv2D)            (None, 32, 32, 32)        896       
_________________________________________________________________
conv2d_2 (Conv2D)            (None, 32, 32, 32)        9248      
_________________________________________________________________
conv2d_3 (Conv2D)            (None, 32, 32, 64)        18496     
_________________________________________________________________
conv2d_4 (Conv2D)            (None, 32, 32, 128)       73856     
_________________________________________________________________
conv2d_5 (Conv2D)            (None, 32, 32, 128)       147584    
_________________________________________________________________
conv2d_6 (Conv2D)            (None, 32, 32, 128)       147584    
_________________________________________________________________
flatten_1 (Flatten)          (None, 131072)            0         
_________________________________________________________________
dense_1 (Dense)              (None, 128)               16777344  
_________________________________________________________________
activation_1 (Activation)    (None, 128)               0         
_________________________________________________________________
dense_2 (Dense)              (None, 10)                1290      
=================================================================
Total params: 17,176,298
Trainable params: 17,176,298
Non-trainable params: 0
_________________________________________________________________

2018-04-29 00:57:17.384922AM --- Model took seconds to train 1264.8723328113556
2018-04-29 00:57:18.377562AM --- Accuracy on test data is: 62.0
2018-04-29 00:57:18.422554AM --- starting process for: (((conv*1)pool)*3)fc*2
2018-04-29 00:57:19.136333AM
_________________________________________________________________
Layer (type)                 Output Shape              Param #   
=================================================================
conv2d_1 (Conv2D)            (None, 32, 32, 32)        896       
_________________________________________________________________
max_pooling2d_1 (MaxPooling2 (None, 16, 16, 32)        0         
_________________________________________________________________
conv2d_2 (Conv2D)            (None, 16, 16, 32)        9248      
_________________________________________________________________
max_pooling2d_2 (MaxPooling2 (None, 8, 8, 32)          0         
_________________________________________________________________
conv2d_3 (Conv2D)            (None, 8, 8, 64)          18496     
_________________________________________________________________
max_pooling2d_3 (MaxPooling2 (None, 4, 4, 64)          0         
_________________________________________________________________
flatten_1 (Flatten)          (None, 1024)              0         
_________________________________________________________________
dense_1 (Dense)              (None, 128)               131200    
_________________________________________________________________
activation_1 (Activation)    (None, 128)               0         
_________________________________________________________________
dense_2 (Dense)              (None, 128)               16512     
_________________________________________________________________
activation_2 (Activation)    (None, 128)               0         
_________________________________________________________________
dense_3 (Dense)              (None, 10)                1290      
=================================================================
Total params: 177,642
Trainable params: 177,642
Non-trainable params: 0
_________________________________________________________________

2018-04-29 01:00:24.184558AM --- Model took seconds to train 185.0331437587738
2018-04-29 01:00:24.300576AM --- Accuracy on test data is: 68.7
2018-04-29 01:00:24.346481AM --- starting process for: (((conv*1)vazio)*2)fc*2
2018-04-29 01:00:25.125211AM
_________________________________________________________________
Layer (type)                 Output Shape              Param #   
=================================================================
conv2d_1 (Conv2D)            (None, 32, 32, 32)        896       
_________________________________________________________________
conv2d_2 (Conv2D)            (None, 32, 32, 32)        9248      
_________________________________________________________________
flatten_1 (Flatten)          (None, 32768)             0         
_________________________________________________________________
dense_1 (Dense)              (None, 128)               4194432   
_________________________________________________________________
activation_1 (Activation)    (None, 128)               0         
_________________________________________________________________
dense_2 (Dense)              (None, 128)               16512     
_________________________________________________________________
activation_2 (Activation)    (None, 128)               0         
_________________________________________________________________
dense_3 (Dense)              (None, 10)                1290      
=================================================================
Total params: 4,222,378
Trainable params: 4,222,378
Non-trainable params: 0
_________________________________________________________________

2018-04-29 01:04:48.647965AM --- Model took seconds to train 263.50753903388977
2018-04-29 01:04:48.947734AM --- Accuracy on test data is: 60.25
2018-04-29 01:04:48.991736AM --- starting process for: (((conv*2)pool)*3)fc*2
2018-04-29 01:04:49.722040AM
_________________________________________________________________
Layer (type)                 Output Shape              Param #   
=================================================================
conv2d_1 (Conv2D)            (None, 32, 32, 32)        896       
_________________________________________________________________
conv2d_2 (Conv2D)            (None, 32, 32, 32)        9248      
_________________________________________________________________
max_pooling2d_1 (MaxPooling2 (None, 16, 16, 32)        0         
_________________________________________________________________
conv2d_3 (Conv2D)            (None, 16, 16, 64)        18496     
_________________________________________________________________
conv2d_4 (Conv2D)            (None, 16, 16, 128)       73856     
_________________________________________________________________
max_pooling2d_2 (MaxPooling2 (None, 8, 8, 128)         0         
_________________________________________________________________
conv2d_5 (Conv2D)            (None, 8, 8, 128)         147584    
_________________________________________________________________
conv2d_6 (Conv2D)            (None, 8, 8, 128)         147584    
_________________________________________________________________
max_pooling2d_3 (MaxPooling2 (None, 4, 4, 128)         0         
_________________________________________________________________
flatten_1 (Flatten)          (None, 2048)              0         
_________________________________________________________________
dense_1 (Dense)              (None, 128)               262272    
_________________________________________________________________
activation_1 (Activation)    (None, 128)               0         
_________________________________________________________________
dense_2 (Dense)              (None, 128)               16512     
_________________________________________________________________
activation_2 (Activation)    (None, 128)               0         
_________________________________________________________________
dense_3 (Dense)              (None, 10)                1290      
=================================================================
Total params: 677,738
Trainable params: 677,738
Non-trainable params: 0
_________________________________________________________________

2018-04-29 01:11:23.072947AM --- Model took seconds to train 393.3351180553436
2018-04-29 01:11:23.228286AM --- Accuracy on test data is: 76.35
2018-04-29 01:11:23.276624AM --- starting process for: (((conv*2)vazio)*1)fc*1
2018-04-29 01:11:23.987914AM
_________________________________________________________________
Layer (type)                 Output Shape              Param #   
=================================================================
conv2d_1 (Conv2D)            (None, 32, 32, 32)        896       
_________________________________________________________________
conv2d_2 (Conv2D)            (None, 32, 32, 32)        9248      
_________________________________________________________________
flatten_1 (Flatten)          (None, 32768)             0         
_________________________________________________________________
dense_1 (Dense)              (None, 128)               4194432   
_________________________________________________________________
activation_1 (Activation)    (None, 128)               0         
_________________________________________________________________
dense_2 (Dense)              (None, 10)                1290      
=================================================================
Total params: 4,205,866
Trainable params: 4,205,866
Non-trainable params: 0
_________________________________________________________________

2018-04-29 01:15:43.835735AM --- Model took seconds to train 259.832528591156
2018-04-29 01:15:44.114658AM --- Accuracy on test data is: 61.9
2018-04-29 01:15:44.153754AM --- starting process for: (((conv*1)vazio)*2)fc*1
2018-04-29 01:15:44.854857AM
_________________________________________________________________
Layer (type)                 Output Shape              Param #   
=================================================================
conv2d_1 (Conv2D)            (None, 32, 32, 32)        896       
_________________________________________________________________
conv2d_2 (Conv2D)            (None, 32, 32, 32)        9248      
_________________________________________________________________
flatten_1 (Flatten)          (None, 32768)             0         
_________________________________________________________________
dense_1 (Dense)              (None, 128)               4194432   
_________________________________________________________________
activation_1 (Activation)    (None, 128)               0         
_________________________________________________________________
dense_2 (Dense)              (None, 10)                1290      
=================================================================
Total params: 4,205,866
Trainable params: 4,205,866
Non-trainable params: 0
_________________________________________________________________

2018-04-29 01:20:07.744509AM --- Model took seconds to train 262.8744332790375
2018-04-29 01:20:08.017711AM --- Accuracy on test data is: 61.0
2018-04-29 01:20:08.060280AM --- starting process for: (((conv*2)pool)*3)fc*2
2018-04-29 01:20:08.788569AM
_________________________________________________________________
Layer (type)                 Output Shape              Param #   
=================================================================
conv2d_1 (Conv2D)            (None, 32, 32, 32)        896       
_________________________________________________________________
conv2d_2 (Conv2D)            (None, 32, 32, 32)        9248      
_________________________________________________________________
max_pooling2d_1 (MaxPooling2 (None, 16, 16, 32)        0         
_________________________________________________________________
conv2d_3 (Conv2D)            (None, 16, 16, 64)        18496     
_________________________________________________________________
conv2d_4 (Conv2D)            (None, 16, 16, 128)       73856     
_________________________________________________________________
max_pooling2d_2 (MaxPooling2 (None, 8, 8, 128)         0         
_________________________________________________________________
conv2d_5 (Conv2D)            (None, 8, 8, 128)         147584    
_________________________________________________________________
conv2d_6 (Conv2D)            (None, 8, 8, 128)         147584    
_________________________________________________________________
max_pooling2d_3 (MaxPooling2 (None, 4, 4, 128)         0         
_________________________________________________________________
flatten_1 (Flatten)          (None, 2048)              0         
_________________________________________________________________
dense_1 (Dense)              (None, 128)               262272    
_________________________________________________________________
activation_1 (Activation)    (None, 128)               0         
_________________________________________________________________
dense_2 (Dense)              (None, 128)               16512     
_________________________________________________________________
activation_2 (Activation)    (None, 128)               0         
_________________________________________________________________
dense_3 (Dense)              (None, 10)                1290      
=================================================================
Total params: 677,738
Trainable params: 677,738
Non-trainable params: 0
_________________________________________________________________

2018-04-29 01:26:40.440776AM --- Model took seconds to train 391.5598337650299
2018-04-29 01:26:40.595343AM --- Accuracy on test data is: 78.05
2018-04-29 01:26:40.637158AM --- starting process for: (((conv*2)pool)*3)fc*2
2018-04-29 01:26:41.368858AM
_________________________________________________________________
Layer (type)                 Output Shape              Param #   
=================================================================
conv2d_1 (Conv2D)            (None, 32, 32, 32)        896       
_________________________________________________________________
conv2d_2 (Conv2D)            (None, 32, 32, 32)        9248      
_________________________________________________________________
max_pooling2d_1 (MaxPooling2 (None, 16, 16, 32)        0         
_________________________________________________________________
conv2d_3 (Conv2D)            (None, 16, 16, 64)        18496     
_________________________________________________________________
conv2d_4 (Conv2D)            (None, 16, 16, 128)       73856     
_________________________________________________________________
max_pooling2d_2 (MaxPooling2 (None, 8, 8, 128)         0         
_________________________________________________________________
conv2d_5 (Conv2D)            (None, 8, 8, 128)         147584    
_________________________________________________________________
conv2d_6 (Conv2D)            (None, 8, 8, 128)         147584    
_________________________________________________________________
max_pooling2d_3 (MaxPooling2 (None, 4, 4, 128)         0         
_________________________________________________________________
flatten_1 (Flatten)          (None, 2048)              0         
_________________________________________________________________
dense_1 (Dense)              (None, 128)               262272    
_________________________________________________________________
activation_1 (Activation)    (None, 128)               0         
_________________________________________________________________
dense_2 (Dense)              (None, 128)               16512     
_________________________________________________________________
activation_2 (Activation)    (None, 128)               0         
_________________________________________________________________
dense_3 (Dense)              (None, 10)                1290      
=================================================================
Total params: 677,738
Trainable params: 677,738
Non-trainable params: 0
_________________________________________________________________

2018-04-29 01:33:10.393532AM --- Model took seconds to train 389.0090243816376
2018-04-29 01:33:10.549078AM --- Accuracy on test data is: 76.85
2018-04-29 01:33:10.591883AM --- starting process for: (((conv*1)pool)*1)fc*0
2018-04-29 01:33:11.289109AM
_________________________________________________________________
Layer (type)                 Output Shape              Param #   
=================================================================
conv2d_1 (Conv2D)            (None, 32, 32, 32)        896       
_________________________________________________________________
max_pooling2d_1 (MaxPooling2 (None, 16, 16, 32)        0         
_________________________________________________________________
flatten_1 (Flatten)          (None, 8192)              0         
_________________________________________________________________
dense_1 (Dense)              (None, 10)                81930     
=================================================================
Total params: 82,826
Trainable params: 82,826
Non-trainable params: 0
_________________________________________________________________

2018-04-29 01:35:53.248733AM --- Model took seconds to train 161.94405245780945
2018-04-29 01:35:53.369964AM --- Accuracy on test data is: 61.45
2018-04-29 01:35:53.411343AM --- starting process for: (((conv*2)vazio)*3)fc*0
2018-04-29 01:35:54.129254AM
_________________________________________________________________
Layer (type)                 Output Shape              Param #   
=================================================================
conv2d_1 (Conv2D)            (None, 32, 32, 32)        896       
_________________________________________________________________
conv2d_2 (Conv2D)            (None, 32, 32, 32)        9248      
_________________________________________________________________
conv2d_3 (Conv2D)            (None, 32, 32, 64)        18496     
_________________________________________________________________
conv2d_4 (Conv2D)            (None, 32, 32, 128)       73856     
_________________________________________________________________
conv2d_5 (Conv2D)            (None, 32, 32, 128)       147584    
_________________________________________________________________
conv2d_6 (Conv2D)            (None, 32, 32, 128)       147584    
_________________________________________________________________
flatten_1 (Flatten)          (None, 131072)            0         
_________________________________________________________________
dense_1 (Dense)              (None, 10)                1310730   
=================================================================
Total params: 1,708,394
Trainable params: 1,708,394
Non-trainable params: 0
_________________________________________________________________

2018-04-29 02:00:57.100300AM --- Model took seconds to train 1502.9560813903809
2018-04-29 02:00:58.072250AM --- Accuracy on test data is: 63.55
2018-04-29 02:00:58.111156AM --- starting process for: (((conv*2)pool)*3)fc*1
2018-04-29 02:00:58.843435AM
_________________________________________________________________
Layer (type)                 Output Shape              Param #   
=================================================================
conv2d_1 (Conv2D)            (None, 32, 32, 32)        896       
_________________________________________________________________
conv2d_2 (Conv2D)            (None, 32, 32, 32)        9248      
_________________________________________________________________
max_pooling2d_1 (MaxPooling2 (None, 16, 16, 32)        0         
_________________________________________________________________
conv2d_3 (Conv2D)            (None, 16, 16, 64)        18496     
_________________________________________________________________
conv2d_4 (Conv2D)            (None, 16, 16, 128)       73856     
_________________________________________________________________
max_pooling2d_2 (MaxPooling2 (None, 8, 8, 128)         0         
_________________________________________________________________
conv2d_5 (Conv2D)            (None, 8, 8, 128)         147584    
_________________________________________________________________
conv2d_6 (Conv2D)            (None, 8, 8, 128)         147584    
_________________________________________________________________
max_pooling2d_3 (MaxPooling2 (None, 4, 4, 128)         0         
_________________________________________________________________
flatten_1 (Flatten)          (None, 2048)              0         
_________________________________________________________________
dense_1 (Dense)              (None, 128)               262272    
_________________________________________________________________
activation_1 (Activation)    (None, 128)               0         
_________________________________________________________________
dense_2 (Dense)              (None, 10)                1290      
=================================================================
Total params: 661,226
Trainable params: 661,226
Non-trainable params: 0
_________________________________________________________________

2018-04-29 02:07:26.012647AM --- Model took seconds to train 387.1533546447754
2018-04-29 02:07:26.175399AM --- Accuracy on test data is: 77.9
2018-04-29 02:07:26.216538AM --- starting process for: (((conv*2)pool)*3)fc*2
2018-04-29 02:07:26.948691AM
_________________________________________________________________
Layer (type)                 Output Shape              Param #   
=================================================================
conv2d_1 (Conv2D)            (None, 32, 32, 32)        896       
_________________________________________________________________
conv2d_2 (Conv2D)            (None, 32, 32, 32)        9248      
_________________________________________________________________
max_pooling2d_1 (MaxPooling2 (None, 16, 16, 32)        0         
_________________________________________________________________
conv2d_3 (Conv2D)            (None, 16, 16, 64)        18496     
_________________________________________________________________
conv2d_4 (Conv2D)            (None, 16, 16, 128)       73856     
_________________________________________________________________
max_pooling2d_2 (MaxPooling2 (None, 8, 8, 128)         0         
_________________________________________________________________
conv2d_5 (Conv2D)            (None, 8, 8, 128)         147584    
_________________________________________________________________
conv2d_6 (Conv2D)            (None, 8, 8, 128)         147584    
_________________________________________________________________
max_pooling2d_3 (MaxPooling2 (None, 4, 4, 128)         0         
_________________________________________________________________
flatten_1 (Flatten)          (None, 2048)              0         
_________________________________________________________________
dense_1 (Dense)              (None, 128)               262272    
_________________________________________________________________
activation_1 (Activation)    (None, 128)               0         
_________________________________________________________________
dense_2 (Dense)              (None, 128)               16512     
_________________________________________________________________
activation_2 (Activation)    (None, 128)               0         
_________________________________________________________________
dense_3 (Dense)              (None, 10)                1290      
=================================================================
Total params: 677,738
Trainable params: 677,738
Non-trainable params: 0
_________________________________________________________________

2018-04-29 02:13:56.607632AM --- Model took seconds to train 389.64380955696106
2018-04-29 02:13:56.756565AM --- Accuracy on test data is: 77.10000000000001
2018-04-29 02:13:56.795609AM --- starting process for: (((conv*1)vazio)*2)fc*1
2018-04-29 02:13:57.504349AM
_________________________________________________________________
Layer (type)                 Output Shape              Param #   
=================================================================
conv2d_1 (Conv2D)            (None, 32, 32, 32)        896       
_________________________________________________________________
conv2d_2 (Conv2D)            (None, 32, 32, 32)        9248      
_________________________________________________________________
flatten_1 (Flatten)          (None, 32768)             0         
_________________________________________________________________
dense_1 (Dense)              (None, 128)               4194432   
_________________________________________________________________
activation_1 (Activation)    (None, 128)               0         
_________________________________________________________________
dense_2 (Dense)              (None, 10)                1290      
=================================================================
Total params: 4,205,866
Trainable params: 4,205,866
Non-trainable params: 0
_________________________________________________________________

2018-04-29 02:18:16.736125AM --- Model took seconds to train 259.2164800167084
2018-04-29 02:18:17.016087AM --- Accuracy on test data is: 61.3
2018-04-29 02:18:17.059961AM --- starting process for: (((conv*2)pool)*3)fc*1
2018-04-29 02:18:17.786863AM
_________________________________________________________________
Layer (type)                 Output Shape              Param #   
=================================================================
conv2d_1 (Conv2D)            (None, 32, 32, 32)        896       
_________________________________________________________________
conv2d_2 (Conv2D)            (None, 32, 32, 32)        9248      
_________________________________________________________________
max_pooling2d_1 (MaxPooling2 (None, 16, 16, 32)        0         
_________________________________________________________________
conv2d_3 (Conv2D)            (None, 16, 16, 64)        18496     
_________________________________________________________________
conv2d_4 (Conv2D)            (None, 16, 16, 128)       73856     
_________________________________________________________________
max_pooling2d_2 (MaxPooling2 (None, 8, 8, 128)         0         
_________________________________________________________________
conv2d_5 (Conv2D)            (None, 8, 8, 128)         147584    
_________________________________________________________________
conv2d_6 (Conv2D)            (None, 8, 8, 128)         147584    
_________________________________________________________________
max_pooling2d_3 (MaxPooling2 (None, 4, 4, 128)         0         
_________________________________________________________________
flatten_1 (Flatten)          (None, 2048)              0         
_________________________________________________________________
dense_1 (Dense)              (None, 128)               262272    
_________________________________________________________________
activation_1 (Activation)    (None, 128)               0         
_________________________________________________________________
dense_2 (Dense)              (None, 10)                1290      
=================================================================
Total params: 661,226
Trainable params: 661,226
Non-trainable params: 0
_________________________________________________________________

2018-04-29 02:24:45.876026AM --- Model took seconds to train 388.07363772392273
2018-04-29 02:24:46.022682AM --- Accuracy on test data is: 77.55
2018-04-29 02:24:46.065361AM --- starting process for: (((conv*1)vazio)*1)fc*2
2018-04-29 02:24:46.760919AM
_________________________________________________________________
Layer (type)                 Output Shape              Param #   
=================================================================
conv2d_1 (Conv2D)            (None, 32, 32, 32)        896       
_________________________________________________________________
flatten_1 (Flatten)          (None, 32768)             0         
_________________________________________________________________
dense_1 (Dense)              (None, 128)               4194432   
_________________________________________________________________
activation_1 (Activation)    (None, 128)               0         
_________________________________________________________________
dense_2 (Dense)              (None, 128)               16512     
_________________________________________________________________
activation_2 (Activation)    (None, 128)               0         
_________________________________________________________________
dense_3 (Dense)              (None, 10)                1290      
=================================================================
Total params: 4,213,130
Trainable params: 4,213,130
Non-trainable params: 0
_________________________________________________________________

2018-04-29 02:27:50.556536AM --- Model took seconds to train 183.78027176856995
2018-04-29 02:27:50.807879AM --- Accuracy on test data is: 58.95
2018-04-29 02:27:50.847901AM --- starting process for: (((conv*2)pool)*2)fc*1
2018-04-29 02:27:51.561319AM
_________________________________________________________________
Layer (type)                 Output Shape              Param #   
=================================================================
conv2d_1 (Conv2D)            (None, 32, 32, 32)        896       
_________________________________________________________________
conv2d_2 (Conv2D)            (None, 32, 32, 32)        9248      
_________________________________________________________________
max_pooling2d_1 (MaxPooling2 (None, 16, 16, 32)        0         
_________________________________________________________________
conv2d_3 (Conv2D)            (None, 16, 16, 64)        18496     
_________________________________________________________________
conv2d_4 (Conv2D)            (None, 16, 16, 128)       73856     
_________________________________________________________________
max_pooling2d_2 (MaxPooling2 (None, 8, 8, 128)         0         
_________________________________________________________________
flatten_1 (Flatten)          (None, 8192)              0         
_________________________________________________________________
dense_1 (Dense)              (None, 128)               1048704   
_________________________________________________________________
activation_1 (Activation)    (None, 128)               0         
_________________________________________________________________
dense_2 (Dense)              (None, 10)                1290      
=================================================================
Total params: 1,152,490
Trainable params: 1,152,490
Non-trainable params: 0
_________________________________________________________________

2018-04-29 02:33:27.843973AM --- Model took seconds to train 336.2668752670288
2018-04-29 02:33:28.020987AM --- Accuracy on test data is: 75.0
2018-04-29 02:33:28.065894AM --- starting process for: (((conv*2)vazio)*3)fc*0
2018-04-29 02:33:28.783249AM
_________________________________________________________________
Layer (type)                 Output Shape              Param #   
=================================================================
conv2d_1 (Conv2D)            (None, 32, 32, 32)        896       
_________________________________________________________________
conv2d_2 (Conv2D)            (None, 32, 32, 32)        9248      
_________________________________________________________________
conv2d_3 (Conv2D)            (None, 32, 32, 64)        18496     
_________________________________________________________________
conv2d_4 (Conv2D)            (None, 32, 32, 128)       73856     
_________________________________________________________________
conv2d_5 (Conv2D)            (None, 32, 32, 128)       147584    
_________________________________________________________________
conv2d_6 (Conv2D)            (None, 32, 32, 128)       147584    
_________________________________________________________________
flatten_1 (Flatten)          (None, 131072)            0         
_________________________________________________________________
dense_1 (Dense)              (None, 10)                1310730   
=================================================================
Total params: 1,708,394
Trainable params: 1,708,394
Non-trainable params: 0
_________________________________________________________________

2018-04-29 02:58:33.901570AM --- Model took seconds to train 1505.1031169891357
2018-04-29 02:58:34.876257AM --- Accuracy on test data is: 63.4
2018-04-29 02:58:34.915977AM --- starting process for: (((conv*2)vazio)*2)fc*0
2018-04-29 02:58:35.690157AM
_________________________________________________________________
Layer (type)                 Output Shape              Param #   
=================================================================
conv2d_1 (Conv2D)            (None, 32, 32, 32)        896       
_________________________________________________________________
conv2d_2 (Conv2D)            (None, 32, 32, 32)        9248      
_________________________________________________________________
conv2d_3 (Conv2D)            (None, 32, 32, 64)        18496     
_________________________________________________________________
conv2d_4 (Conv2D)            (None, 32, 32, 128)       73856     
_________________________________________________________________
flatten_1 (Flatten)          (None, 131072)            0         
_________________________________________________________________
dense_1 (Dense)              (None, 10)                1310730   
=================================================================
Total params: 1,413,226
Trainable params: 1,413,226
Non-trainable params: 0
_________________________________________________________________

2018-04-29 03:15:35.354587AM --- Model took seconds to train 1019.6494252681732
2018-04-29 03:15:36.207092AM --- Accuracy on test data is: 64.35
2018-04-29 03:15:36.247171AM --- starting process for: (((conv*1)vazio)*2)fc*2
2018-04-29 03:15:36.957893AM
_________________________________________________________________
Layer (type)                 Output Shape              Param #   
=================================================================
conv2d_1 (Conv2D)            (None, 32, 32, 32)        896       
_________________________________________________________________
conv2d_2 (Conv2D)            (None, 32, 32, 32)        9248      
_________________________________________________________________
flatten_1 (Flatten)          (None, 32768)             0         
_________________________________________________________________
dense_1 (Dense)              (None, 128)               4194432   
_________________________________________________________________
activation_1 (Activation)    (None, 128)               0         
_________________________________________________________________
dense_2 (Dense)              (None, 128)               16512     
_________________________________________________________________
activation_2 (Activation)    (None, 128)               0         
_________________________________________________________________
dense_3 (Dense)              (None, 10)                1290      
=================================================================
Total params: 4,222,378
Trainable params: 4,222,378
Non-trainable params: 0
_________________________________________________________________

2018-04-29 03:20:00.997403AM --- Model took seconds to train 264.02430748939514
2018-04-29 03:20:01.283958AM --- Accuracy on test data is: 61.9
2018-04-29 03:20:01.323569AM --- starting process for: (((conv*2)pool)*3)fc*0
2018-04-29 03:20:02.042864AM
_________________________________________________________________
Layer (type)                 Output Shape              Param #   
=================================================================
conv2d_1 (Conv2D)            (None, 32, 32, 32)        896       
_________________________________________________________________
conv2d_2 (Conv2D)            (None, 32, 32, 32)        9248      
_________________________________________________________________
max_pooling2d_1 (MaxPooling2 (None, 16, 16, 32)        0         
_________________________________________________________________
conv2d_3 (Conv2D)            (None, 16, 16, 64)        18496     
_________________________________________________________________
conv2d_4 (Conv2D)            (None, 16, 16, 128)       73856     
_________________________________________________________________
max_pooling2d_2 (MaxPooling2 (None, 8, 8, 128)         0         
_________________________________________________________________
conv2d_5 (Conv2D)            (None, 8, 8, 128)         147584    
_________________________________________________________________
conv2d_6 (Conv2D)            (None, 8, 8, 128)         147584    
_________________________________________________________________
max_pooling2d_3 (MaxPooling2 (None, 4, 4, 128)         0         
_________________________________________________________________
flatten_1 (Flatten)          (None, 2048)              0         
_________________________________________________________________
dense_1 (Dense)              (None, 10)                20490     
=================================================================
Total params: 418,154
Trainable params: 418,154
Non-trainable params: 0
_________________________________________________________________

2018-04-29 03:26:29.262242AM --- Model took seconds to train 387.20358872413635
2018-04-29 03:26:29.405962AM --- Accuracy on test data is: 76.35
2018-04-29 03:26:29.453134AM --- starting process for: (((conv*2)pool)*3)fc*2
2018-04-29 03:26:30.187300AM
_________________________________________________________________
Layer (type)                 Output Shape              Param #   
=================================================================
conv2d_1 (Conv2D)            (None, 32, 32, 32)        896       
_________________________________________________________________
conv2d_2 (Conv2D)            (None, 32, 32, 32)        9248      
_________________________________________________________________
max_pooling2d_1 (MaxPooling2 (None, 16, 16, 32)        0         
_________________________________________________________________
conv2d_3 (Conv2D)            (None, 16, 16, 64)        18496     
_________________________________________________________________
conv2d_4 (Conv2D)            (None, 16, 16, 128)       73856     
_________________________________________________________________
max_pooling2d_2 (MaxPooling2 (None, 8, 8, 128)         0         
_________________________________________________________________
conv2d_5 (Conv2D)            (None, 8, 8, 128)         147584    
_________________________________________________________________
conv2d_6 (Conv2D)            (None, 8, 8, 128)         147584    
_________________________________________________________________
max_pooling2d_3 (MaxPooling2 (None, 4, 4, 128)         0         
_________________________________________________________________
flatten_1 (Flatten)          (None, 2048)              0         
_________________________________________________________________
dense_1 (Dense)              (None, 128)               262272    
_________________________________________________________________
activation_1 (Activation)    (None, 128)               0         
_________________________________________________________________
dense_2 (Dense)              (None, 128)               16512     
_________________________________________________________________
activation_2 (Activation)    (None, 128)               0         
_________________________________________________________________
dense_3 (Dense)              (None, 10)                1290      
=================================================================
Total params: 677,738
Trainable params: 677,738
Non-trainable params: 0
_________________________________________________________________

2018-04-29 03:33:02.198798AM --- Model took seconds to train 391.996066570282
2018-04-29 03:33:02.347476AM --- Accuracy on test data is: 78.3
2018-04-29 03:33:02.388406AM --- starting process for: (((conv*2)pool)*3)fc*2
2018-04-29 03:33:03.121929AM
_________________________________________________________________
Layer (type)                 Output Shape              Param #   
=================================================================
conv2d_1 (Conv2D)            (None, 32, 32, 32)        896       
_________________________________________________________________
conv2d_2 (Conv2D)            (None, 32, 32, 32)        9248      
_________________________________________________________________
max_pooling2d_1 (MaxPooling2 (None, 16, 16, 32)        0         
_________________________________________________________________
conv2d_3 (Conv2D)            (None, 16, 16, 64)        18496     
_________________________________________________________________
conv2d_4 (Conv2D)            (None, 16, 16, 128)       73856     
_________________________________________________________________
max_pooling2d_2 (MaxPooling2 (None, 8, 8, 128)         0         
_________________________________________________________________
conv2d_5 (Conv2D)            (None, 8, 8, 128)         147584    
_________________________________________________________________
conv2d_6 (Conv2D)            (None, 8, 8, 128)         147584    
_________________________________________________________________
max_pooling2d_3 (MaxPooling2 (None, 4, 4, 128)         0         
_________________________________________________________________
flatten_1 (Flatten)          (None, 2048)              0         
_________________________________________________________________
dense_1 (Dense)              (None, 128)               262272    
_________________________________________________________________
activation_1 (Activation)    (None, 128)               0         
_________________________________________________________________
dense_2 (Dense)              (None, 128)               16512     
_________________________________________________________________
activation_2 (Activation)    (None, 128)               0         
_________________________________________________________________
dense_3 (Dense)              (None, 10)                1290      
=================================================================
Total params: 677,738
Trainable params: 677,738
Non-trainable params: 0
_________________________________________________________________

2018-04-29 03:39:34.357646AM --- Model took seconds to train 391.2202789783478
2018-04-29 03:39:34.505164AM --- Accuracy on test data is: 77.05
2018-04-29 03:39:34.545462AM --- starting process for: (((conv*1)pool)*3)fc*2
2018-04-29 03:39:35.262403AM
_________________________________________________________________
Layer (type)                 Output Shape              Param #   
=================================================================
conv2d_1 (Conv2D)            (None, 32, 32, 32)        896       
_________________________________________________________________
max_pooling2d_1 (MaxPooling2 (None, 16, 16, 32)        0         
_________________________________________________________________
conv2d_2 (Conv2D)            (None, 16, 16, 32)        9248      
_________________________________________________________________
max_pooling2d_2 (MaxPooling2 (None, 8, 8, 32)          0         
_________________________________________________________________
conv2d_3 (Conv2D)            (None, 8, 8, 64)          18496     
_________________________________________________________________
max_pooling2d_3 (MaxPooling2 (None, 4, 4, 64)          0         
_________________________________________________________________
flatten_1 (Flatten)          (None, 1024)              0         
_________________________________________________________________
dense_1 (Dense)              (None, 128)               131200    
_________________________________________________________________
activation_1 (Activation)    (None, 128)               0         
_________________________________________________________________
dense_2 (Dense)              (None, 128)               16512     
_________________________________________________________________
activation_2 (Activation)    (None, 128)               0         
_________________________________________________________________
dense_3 (Dense)              (None, 10)                1290      
=================================================================
Total params: 177,642
Trainable params: 177,642
Non-trainable params: 0
_________________________________________________________________

2018-04-29 03:42:44.266027AM --- Model took seconds to train 188.91652059555054
2018-04-29 03:42:44.362543AM --- Accuracy on test data is: 71.45
2018-04-29 03:42:44.403940AM --- starting process for: (((conv*1)pool)*3)fc*2
2018-04-29 03:42:45.122911AM
_________________________________________________________________
Layer (type)                 Output Shape              Param #   
=================================================================
conv2d_1 (Conv2D)            (None, 32, 32, 32)        896       
_________________________________________________________________
max_pooling2d_1 (MaxPooling2 (None, 16, 16, 32)        0         
_________________________________________________________________
conv2d_2 (Conv2D)            (None, 16, 16, 32)        9248      
_________________________________________________________________
max_pooling2d_2 (MaxPooling2 (None, 8, 8, 32)          0         
_________________________________________________________________
conv2d_3 (Conv2D)            (None, 8, 8, 64)          18496     
_________________________________________________________________
max_pooling2d_3 (MaxPooling2 (None, 4, 4, 64)          0         
_________________________________________________________________
flatten_1 (Flatten)          (None, 1024)              0         
_________________________________________________________________
dense_1 (Dense)              (None, 128)               131200    
_________________________________________________________________
activation_1 (Activation)    (None, 128)               0         
_________________________________________________________________
dense_2 (Dense)              (None, 128)               16512     
_________________________________________________________________
activation_2 (Activation)    (None, 128)               0         
_________________________________________________________________
dense_3 (Dense)              (None, 10)                1290      
=================================================================
Total params: 177,642
Trainable params: 177,642
Non-trainable params: 0
_________________________________________________________________

2018-04-29 03:45:51.207712AM --- Model took seconds to train 186.06975483894348
2018-04-29 03:45:51.315874AM --- Accuracy on test data is: 72.75
2018-04-29 03:45:51.362726AM --- starting process for: (((conv*1)pool)*3)fc*0
2018-04-29 03:45:52.066771AM
_________________________________________________________________
Layer (type)                 Output Shape              Param #   
=================================================================
conv2d_1 (Conv2D)            (None, 32, 32, 32)        896       
_________________________________________________________________
max_pooling2d_1 (MaxPooling2 (None, 16, 16, 32)        0         
_________________________________________________________________
conv2d_2 (Conv2D)            (None, 16, 16, 32)        9248      
_________________________________________________________________
max_pooling2d_2 (MaxPooling2 (None, 8, 8, 32)          0         
_________________________________________________________________
conv2d_3 (Conv2D)            (None, 8, 8, 64)          18496     
_________________________________________________________________
max_pooling2d_3 (MaxPooling2 (None, 4, 4, 64)          0         
_________________________________________________________________
flatten_1 (Flatten)          (None, 1024)              0         
_________________________________________________________________
dense_1 (Dense)              (None, 10)                10250     
=================================================================
Total params: 38,890
Trainable params: 38,890
Non-trainable params: 0
_________________________________________________________________

2018-04-29 03:48:49.713780AM --- Model took seconds to train 177.57017493247986
2018-04-29 03:48:49.815294AM --- Accuracy on test data is: 70.8
2018-04-29 03:48:49.865332AM --- starting process for: (((conv*2)pool)*3)fc*1
2018-04-29 03:48:50.591806AM
_________________________________________________________________
Layer (type)                 Output Shape              Param #   
=================================================================
conv2d_1 (Conv2D)            (None, 32, 32, 32)        896       
_________________________________________________________________
conv2d_2 (Conv2D)            (None, 32, 32, 32)        9248      
_________________________________________________________________
max_pooling2d_1 (MaxPooling2 (None, 16, 16, 32)        0         
_________________________________________________________________
conv2d_3 (Conv2D)            (None, 16, 16, 64)        18496     
_________________________________________________________________
conv2d_4 (Conv2D)            (None, 16, 16, 128)       73856     
_________________________________________________________________
max_pooling2d_2 (MaxPooling2 (None, 8, 8, 128)         0         
_________________________________________________________________
conv2d_5 (Conv2D)            (None, 8, 8, 128)         147584    
_________________________________________________________________
conv2d_6 (Conv2D)            (None, 8, 8, 128)         147584    
_________________________________________________________________
max_pooling2d_3 (MaxPooling2 (None, 4, 4, 128)         0         
_________________________________________________________________
flatten_1 (Flatten)          (None, 2048)              0         
_________________________________________________________________
dense_1 (Dense)              (None, 128)               262272    
_________________________________________________________________
activation_1 (Activation)    (None, 128)               0         
_________________________________________________________________
dense_2 (Dense)              (None, 10)                1290      
=================================================================
Total params: 661,226
Trainable params: 661,226
Non-trainable params: 0
_________________________________________________________________

2018-04-29 03:55:17.397672AM --- Model took seconds to train 386.7904336452484
2018-04-29 03:55:17.549963AM --- Accuracy on test data is: 77.10000000000001
2018-04-29 03:55:17.593541AM --- starting process for: (((conv*2)pool)*1)fc*2
2018-04-29 03:55:18.367925AM
_________________________________________________________________
Layer (type)                 Output Shape              Param #   
=================================================================
conv2d_1 (Conv2D)            (None, 32, 32, 32)        896       
_________________________________________________________________
conv2d_2 (Conv2D)            (None, 32, 32, 32)        9248      
_________________________________________________________________
max_pooling2d_1 (MaxPooling2 (None, 16, 16, 32)        0         
_________________________________________________________________
flatten_1 (Flatten)          (None, 8192)              0         
_________________________________________________________________
dense_1 (Dense)              (None, 128)               1048704   
_________________________________________________________________
activation_1 (Activation)    (None, 128)               0         
_________________________________________________________________
dense_2 (Dense)              (None, 128)               16512     
_________________________________________________________________
activation_2 (Activation)    (None, 128)               0         
_________________________________________________________________
dense_3 (Dense)              (None, 10)                1290      
=================================================================
Total params: 1,076,650
Trainable params: 1,076,650
Non-trainable params: 0
_________________________________________________________________

2018-04-29 03:59:10.689824AM --- Model took seconds to train 232.30661129951477
2018-04-29 03:59:10.838763AM --- Accuracy on test data is: 66.64999999999999
2018-04-29 03:59:10.883639AM --- starting process for: (((conv*1)pool)*2)fc*2
2018-04-29 03:59:11.596446AM
_________________________________________________________________
Layer (type)                 Output Shape              Param #   
=================================================================
conv2d_1 (Conv2D)            (None, 32, 32, 32)        896       
_________________________________________________________________
max_pooling2d_1 (MaxPooling2 (None, 16, 16, 32)        0         
_________________________________________________________________
conv2d_2 (Conv2D)            (None, 16, 16, 32)        9248      
_________________________________________________________________
max_pooling2d_2 (MaxPooling2 (None, 8, 8, 32)          0         
_________________________________________________________________
flatten_1 (Flatten)          (None, 2048)              0         
_________________________________________________________________
dense_1 (Dense)              (None, 128)               262272    
_________________________________________________________________
activation_1 (Activation)    (None, 128)               0         
_________________________________________________________________
dense_2 (Dense)              (None, 128)               16512     
_________________________________________________________________
activation_2 (Activation)    (None, 128)               0         
_________________________________________________________________
dense_3 (Dense)              (None, 10)                1290      
=================================================================
Total params: 290,218
Trainable params: 290,218
Non-trainable params: 0
_________________________________________________________________

2018-04-29 04:02:05.926550AM --- Model took seconds to train 174.31502532958984
2018-04-29 04:02:06.042050AM --- Accuracy on test data is: 66.55
2018-04-29 04:02:06.092312AM --- starting process for: (((conv*2)pool)*2)fc*2
2018-04-29 04:02:06.813945AM
_________________________________________________________________
Layer (type)                 Output Shape              Param #   
=================================================================
conv2d_1 (Conv2D)            (None, 32, 32, 32)        896       
_________________________________________________________________
conv2d_2 (Conv2D)            (None, 32, 32, 32)        9248      
_________________________________________________________________
max_pooling2d_1 (MaxPooling2 (None, 16, 16, 32)        0         
_________________________________________________________________
conv2d_3 (Conv2D)            (None, 16, 16, 64)        18496     
_________________________________________________________________
conv2d_4 (Conv2D)            (None, 16, 16, 128)       73856     
_________________________________________________________________
max_pooling2d_2 (MaxPooling2 (None, 8, 8, 128)         0         
_________________________________________________________________
flatten_1 (Flatten)          (None, 8192)              0         
_________________________________________________________________
dense_1 (Dense)              (None, 128)               1048704   
_________________________________________________________________
activation_1 (Activation)    (None, 128)               0         
_________________________________________________________________
dense_2 (Dense)              (None, 128)               16512     
_________________________________________________________________
activation_2 (Activation)    (None, 128)               0         
_________________________________________________________________
dense_3 (Dense)              (None, 10)                1290      
=================================================================
Total params: 1,169,002
Trainable params: 1,169,002
Non-trainable params: 0
_________________________________________________________________

2018-04-29 04:07:49.151731AM --- Model took seconds to train 342.3225357532501
2018-04-29 04:07:49.318082AM --- Accuracy on test data is: 74.1
2018-04-29 04:07:49.357113AM --- starting process for: (((conv*1)vazio)*2)fc*0
2018-04-29 04:07:50.058819AM
_________________________________________________________________
Layer (type)                 Output Shape              Param #   
=================================================================
conv2d_1 (Conv2D)            (None, 32, 32, 32)        896       
_________________________________________________________________
conv2d_2 (Conv2D)            (None, 32, 32, 32)        9248      
_________________________________________________________________
flatten_1 (Flatten)          (None, 32768)             0         
_________________________________________________________________
dense_1 (Dense)              (None, 10)                327690    
=================================================================
Total params: 337,834
Trainable params: 337,834
Non-trainable params: 0
_________________________________________________________________

2018-04-29 04:13:49.679938AM --- Model took seconds to train 359.6062686443329
2018-04-29 04:13:49.944353AM --- Accuracy on test data is: 59.3
2018-04-29 04:13:49.985270AM --- starting process for: (((conv*2)vazio)*2)fc*2
2018-04-29 04:13:50.704071AM
_________________________________________________________________
Layer (type)                 Output Shape              Param #   
=================================================================
conv2d_1 (Conv2D)            (None, 32, 32, 32)        896       
_________________________________________________________________
conv2d_2 (Conv2D)            (None, 32, 32, 32)        9248      
_________________________________________________________________
conv2d_3 (Conv2D)            (None, 32, 32, 64)        18496     
_________________________________________________________________
conv2d_4 (Conv2D)            (None, 32, 32, 128)       73856     
_________________________________________________________________
flatten_1 (Flatten)          (None, 131072)            0         
_________________________________________________________________
dense_1 (Dense)              (None, 128)               16777344  
_________________________________________________________________
activation_1 (Activation)    (None, 128)               0         
_________________________________________________________________
dense_2 (Dense)              (None, 128)               16512     
_________________________________________________________________
activation_2 (Activation)    (None, 128)               0         
_________________________________________________________________
dense_3 (Dense)              (None, 10)                1290      
=================================================================
Total params: 16,897,642
Trainable params: 16,897,642
Non-trainable params: 0
_________________________________________________________________

2018-04-29 04:25:32.309403AM --- Model took seconds to train 701.5898520946503
2018-04-29 04:25:33.201627AM --- Accuracy on test data is: 62.74999999999999
2018-04-29 04:25:33.240737AM --- starting process for: (((conv*2)pool)*3)fc*0
2018-04-29 04:25:33.966819AM
_________________________________________________________________
Layer (type)                 Output Shape              Param #   
=================================================================
conv2d_1 (Conv2D)            (None, 32, 32, 32)        896       
_________________________________________________________________
conv2d_2 (Conv2D)            (None, 32, 32, 32)        9248      
_________________________________________________________________
max_pooling2d_1 (MaxPooling2 (None, 16, 16, 32)        0         
_________________________________________________________________
conv2d_3 (Conv2D)            (None, 16, 16, 64)        18496     
_________________________________________________________________
conv2d_4 (Conv2D)            (None, 16, 16, 128)       73856     
_________________________________________________________________
max_pooling2d_2 (MaxPooling2 (None, 8, 8, 128)         0         
_________________________________________________________________
conv2d_5 (Conv2D)            (None, 8, 8, 128)         147584    
_________________________________________________________________
conv2d_6 (Conv2D)            (None, 8, 8, 128)         147584    
_________________________________________________________________
max_pooling2d_3 (MaxPooling2 (None, 4, 4, 128)         0         
_________________________________________________________________
flatten_1 (Flatten)          (None, 2048)              0         
_________________________________________________________________
dense_1 (Dense)              (None, 10)                20490     
=================================================================
Total params: 418,154
Trainable params: 418,154
Non-trainable params: 0
_________________________________________________________________

2018-04-29 04:31:57.553992AM --- Model took seconds to train 383.571679353714
2018-04-29 04:31:57.702600AM --- Accuracy on test data is: 75.64999999999999
2018-04-29 04:31:57.752069AM --- starting process for: (((conv*2)pool)*2)fc*0
2018-04-29 04:31:58.465840AM
_________________________________________________________________
Layer (type)                 Output Shape              Param #   
=================================================================
conv2d_1 (Conv2D)            (None, 32, 32, 32)        896       
_________________________________________________________________
conv2d_2 (Conv2D)            (None, 32, 32, 32)        9248      
_________________________________________________________________
max_pooling2d_1 (MaxPooling2 (None, 16, 16, 32)        0         
_________________________________________________________________
conv2d_3 (Conv2D)            (None, 16, 16, 64)        18496     
_________________________________________________________________
conv2d_4 (Conv2D)            (None, 16, 16, 128)       73856     
_________________________________________________________________
max_pooling2d_2 (MaxPooling2 (None, 8, 8, 128)         0         
_________________________________________________________________
flatten_1 (Flatten)          (None, 8192)              0         
_________________________________________________________________
dense_1 (Dense)              (None, 10)                81930     
=================================================================
Total params: 184,426
Trainable params: 184,426
Non-trainable params: 0
_________________________________________________________________

2018-04-29 04:37:45.211680AM --- Model took seconds to train 346.7307651042938
2018-04-29 04:37:45.384316AM --- Accuracy on test data is: 73.35000000000001
2018-04-29 04:37:45.428950AM --- starting process for: (((conv*2)pool)*3)fc*2
2018-04-29 04:37:46.161558AM
_________________________________________________________________
Layer (type)                 Output Shape              Param #   
=================================================================
conv2d_1 (Conv2D)            (None, 32, 32, 32)        896       
_________________________________________________________________
conv2d_2 (Conv2D)            (None, 32, 32, 32)        9248      
_________________________________________________________________
max_pooling2d_1 (MaxPooling2 (None, 16, 16, 32)        0         
_________________________________________________________________
conv2d_3 (Conv2D)            (None, 16, 16, 64)        18496     
_________________________________________________________________
conv2d_4 (Conv2D)            (None, 16, 16, 128)       73856     
_________________________________________________________________
max_pooling2d_2 (MaxPooling2 (None, 8, 8, 128)         0         
_________________________________________________________________
conv2d_5 (Conv2D)            (None, 8, 8, 128)         147584    
_________________________________________________________________
conv2d_6 (Conv2D)            (None, 8, 8, 128)         147584    
_________________________________________________________________
max_pooling2d_3 (MaxPooling2 (None, 4, 4, 128)         0         
_________________________________________________________________
flatten_1 (Flatten)          (None, 2048)              0         
_________________________________________________________________
dense_1 (Dense)              (None, 128)               262272    
_________________________________________________________________
activation_1 (Activation)    (None, 128)               0         
_________________________________________________________________
dense_2 (Dense)              (None, 128)               16512     
_________________________________________________________________
activation_2 (Activation)    (None, 128)               0         
_________________________________________________________________
dense_3 (Dense)              (None, 10)                1290      
=================================================================
Total params: 677,738
Trainable params: 677,738
Non-trainable params: 0
_________________________________________________________________

2018-04-29 04:44:16.260006AM --- Model took seconds to train 390.0830457210541
2018-04-29 04:44:16.420156AM --- Accuracy on test data is: 77.75
2018-04-29 04:44:16.465910AM --- starting process for: (((conv*1)pool)*3)fc*2
2018-04-29 04:44:17.185162AM
_________________________________________________________________
Layer (type)                 Output Shape              Param #   
=================================================================
conv2d_1 (Conv2D)            (None, 32, 32, 32)        896       
_________________________________________________________________
max_pooling2d_1 (MaxPooling2 (None, 16, 16, 32)        0         
_________________________________________________________________
conv2d_2 (Conv2D)            (None, 16, 16, 32)        9248      
_________________________________________________________________
max_pooling2d_2 (MaxPooling2 (None, 8, 8, 32)          0         
_________________________________________________________________
conv2d_3 (Conv2D)            (None, 8, 8, 64)          18496     
_________________________________________________________________
max_pooling2d_3 (MaxPooling2 (None, 4, 4, 64)          0         
_________________________________________________________________
flatten_1 (Flatten)          (None, 1024)              0         
_________________________________________________________________
dense_1 (Dense)              (None, 128)               131200    
_________________________________________________________________
activation_1 (Activation)    (None, 128)               0         
_________________________________________________________________
dense_2 (Dense)              (None, 128)               16512     
_________________________________________________________________
activation_2 (Activation)    (None, 128)               0         
_________________________________________________________________
dense_3 (Dense)              (None, 10)                1290      
=================================================================
Total params: 177,642
Trainable params: 177,642
Non-trainable params: 0
_________________________________________________________________

2018-04-29 04:47:22.559567AM --- Model took seconds to train 185.3593134880066
2018-04-29 04:47:22.674472AM --- Accuracy on test data is: 69.8
2018-04-29 04:47:22.720236AM --- starting process for: (((conv*2)vazio)*3)fc*2
2018-04-29 04:47:23.455015AM
_________________________________________________________________
Layer (type)                 Output Shape              Param #   
=================================================================
conv2d_1 (Conv2D)            (None, 32, 32, 32)        896       
_________________________________________________________________
conv2d_2 (Conv2D)            (None, 32, 32, 32)        9248      
_________________________________________________________________
conv2d_3 (Conv2D)            (None, 32, 32, 64)        18496     
_________________________________________________________________
conv2d_4 (Conv2D)            (None, 32, 32, 128)       73856     
_________________________________________________________________
conv2d_5 (Conv2D)            (None, 32, 32, 128)       147584    
_________________________________________________________________
conv2d_6 (Conv2D)            (None, 32, 32, 128)       147584    
_________________________________________________________________
flatten_1 (Flatten)          (None, 131072)            0         
_________________________________________________________________
dense_1 (Dense)              (None, 128)               16777344  
_________________________________________________________________
activation_1 (Activation)    (None, 128)               0         
_________________________________________________________________
dense_2 (Dense)              (None, 128)               16512     
_________________________________________________________________
activation_2 (Activation)    (None, 128)               0         
_________________________________________________________________
dense_3 (Dense)              (None, 10)                1290      
=================================================================
Total params: 17,192,810
Trainable params: 17,192,810
Non-trainable params: 0
_________________________________________________________________

2018-04-29 05:08:31.317022AM --- Model took seconds to train 1267.8464393615723
2018-04-29 05:08:32.313093AM --- Accuracy on test data is: 65.25
2018-04-29 05:08:32.352216AM --- starting process for: (((conv*2)pool)*2)fc*2
2018-04-29 05:08:33.086979AM
_________________________________________________________________
Layer (type)                 Output Shape              Param #   
=================================================================
conv2d_1 (Conv2D)            (None, 32, 32, 32)        896       
_________________________________________________________________
conv2d_2 (Conv2D)            (None, 32, 32, 32)        9248      
_________________________________________________________________
max_pooling2d_1 (MaxPooling2 (None, 16, 16, 32)        0         
_________________________________________________________________
conv2d_3 (Conv2D)            (None, 16, 16, 64)        18496     
_________________________________________________________________
conv2d_4 (Conv2D)            (None, 16, 16, 128)       73856     
_________________________________________________________________
max_pooling2d_2 (MaxPooling2 (None, 8, 8, 128)         0         
_________________________________________________________________
flatten_1 (Flatten)          (None, 8192)              0         
_________________________________________________________________
dense_1 (Dense)              (None, 128)               1048704   
_________________________________________________________________
activation_1 (Activation)    (None, 128)               0         
_________________________________________________________________
dense_2 (Dense)              (None, 128)               16512     
_________________________________________________________________
activation_2 (Activation)    (None, 128)               0         
_________________________________________________________________
dense_3 (Dense)              (None, 10)                1290      
=================================================================
Total params: 1,169,002
Trainable params: 1,169,002
Non-trainable params: 0
_________________________________________________________________

2018-04-29 05:14:10.918705AM --- Model took seconds to train 337.81649589538574
2018-04-29 05:14:11.089403AM --- Accuracy on test data is: 74.45
2018-04-29 05:14:11.134298AM --- starting process for: (((conv*1)vazio)*1)fc*0
2018-04-29 05:14:11.828826AM
_________________________________________________________________
Layer (type)                 Output Shape              Param #   
=================================================================
conv2d_1 (Conv2D)            (None, 32, 32, 32)        896       
_________________________________________________________________
flatten_1 (Flatten)          (None, 32768)             0         
_________________________________________________________________
dense_1 (Dense)              (None, 10)                327690    
=================================================================
Total params: 328,586
Trainable params: 328,586
Non-trainable params: 0
_________________________________________________________________

2018-04-29 05:18:57.634674AM --- Model took seconds to train 285.79019045829773
2018-04-29 05:18:57.925680AM --- Accuracy on test data is: 57.550000000000004
2018-04-29 05:18:57.965455AM --- starting process for: (((conv*2)vazio)*1)fc*1
2018-04-29 05:18:58.672567AM
_________________________________________________________________
Layer (type)                 Output Shape              Param #   
=================================================================
conv2d_1 (Conv2D)            (None, 32, 32, 32)        896       
_________________________________________________________________
conv2d_2 (Conv2D)            (None, 32, 32, 32)        9248      
_________________________________________________________________
flatten_1 (Flatten)          (None, 32768)             0         
_________________________________________________________________
dense_1 (Dense)              (None, 128)               4194432   
_________________________________________________________________
activation_1 (Activation)    (None, 128)               0         
_________________________________________________________________
dense_2 (Dense)              (None, 10)                1290      
=================================================================
Total params: 4,205,866
Trainable params: 4,205,866
Non-trainable params: 0
_________________________________________________________________

2018-04-29 05:23:18.832904AM --- Model took seconds to train 260.1453757286072
2018-04-29 05:23:19.122756AM --- Accuracy on test data is: 60.6
2018-04-29 05:23:19.171888AM --- 0 - Individual: (((conv*2)pool)*3)fc*2; 79.3
…
2018-04-29 05:23:19.176066AM --- 47 - Individual: None; nan
2018-04-29 05:23:19.176152AM --- 48 - Individual: (((conv*2)vazio)*1)fc*1; 60.6
2018-04-29 05:23:19.176243AM --- 49 - Individual: (((conv*1)vazio)*1)fc*2; 58.95
2018-04-29 05:23:19.176321AM --- Generation: 22
2018-04-29 05:23:19.178939AM --- starting process for: (((conv*2)pool)*1)fc*1
2018-04-29 05:23:19.881015AM
_________________________________________________________________
Layer (type)                 Output Shape              Param #   
=================================================================
conv2d_1 (Conv2D)            (None, 32, 32, 32)        896       
_________________________________________________________________
conv2d_2 (Conv2D)            (None, 32, 32, 32)        9248      
_________________________________________________________________
max_pooling2d_1 (MaxPooling2 (None, 16, 16, 32)        0         
_________________________________________________________________
flatten_1 (Flatten)          (None, 8192)              0         
_________________________________________________________________
dense_1 (Dense)              (None, 128)               1048704   
_________________________________________________________________
activation_1 (Activation)    (None, 128)               0         
_________________________________________________________________
dense_2 (Dense)              (None, 10)                1290      
=================================================================
Total params: 1,060,138
Trainable params: 1,060,138
Non-trainable params: 0
_________________________________________________________________

2018-04-29 05:27:05.291088AM --- Model took seconds to train 225.3950412273407
2018-04-29 05:27:05.447148AM --- Accuracy on test data is: 65.05
2018-04-29 05:27:05.494058AM --- starting process for: (((conv*2)pool)*3)fc*1
2018-04-29 05:27:06.213907AM
_________________________________________________________________
Layer (type)                 Output Shape              Param #   
=================================================================
conv2d_1 (Conv2D)            (None, 32, 32, 32)        896       
_________________________________________________________________
conv2d_2 (Conv2D)            (None, 32, 32, 32)        9248      
_________________________________________________________________
max_pooling2d_1 (MaxPooling2 (None, 16, 16, 32)        0         
_________________________________________________________________
conv2d_3 (Conv2D)            (None, 16, 16, 64)        18496     
_________________________________________________________________
conv2d_4 (Conv2D)            (None, 16, 16, 128)       73856     
_________________________________________________________________
max_pooling2d_2 (MaxPooling2 (None, 8, 8, 128)         0         
_________________________________________________________________
conv2d_5 (Conv2D)            (None, 8, 8, 128)         147584    
_________________________________________________________________
conv2d_6 (Conv2D)            (None, 8, 8, 128)         147584    
_________________________________________________________________
max_pooling2d_3 (MaxPooling2 (None, 4, 4, 128)         0         
_________________________________________________________________
flatten_1 (Flatten)          (None, 2048)              0         
_________________________________________________________________
dense_1 (Dense)              (None, 128)               262272    
_________________________________________________________________
activation_1 (Activation)    (None, 128)               0         
_________________________________________________________________
dense_2 (Dense)              (None, 10)                1290      
=================================================================
Total params: 661,226
Trainable params: 661,226
Non-trainable params: 0
_________________________________________________________________

2018-04-29 05:33:34.082975AM --- Model took seconds to train 387.85340785980225
2018-04-29 05:33:34.249215AM --- Accuracy on test data is: 78.85
2018-04-29 05:33:34.296246AM --- starting process for: (((conv*2)pool)*3)fc*2
2018-04-29 05:33:35.030152AM
_________________________________________________________________
Layer (type)                 Output Shape              Param #   
=================================================================
conv2d_1 (Conv2D)            (None, 32, 32, 32)        896       
_________________________________________________________________
conv2d_2 (Conv2D)            (None, 32, 32, 32)        9248      
_________________________________________________________________
max_pooling2d_1 (MaxPooling2 (None, 16, 16, 32)        0         
_________________________________________________________________
conv2d_3 (Conv2D)            (None, 16, 16, 64)        18496     
_________________________________________________________________
conv2d_4 (Conv2D)            (None, 16, 16, 128)       73856     
_________________________________________________________________
max_pooling2d_2 (MaxPooling2 (None, 8, 8, 128)         0         
_________________________________________________________________
conv2d_5 (Conv2D)            (None, 8, 8, 128)         147584    
_________________________________________________________________
conv2d_6 (Conv2D)            (None, 8, 8, 128)         147584    
_________________________________________________________________
max_pooling2d_3 (MaxPooling2 (None, 4, 4, 128)         0         
_________________________________________________________________
flatten_1 (Flatten)          (None, 2048)              0         
_________________________________________________________________
dense_1 (Dense)              (None, 128)               262272    
_________________________________________________________________
activation_1 (Activation)    (None, 128)               0         
_________________________________________________________________
dense_2 (Dense)              (None, 128)               16512     
_________________________________________________________________
activation_2 (Activation)    (None, 128)               0         
_________________________________________________________________
dense_3 (Dense)              (None, 10)                1290      
=================================================================
Total params: 677,738
Trainable params: 677,738
Non-trainable params: 0
_________________________________________________________________

2018-04-29 05:40:07.099935AM --- Model took seconds to train 392.0539057254791
2018-04-29 05:40:07.260637AM --- Accuracy on test data is: 77.45
2018-04-29 05:40:07.305411AM --- starting process for: (((conv*2)pool)*3)fc*2
2018-04-29 05:40:08.040579AM
_________________________________________________________________
Layer (type)                 Output Shape              Param #   
=================================================================
conv2d_1 (Conv2D)            (None, 32, 32, 32)        896       
_________________________________________________________________
conv2d_2 (Conv2D)            (None, 32, 32, 32)        9248      
_________________________________________________________________
max_pooling2d_1 (MaxPooling2 (None, 16, 16, 32)        0         
_________________________________________________________________
conv2d_3 (Conv2D)            (None, 16, 16, 64)        18496     
_________________________________________________________________
conv2d_4 (Conv2D)            (None, 16, 16, 128)       73856     
_________________________________________________________________
max_pooling2d_2 (MaxPooling2 (None, 8, 8, 128)         0         
_________________________________________________________________
conv2d_5 (Conv2D)            (None, 8, 8, 128)         147584    
_________________________________________________________________
conv2d_6 (Conv2D)            (None, 8, 8, 128)         147584    
_________________________________________________________________
max_pooling2d_3 (MaxPooling2 (None, 4, 4, 128)         0         
_________________________________________________________________
flatten_1 (Flatten)          (None, 2048)              0         
_________________________________________________________________
dense_1 (Dense)              (None, 128)               262272    
_________________________________________________________________
activation_1 (Activation)    (None, 128)               0         
_________________________________________________________________
dense_2 (Dense)              (None, 128)               16512     
_________________________________________________________________
activation_2 (Activation)    (None, 128)               0         
_________________________________________________________________
dense_3 (Dense)              (None, 10)                1290      
=================================================================
Total params: 677,738
Trainable params: 677,738
Non-trainable params: 0
_________________________________________________________________

2018-04-29 05:46:40.336179AM --- Model took seconds to train 392.27981781959534
2018-04-29 05:46:40.492002AM --- Accuracy on test data is: 77.45
2018-04-29 05:46:40.531492AM --- starting process for: (((conv*1)pool)*3)fc*2
2018-04-29 05:46:41.321117AM
_________________________________________________________________
Layer (type)                 Output Shape              Param #   
=================================================================
conv2d_1 (Conv2D)            (None, 32, 32, 32)        896       
_________________________________________________________________
max_pooling2d_1 (MaxPooling2 (None, 16, 16, 32)        0         
_________________________________________________________________
conv2d_2 (Conv2D)            (None, 16, 16, 32)        9248      
_________________________________________________________________
max_pooling2d_2 (MaxPooling2 (None, 8, 8, 32)          0         
_________________________________________________________________
conv2d_3 (Conv2D)            (None, 8, 8, 64)          18496     
_________________________________________________________________
max_pooling2d_3 (MaxPooling2 (None, 4, 4, 64)          0         
_________________________________________________________________
flatten_1 (Flatten)          (None, 1024)              0         
_________________________________________________________________
dense_1 (Dense)              (None, 128)               131200    
_________________________________________________________________
activation_1 (Activation)    (None, 128)               0         
_________________________________________________________________
dense_2 (Dense)              (None, 128)               16512     
_________________________________________________________________
activation_2 (Activation)    (None, 128)               0         
_________________________________________________________________
dense_3 (Dense)              (None, 10)                1290      
=================================================================
Total params: 177,642
Trainable params: 177,642
Non-trainable params: 0
_________________________________________________________________

2018-04-29 05:49:45.015522AM --- Model took seconds to train 183.67881178855896
2018-04-29 05:49:45.107785AM --- Accuracy on test data is: 71.3
2018-04-29 05:49:45.150202AM --- starting process for: (((conv*1)vazio)*2)fc*1
2018-04-29 05:49:45.853869AM
_________________________________________________________________
Layer (type)                 Output Shape              Param #   
=================================================================
conv2d_1 (Conv2D)            (None, 32, 32, 32)        896       
_________________________________________________________________
conv2d_2 (Conv2D)            (None, 32, 32, 32)        9248      
_________________________________________________________________
flatten_1 (Flatten)          (None, 32768)             0         
_________________________________________________________________
dense_1 (Dense)              (None, 128)               4194432   
_________________________________________________________________
activation_1 (Activation)    (None, 128)               0         
_________________________________________________________________
dense_2 (Dense)              (None, 10)                1290      
=================================================================
Total params: 4,205,866
Trainable params: 4,205,866
Non-trainable params: 0
_________________________________________________________________

2018-04-29 05:54:05.964021AM --- Model took seconds to train 260.0948739051819
2018-04-29 05:54:06.259187AM --- Accuracy on test data is: 61.650000000000006
2018-04-29 05:54:06.308031AM --- starting process for: (((conv*2)vazio)*3)fc*1
2018-04-29 05:54:07.031326AM
_________________________________________________________________
Layer (type)                 Output Shape              Param #   
=================================================================
conv2d_1 (Conv2D)            (None, 32, 32, 32)        896       
_________________________________________________________________
conv2d_2 (Conv2D)            (None, 32, 32, 32)        9248      
_________________________________________________________________
conv2d_3 (Conv2D)            (None, 32, 32, 64)        18496     
_________________________________________________________________
conv2d_4 (Conv2D)            (None, 32, 32, 128)       73856     
_________________________________________________________________
conv2d_5 (Conv2D)            (None, 32, 32, 128)       147584    
_________________________________________________________________
conv2d_6 (Conv2D)            (None, 32, 32, 128)       147584    
_________________________________________________________________
flatten_1 (Flatten)          (None, 131072)            0         
_________________________________________________________________
dense_1 (Dense)              (None, 128)               16777344  
_________________________________________________________________
activation_1 (Activation)    (None, 128)               0         
_________________________________________________________________
dense_2 (Dense)              (None, 10)                1290      
=================================================================
Total params: 17,176,298
Trainable params: 17,176,298
Non-trainable params: 0
_________________________________________________________________

2018-04-29 06:15:11.104202AM --- Model took seconds to train 1264.0575613975525
2018-04-29 06:15:12.100345AM --- Accuracy on test data is: 66.55
2018-04-29 06:15:12.146286AM --- starting process for: (((conv*2)pool)*3)fc*1
2018-04-29 06:15:12.872938AM
_________________________________________________________________
Layer (type)                 Output Shape              Param #   
=================================================================
conv2d_1 (Conv2D)            (None, 32, 32, 32)        896       
_________________________________________________________________
conv2d_2 (Conv2D)            (None, 32, 32, 32)        9248      
_________________________________________________________________
max_pooling2d_1 (MaxPooling2 (None, 16, 16, 32)        0         
_________________________________________________________________
conv2d_3 (Conv2D)            (None, 16, 16, 64)        18496     
_________________________________________________________________
conv2d_4 (Conv2D)            (None, 16, 16, 128)       73856     
_________________________________________________________________
max_pooling2d_2 (MaxPooling2 (None, 8, 8, 128)         0         
_________________________________________________________________
conv2d_5 (Conv2D)            (None, 8, 8, 128)         147584    
_________________________________________________________________
conv2d_6 (Conv2D)            (None, 8, 8, 128)         147584    
_________________________________________________________________
max_pooling2d_3 (MaxPooling2 (None, 4, 4, 128)         0         
_________________________________________________________________
flatten_1 (Flatten)          (None, 2048)              0         
_________________________________________________________________
dense_1 (Dense)              (None, 128)               262272    
_________________________________________________________________
activation_1 (Activation)    (None, 128)               0         
_________________________________________________________________
dense_2 (Dense)              (None, 10)                1290      
=================================================================
Total params: 661,226
Trainable params: 661,226
Non-trainable params: 0
_________________________________________________________________

2018-04-29 06:21:39.087045AM --- Model took seconds to train 386.19857120513916
2018-04-29 06:21:39.235458AM --- Accuracy on test data is: 76.9
2018-04-29 06:21:39.276139AM --- starting process for: (((conv*2)pool)*3)fc*2
2018-04-29 06:21:40.007094AM
_________________________________________________________________
Layer (type)                 Output Shape              Param #   
=================================================================
conv2d_1 (Conv2D)            (None, 32, 32, 32)        896       
_________________________________________________________________
conv2d_2 (Conv2D)            (None, 32, 32, 32)        9248      
_________________________________________________________________
max_pooling2d_1 (MaxPooling2 (None, 16, 16, 32)        0         
_________________________________________________________________
conv2d_3 (Conv2D)            (None, 16, 16, 64)        18496     
_________________________________________________________________
conv2d_4 (Conv2D)            (None, 16, 16, 128)       73856     
_________________________________________________________________
max_pooling2d_2 (MaxPooling2 (None, 8, 8, 128)         0         
_________________________________________________________________
conv2d_5 (Conv2D)            (None, 8, 8, 128)         147584    
_________________________________________________________________
conv2d_6 (Conv2D)            (None, 8, 8, 128)         147584    
_________________________________________________________________
max_pooling2d_3 (MaxPooling2 (None, 4, 4, 128)         0         
_________________________________________________________________
flatten_1 (Flatten)          (None, 2048)              0         
_________________________________________________________________
dense_1 (Dense)              (None, 128)               262272    
_________________________________________________________________
activation_1 (Activation)    (None, 128)               0         
_________________________________________________________________
dense_2 (Dense)              (None, 128)               16512     
_________________________________________________________________
activation_2 (Activation)    (None, 128)               0         
_________________________________________________________________
dense_3 (Dense)              (None, 10)                1290      
=================================================================
Total params: 677,738
Trainable params: 677,738
Non-trainable params: 0
_________________________________________________________________

2018-04-29 06:28:12.286142AM --- Model took seconds to train 392.26310086250305
2018-04-29 06:28:12.442852AM --- Accuracy on test data is: 75.64999999999999
2018-04-29 06:28:12.486321AM --- starting process for: (((conv*2)pool)*3)fc*2
2018-04-29 06:28:13.222106AM
_________________________________________________________________
Layer (type)                 Output Shape              Param #   
=================================================================
conv2d_1 (Conv2D)            (None, 32, 32, 32)        896       
_________________________________________________________________
conv2d_2 (Conv2D)            (None, 32, 32, 32)        9248      
_________________________________________________________________
max_pooling2d_1 (MaxPooling2 (None, 16, 16, 32)        0         
_________________________________________________________________
conv2d_3 (Conv2D)            (None, 16, 16, 64)        18496     
_________________________________________________________________
conv2d_4 (Conv2D)            (None, 16, 16, 128)       73856     
_________________________________________________________________
max_pooling2d_2 (MaxPooling2 (None, 8, 8, 128)         0         
_________________________________________________________________
conv2d_5 (Conv2D)            (None, 8, 8, 128)         147584    
_________________________________________________________________
conv2d_6 (Conv2D)            (None, 8, 8, 128)         147584    
_________________________________________________________________
max_pooling2d_3 (MaxPooling2 (None, 4, 4, 128)         0         
_________________________________________________________________
flatten_1 (Flatten)          (None, 2048)              0         
_________________________________________________________________
dense_1 (Dense)              (None, 128)               262272    
_________________________________________________________________
activation_1 (Activation)    (None, 128)               0         
_________________________________________________________________
dense_2 (Dense)              (None, 128)               16512     
_________________________________________________________________
activation_2 (Activation)    (None, 128)               0         
_________________________________________________________________
dense_3 (Dense)              (None, 10)                1290      
=================================================================
Total params: 677,738
Trainable params: 677,738
Non-trainable params: 0
_________________________________________________________________

2018-04-29 06:34:43.310734AM --- Model took seconds to train 390.07313299179077
2018-04-29 06:34:43.456069AM --- Accuracy on test data is: 76.75
2018-04-29 06:34:43.504913AM --- starting process for: (((conv*1)pool)*3)fc*0
2018-04-29 06:34:44.214585AM
_________________________________________________________________
Layer (type)                 Output Shape              Param #   
=================================================================
conv2d_1 (Conv2D)            (None, 32, 32, 32)        896       
_________________________________________________________________
max_pooling2d_1 (MaxPooling2 (None, 16, 16, 32)        0         
_________________________________________________________________
conv2d_2 (Conv2D)            (None, 16, 16, 32)        9248      
_________________________________________________________________
max_pooling2d_2 (MaxPooling2 (None, 8, 8, 32)          0         
_________________________________________________________________
conv2d_3 (Conv2D)            (None, 8, 8, 64)          18496     
_________________________________________________________________
max_pooling2d_3 (MaxPooling2 (None, 4, 4, 64)          0         
_________________________________________________________________
flatten_1 (Flatten)          (None, 1024)              0         
_________________________________________________________________
dense_1 (Dense)              (None, 10)                10250     
=================================================================
Total params: 38,890
Trainable params: 38,890
Non-trainable params: 0
_________________________________________________________________

2018-04-29 06:37:40.068833AM --- Model took seconds to train 175.83862233161926
2018-04-29 06:37:40.171012AM --- Accuracy on test data is: 71.05
2018-04-29 06:37:40.220229AM --- starting process for: (((conv*2)pool)*3)fc*2
2018-04-29 06:37:41.014813AM
_________________________________________________________________
Layer (type)                 Output Shape              Param #   
=================================================================
conv2d_1 (Conv2D)            (None, 32, 32, 32)        896       
_________________________________________________________________
conv2d_2 (Conv2D)            (None, 32, 32, 32)        9248      
_________________________________________________________________
max_pooling2d_1 (MaxPooling2 (None, 16, 16, 32)        0         
_________________________________________________________________
conv2d_3 (Conv2D)            (None, 16, 16, 64)        18496     
_________________________________________________________________
conv2d_4 (Conv2D)            (None, 16, 16, 128)       73856     
_________________________________________________________________
max_pooling2d_2 (MaxPooling2 (None, 8, 8, 128)         0         
_________________________________________________________________
conv2d_5 (Conv2D)            (None, 8, 8, 128)         147584    
_________________________________________________________________
conv2d_6 (Conv2D)            (None, 8, 8, 128)         147584    
_________________________________________________________________
max_pooling2d_3 (MaxPooling2 (None, 4, 4, 128)         0         
_________________________________________________________________
flatten_1 (Flatten)          (None, 2048)              0         
_________________________________________________________________
dense_1 (Dense)              (None, 128)               262272    
_________________________________________________________________
activation_1 (Activation)    (None, 128)               0         
_________________________________________________________________
dense_2 (Dense)              (None, 128)               16512     
_________________________________________________________________
activation_2 (Activation)    (None, 128)               0         
_________________________________________________________________
dense_3 (Dense)              (None, 10)                1290      
=================================================================
Total params: 677,738
Trainable params: 677,738
Non-trainable params: 0
_________________________________________________________________

2018-04-29 06:44:15.698022AM --- Model took seconds to train 394.667667388916
2018-04-29 06:44:15.855436AM --- Accuracy on test data is: 77.10000000000001
2018-04-29 06:44:15.902494AM --- starting process for: (((conv*2)pool)*1)fc*0
2018-04-29 06:44:16.602981AM
_________________________________________________________________
Layer (type)                 Output Shape              Param #   
=================================================================
conv2d_1 (Conv2D)            (None, 32, 32, 32)        896       
_________________________________________________________________
conv2d_2 (Conv2D)            (None, 32, 32, 32)        9248      
_________________________________________________________________
max_pooling2d_1 (MaxPooling2 (None, 16, 16, 32)        0         
_________________________________________________________________
flatten_1 (Flatten)          (None, 8192)              0         
_________________________________________________________________
dense_1 (Dense)              (None, 10)                81930     
=================================================================
Total params: 92,074
Trainable params: 92,074
Non-trainable params: 0
_________________________________________________________________

2018-04-29 06:48:16.317923AM --- Model took seconds to train 239.69954013824463
2018-04-29 06:48:16.514664AM --- Accuracy on test data is: 61.45
2018-04-29 06:48:16.573904AM --- starting process for: (((conv*1)pool)*3)fc*0
2018-04-29 06:48:17.335903AM
_________________________________________________________________
Layer (type)                 Output Shape              Param #   
=================================================================
conv2d_1 (Conv2D)            (None, 32, 32, 32)        896       
_________________________________________________________________
max_pooling2d_1 (MaxPooling2 (None, 16, 16, 32)        0         
_________________________________________________________________
conv2d_2 (Conv2D)            (None, 16, 16, 32)        9248      
_________________________________________________________________
max_pooling2d_2 (MaxPooling2 (None, 8, 8, 32)          0         
_________________________________________________________________
conv2d_3 (Conv2D)            (None, 8, 8, 64)          18496     
_________________________________________________________________
max_pooling2d_3 (MaxPooling2 (None, 4, 4, 64)          0         
_________________________________________________________________
flatten_1 (Flatten)          (None, 1024)              0         
_________________________________________________________________
dense_1 (Dense)              (None, 10)                10250     
=================================================================
Total params: 38,890
Trainable params: 38,890
Non-trainable params: 0
_________________________________________________________________

2018-04-29 06:51:18.203467AM --- Model took seconds to train 180.85256004333496
2018-04-29 06:51:18.284217AM --- Accuracy on test data is: 71.0
2018-04-29 06:51:18.323930AM --- starting process for: (((conv*2)pool)*2)fc*2
2018-04-29 06:51:19.049021AM
_________________________________________________________________
Layer (type)                 Output Shape              Param #   
=================================================================
conv2d_1 (Conv2D)            (None, 32, 32, 32)        896       
_________________________________________________________________
conv2d_2 (Conv2D)            (None, 32, 32, 32)        9248      
_________________________________________________________________
max_pooling2d_1 (MaxPooling2 (None, 16, 16, 32)        0         
_________________________________________________________________
conv2d_3 (Conv2D)            (None, 16, 16, 64)        18496     
_________________________________________________________________
conv2d_4 (Conv2D)            (None, 16, 16, 128)       73856     
_________________________________________________________________
max_pooling2d_2 (MaxPooling2 (None, 8, 8, 128)         0         
_________________________________________________________________
flatten_1 (Flatten)          (None, 8192)              0         
_________________________________________________________________
dense_1 (Dense)              (None, 128)               1048704   
_________________________________________________________________
activation_1 (Activation)    (None, 128)               0         
_________________________________________________________________
dense_2 (Dense)              (None, 128)               16512     
_________________________________________________________________
activation_2 (Activation)    (None, 128)               0         
_________________________________________________________________
dense_3 (Dense)              (None, 10)                1290      
=================================================================
Total params: 1,169,002
Trainable params: 1,169,002
Non-trainable params: 0
_________________________________________________________________

2018-04-29 06:57:00.800023AM --- Model took seconds to train 341.7357087135315
2018-04-29 06:57:00.973911AM --- Accuracy on test data is: 73.6
2018-04-29 06:57:01.018628AM --- starting process for: (((conv*2)pool)*1)fc*2
2018-04-29 06:57:01.790399AM
_________________________________________________________________
Layer (type)                 Output Shape              Param #   
=================================================================
conv2d_1 (Conv2D)            (None, 32, 32, 32)        896       
_________________________________________________________________
conv2d_2 (Conv2D)            (None, 32, 32, 32)        9248      
_________________________________________________________________
max_pooling2d_1 (MaxPooling2 (None, 16, 16, 32)        0         
_________________________________________________________________
flatten_1 (Flatten)          (None, 8192)              0         
_________________________________________________________________
dense_1 (Dense)              (None, 128)               1048704   
_________________________________________________________________
activation_1 (Activation)    (None, 128)               0         
_________________________________________________________________
dense_2 (Dense)              (None, 128)               16512     
_________________________________________________________________
activation_2 (Activation)    (None, 128)               0         
_________________________________________________________________
dense_3 (Dense)              (None, 10)                1290      
=================================================================
Total params: 1,076,650
Trainable params: 1,076,650
Non-trainable params: 0
_________________________________________________________________

2018-04-29 07:00:53.986626AM --- Model took seconds to train 232.18095684051514
2018-04-29 07:00:54.138629AM --- Accuracy on test data is: 65.10000000000001
2018-04-29 07:00:54.182319AM --- starting process for: (((conv*1)pool)*3)fc*2
2018-04-29 07:00:54.902323AM
_________________________________________________________________
Layer (type)                 Output Shape              Param #   
=================================================================
conv2d_1 (Conv2D)            (None, 32, 32, 32)        896       
_________________________________________________________________
max_pooling2d_1 (MaxPooling2 (None, 16, 16, 32)        0         
_________________________________________________________________
conv2d_2 (Conv2D)            (None, 16, 16, 32)        9248      
_________________________________________________________________
max_pooling2d_2 (MaxPooling2 (None, 8, 8, 32)          0         
_________________________________________________________________
conv2d_3 (Conv2D)            (None, 8, 8, 64)          18496     
_________________________________________________________________
max_pooling2d_3 (MaxPooling2 (None, 4, 4, 64)          0         
_________________________________________________________________
flatten_1 (Flatten)          (None, 1024)              0         
_________________________________________________________________
dense_1 (Dense)              (None, 128)               131200    
_________________________________________________________________
activation_1 (Activation)    (None, 128)               0         
_________________________________________________________________
dense_2 (Dense)              (None, 128)               16512     
_________________________________________________________________
activation_2 (Activation)    (None, 128)               0         
_________________________________________________________________
dense_3 (Dense)              (None, 10)                1290      
=================================================================
Total params: 177,642
Trainable params: 177,642
Non-trainable params: 0
_________________________________________________________________

2018-04-29 07:04:02.883026AM --- Model took seconds to train 187.9654803276062
2018-04-29 07:04:02.991575AM --- Accuracy on test data is: 72.65
2018-04-29 07:04:03.037960AM --- starting process for: (((conv*2)pool)*3)fc*1
2018-04-29 07:04:03.829155AM
_________________________________________________________________
Layer (type)                 Output Shape              Param #   
=================================================================
conv2d_1 (Conv2D)            (None, 32, 32, 32)        896       
_________________________________________________________________
conv2d_2 (Conv2D)            (None, 32, 32, 32)        9248      
_________________________________________________________________
max_pooling2d_1 (MaxPooling2 (None, 16, 16, 32)        0         
_________________________________________________________________
conv2d_3 (Conv2D)            (None, 16, 16, 64)        18496     
_________________________________________________________________
conv2d_4 (Conv2D)            (None, 16, 16, 128)       73856     
_________________________________________________________________
max_pooling2d_2 (MaxPooling2 (None, 8, 8, 128)         0         
_________________________________________________________________
conv2d_5 (Conv2D)            (None, 8, 8, 128)         147584    
_________________________________________________________________
conv2d_6 (Conv2D)            (None, 8, 8, 128)         147584    
_________________________________________________________________
max_pooling2d_3 (MaxPooling2 (None, 4, 4, 128)         0         
_________________________________________________________________
flatten_1 (Flatten)          (None, 2048)              0         
_________________________________________________________________
dense_1 (Dense)              (None, 128)               262272    
_________________________________________________________________
activation_1 (Activation)    (None, 128)               0         
_________________________________________________________________
dense_2 (Dense)              (None, 10)                1290      
=================================================================
Total params: 661,226
Trainable params: 661,226
Non-trainable params: 0
_________________________________________________________________

2018-04-29 07:10:31.616395AM --- Model took seconds to train 387.77164340019226
2018-04-29 07:10:31.770165AM --- Accuracy on test data is: 76.9
2018-04-29 07:10:31.812300AM --- starting process for: (((conv*2)pool)*2)fc*2
2018-04-29 07:10:32.537752AM
_________________________________________________________________
Layer (type)                 Output Shape              Param #   
=================================================================
conv2d_1 (Conv2D)            (None, 32, 32, 32)        896       
_________________________________________________________________
conv2d_2 (Conv2D)            (None, 32, 32, 32)        9248      
_________________________________________________________________
max_pooling2d_1 (MaxPooling2 (None, 16, 16, 32)        0         
_________________________________________________________________
conv2d_3 (Conv2D)            (None, 16, 16, 64)        18496     
_________________________________________________________________
conv2d_4 (Conv2D)            (None, 16, 16, 128)       73856     
_________________________________________________________________
max_pooling2d_2 (MaxPooling2 (None, 8, 8, 128)         0         
_________________________________________________________________
flatten_1 (Flatten)          (None, 8192)              0         
_________________________________________________________________
dense_1 (Dense)              (None, 128)               1048704   
_________________________________________________________________
activation_1 (Activation)    (None, 128)               0         
_________________________________________________________________
dense_2 (Dense)              (None, 128)               16512     
_________________________________________________________________
activation_2 (Activation)    (None, 128)               0         
_________________________________________________________________
dense_3 (Dense)              (None, 10)                1290      
=================================================================
Total params: 1,169,002
Trainable params: 1,169,002
Non-trainable params: 0
_________________________________________________________________

2018-04-29 07:16:11.190851AM --- Model took seconds to train 338.6379840373993
2018-04-29 07:16:11.335434AM --- Accuracy on test data is: 72.75
2018-04-29 07:16:11.375552AM --- starting process for: (((conv*1)pool)*2)fc*0
2018-04-29 07:16:12.079708AM
_________________________________________________________________
Layer (type)                 Output Shape              Param #   
=================================================================
conv2d_1 (Conv2D)            (None, 32, 32, 32)        896       
_________________________________________________________________
max_pooling2d_1 (MaxPooling2 (None, 16, 16, 32)        0         
_________________________________________________________________
conv2d_2 (Conv2D)            (None, 16, 16, 32)        9248      
_________________________________________________________________
max_pooling2d_2 (MaxPooling2 (None, 8, 8, 32)          0         
_________________________________________________________________
flatten_1 (Flatten)          (None, 2048)              0         
_________________________________________________________________
dense_1 (Dense)              (None, 10)                20490     
=================================================================
Total params: 30,634
Trainable params: 30,634
Non-trainable params: 0
_________________________________________________________________

2018-04-29 07:18:56.206835AM --- Model took seconds to train 164.11186838150024
2018-04-29 07:18:56.301063AM --- Accuracy on test data is: 70.15
2018-04-29 07:18:56.348687AM --- starting process for: (((conv*2)pool)*3)fc*2
2018-04-29 07:18:57.080816AM
_________________________________________________________________
Layer (type)                 Output Shape              Param #   
=================================================================
conv2d_1 (Conv2D)            (None, 32, 32, 32)        896       
_________________________________________________________________
conv2d_2 (Conv2D)            (None, 32, 32, 32)        9248      
_________________________________________________________________
max_pooling2d_1 (MaxPooling2 (None, 16, 16, 32)        0         
_________________________________________________________________
conv2d_3 (Conv2D)            (None, 16, 16, 64)        18496     
_________________________________________________________________
conv2d_4 (Conv2D)            (None, 16, 16, 128)       73856     
_________________________________________________________________
max_pooling2d_2 (MaxPooling2 (None, 8, 8, 128)         0         
_________________________________________________________________
conv2d_5 (Conv2D)            (None, 8, 8, 128)         147584    
_________________________________________________________________
conv2d_6 (Conv2D)            (None, 8, 8, 128)         147584    
_________________________________________________________________
max_pooling2d_3 (MaxPooling2 (None, 4, 4, 128)         0         
_________________________________________________________________
flatten_1 (Flatten)          (None, 2048)              0         
_________________________________________________________________
dense_1 (Dense)              (None, 128)               262272    
_________________________________________________________________
activation_1 (Activation)    (None, 128)               0         
_________________________________________________________________
dense_2 (Dense)              (None, 128)               16512     
_________________________________________________________________
activation_2 (Activation)    (None, 128)               0         
_________________________________________________________________
dense_3 (Dense)              (None, 10)                1290      
=================================================================
Total params: 677,738
Trainable params: 677,738
Non-trainable params: 0
_________________________________________________________________

2018-04-29 07:25:34.547214AM --- Model took seconds to train 397.450896024704
2018-04-29 07:25:34.699356AM --- Accuracy on test data is: 77.8
2018-04-29 07:25:34.742769AM --- starting process for: (((conv*1)pool)*3)fc*1
2018-04-29 07:25:35.448616AM
_________________________________________________________________
Layer (type)                 Output Shape              Param #   
=================================================================
conv2d_1 (Conv2D)            (None, 32, 32, 32)        896       
_________________________________________________________________
max_pooling2d_1 (MaxPooling2 (None, 16, 16, 32)        0         
_________________________________________________________________
conv2d_2 (Conv2D)            (None, 16, 16, 32)        9248      
_________________________________________________________________
max_pooling2d_2 (MaxPooling2 (None, 8, 8, 32)          0         
_________________________________________________________________
conv2d_3 (Conv2D)            (None, 8, 8, 64)          18496     
_________________________________________________________________
max_pooling2d_3 (MaxPooling2 (None, 4, 4, 64)          0         
_________________________________________________________________
flatten_1 (Flatten)          (None, 1024)              0         
_________________________________________________________________
dense_1 (Dense)              (None, 128)               131200    
_________________________________________________________________
activation_1 (Activation)    (None, 128)               0         
_________________________________________________________________
dense_2 (Dense)              (None, 10)                1290      
=================================================================
Total params: 161,130
Trainable params: 161,130
Non-trainable params: 0
_________________________________________________________________

2018-04-29 07:28:44.179838AM --- Model took seconds to train 188.715838432312
2018-04-29 07:28:44.288381AM --- Accuracy on test data is: 71.7
2018-04-29 07:28:44.337009AM --- starting process for: (((conv*1)pool)*3)fc*2
2018-04-29 07:28:45.052909AM
_________________________________________________________________
Layer (type)                 Output Shape              Param #   
=================================================================
conv2d_1 (Conv2D)            (None, 32, 32, 32)        896       
_________________________________________________________________
max_pooling2d_1 (MaxPooling2 (None, 16, 16, 32)        0         
_________________________________________________________________
conv2d_2 (Conv2D)            (None, 16, 16, 32)        9248      
_________________________________________________________________
max_pooling2d_2 (MaxPooling2 (None, 8, 8, 32)          0         
_________________________________________________________________
conv2d_3 (Conv2D)            (None, 8, 8, 64)          18496     
_________________________________________________________________
max_pooling2d_3 (MaxPooling2 (None, 4, 4, 64)          0         
_________________________________________________________________
flatten_1 (Flatten)          (None, 1024)              0         
_________________________________________________________________
dense_1 (Dense)              (None, 128)               131200    
_________________________________________________________________
activation_1 (Activation)    (None, 128)               0         
_________________________________________________________________
dense_2 (Dense)              (None, 128)               16512     
_________________________________________________________________
activation_2 (Activation)    (None, 128)               0         
_________________________________________________________________
dense_3 (Dense)              (None, 10)                1290      
=================================================================
Total params: 177,642
Trainable params: 177,642
Non-trainable params: 0
_________________________________________________________________

2018-04-29 07:32:00.683903AM --- Model took seconds to train 195.6150336265564
2018-04-29 07:32:00.780566AM --- Accuracy on test data is: 71.35000000000001
2018-04-29 07:32:00.821774AM --- starting process for: (((conv*2)pool)*3)fc*0
2018-04-29 07:32:01.546674AM
_________________________________________________________________
Layer (type)                 Output Shape              Param #   
=================================================================
conv2d_1 (Conv2D)            (None, 32, 32, 32)        896       
_________________________________________________________________
conv2d_2 (Conv2D)            (None, 32, 32, 32)        9248      
_________________________________________________________________
max_pooling2d_1 (MaxPooling2 (None, 16, 16, 32)        0         
_________________________________________________________________
conv2d_3 (Conv2D)            (None, 16, 16, 64)        18496     
_________________________________________________________________
conv2d_4 (Conv2D)            (None, 16, 16, 128)       73856     
_________________________________________________________________
max_pooling2d_2 (MaxPooling2 (None, 8, 8, 128)         0         
_________________________________________________________________
conv2d_5 (Conv2D)            (None, 8, 8, 128)         147584    
_________________________________________________________________
conv2d_6 (Conv2D)            (None, 8, 8, 128)         147584    
_________________________________________________________________
max_pooling2d_3 (MaxPooling2 (None, 4, 4, 128)         0         
_________________________________________________________________
flatten_1 (Flatten)          (None, 2048)              0         
_________________________________________________________________
dense_1 (Dense)              (None, 10)                20490     
=================================================================
Total params: 418,154
Trainable params: 418,154
Non-trainable params: 0
_________________________________________________________________

2018-04-29 07:38:28.941606AM --- Model took seconds to train 387.3797221183777
2018-04-29 07:38:29.081161AM --- Accuracy on test data is: 77.7
2018-04-29 07:38:29.123511AM --- starting process for: (((conv*2)pool)*3)fc*2
2018-04-29 07:38:29.855834AM
_________________________________________________________________
Layer (type)                 Output Shape              Param #   
=================================================================
conv2d_1 (Conv2D)            (None, 32, 32, 32)        896       
_________________________________________________________________
conv2d_2 (Conv2D)            (None, 32, 32, 32)        9248      
_________________________________________________________________
max_pooling2d_1 (MaxPooling2 (None, 16, 16, 32)        0         
_________________________________________________________________
conv2d_3 (Conv2D)            (None, 16, 16, 64)        18496     
_________________________________________________________________
conv2d_4 (Conv2D)            (None, 16, 16, 128)       73856     
_________________________________________________________________
max_pooling2d_2 (MaxPooling2 (None, 8, 8, 128)         0         
_________________________________________________________________
conv2d_5 (Conv2D)            (None, 8, 8, 128)         147584    
_________________________________________________________________
conv2d_6 (Conv2D)            (None, 8, 8, 128)         147584    
_________________________________________________________________
max_pooling2d_3 (MaxPooling2 (None, 4, 4, 128)         0         
_________________________________________________________________
flatten_1 (Flatten)          (None, 2048)              0         
_________________________________________________________________
dense_1 (Dense)              (None, 128)               262272    
_________________________________________________________________
activation_1 (Activation)    (None, 128)               0         
_________________________________________________________________
dense_2 (Dense)              (None, 128)               16512     
_________________________________________________________________
activation_2 (Activation)    (None, 128)               0         
_________________________________________________________________
dense_3 (Dense)              (None, 10)                1290      
=================================================================
Total params: 677,738
Trainable params: 677,738
Non-trainable params: 0
_________________________________________________________________

2018-04-29 07:45:05.553496AM --- Model took seconds to train 395.682320356369
2018-04-29 07:45:05.711161AM --- Accuracy on test data is: 77.85
2018-04-29 07:45:05.750962AM --- starting process for: (((conv*2)vazio)*3)fc*0
2018-04-29 07:45:06.473793AM
_________________________________________________________________
Layer (type)                 Output Shape              Param #   
=================================================================
conv2d_1 (Conv2D)            (None, 32, 32, 32)        896       
_________________________________________________________________
conv2d_2 (Conv2D)            (None, 32, 32, 32)        9248      
_________________________________________________________________
conv2d_3 (Conv2D)            (None, 32, 32, 64)        18496     
_________________________________________________________________
conv2d_4 (Conv2D)            (None, 32, 32, 128)       73856     
_________________________________________________________________
conv2d_5 (Conv2D)            (None, 32, 32, 128)       147584    
_________________________________________________________________
conv2d_6 (Conv2D)            (None, 32, 32, 128)       147584    
_________________________________________________________________
flatten_1 (Flatten)          (None, 131072)            0         
_________________________________________________________________
dense_1 (Dense)              (None, 10)                1310730   
=================================================================
Total params: 1,708,394
Trainable params: 1,708,394
Non-trainable params: 0
_________________________________________________________________

2018-04-29 08:10:15.554100AM --- Model took seconds to train 1509.064332485199
2018-04-29 08:10:16.534183AM --- Accuracy on test data is: 65.64999999999999
2018-04-29 08:10:16.574445AM --- starting process for: (((conv*1)pool)*2)fc*2
2018-04-29 08:10:17.283186AM
_________________________________________________________________
Layer (type)                 Output Shape              Param #   
=================================================================
conv2d_1 (Conv2D)            (None, 32, 32, 32)        896       
_________________________________________________________________
max_pooling2d_1 (MaxPooling2 (None, 16, 16, 32)        0         
_________________________________________________________________
conv2d_2 (Conv2D)            (None, 16, 16, 32)        9248      
_________________________________________________________________
max_pooling2d_2 (MaxPooling2 (None, 8, 8, 32)          0         
_________________________________________________________________
flatten_1 (Flatten)          (None, 2048)              0         
_________________________________________________________________
dense_1 (Dense)              (None, 128)               262272    
_________________________________________________________________
activation_1 (Activation)    (None, 128)               0         
_________________________________________________________________
dense_2 (Dense)              (None, 128)               16512     
_________________________________________________________________
activation_2 (Activation)    (None, 128)               0         
_________________________________________________________________
dense_3 (Dense)              (None, 10)                1290      
=================================================================
Total params: 290,218
Trainable params: 290,218
Non-trainable params: 0
_________________________________________________________________

2018-04-29 08:13:16.206718AM --- Model took seconds to train 178.90784358978271
2018-04-29 08:13:16.316201AM --- Accuracy on test data is: 68.65
2018-04-29 08:13:16.362772AM --- starting process for: (((conv*2)pool)*2)fc*2
2018-04-29 08:13:17.074818AM
_________________________________________________________________
Layer (type)                 Output Shape              Param #   
=================================================================
conv2d_1 (Conv2D)            (None, 32, 32, 32)        896       
_________________________________________________________________
conv2d_2 (Conv2D)            (None, 32, 32, 32)        9248      
_________________________________________________________________
max_pooling2d_1 (MaxPooling2 (None, 16, 16, 32)        0         
_________________________________________________________________
conv2d_3 (Conv2D)            (None, 16, 16, 64)        18496     
_________________________________________________________________
conv2d_4 (Conv2D)            (None, 16, 16, 128)       73856     
_________________________________________________________________
max_pooling2d_2 (MaxPooling2 (None, 8, 8, 128)         0         
_________________________________________________________________
flatten_1 (Flatten)          (None, 8192)              0         
_________________________________________________________________
dense_1 (Dense)              (None, 128)               1048704   
_________________________________________________________________
activation_1 (Activation)    (None, 128)               0         
_________________________________________________________________
dense_2 (Dense)              (None, 128)               16512     
_________________________________________________________________
activation_2 (Activation)    (None, 128)               0         
_________________________________________________________________
dense_3 (Dense)              (None, 10)                1290      
=================================================================
Total params: 1,169,002
Trainable params: 1,169,002
Non-trainable params: 0
_________________________________________________________________

2018-04-29 08:19:03.591316AM --- Model took seconds to train 346.50065445899963
2018-04-29 08:19:03.767041AM --- Accuracy on test data is: 74.35000000000001
2018-04-29 08:19:03.811324AM --- starting process for: (((conv*2)pool)*2)fc*1
2018-04-29 08:19:04.529887AM
_________________________________________________________________
Layer (type)                 Output Shape              Param #   
=================================================================
conv2d_1 (Conv2D)            (None, 32, 32, 32)        896       
_________________________________________________________________
conv2d_2 (Conv2D)            (None, 32, 32, 32)        9248      
_________________________________________________________________
max_pooling2d_1 (MaxPooling2 (None, 16, 16, 32)        0         
_________________________________________________________________
conv2d_3 (Conv2D)            (None, 16, 16, 64)        18496     
_________________________________________________________________
conv2d_4 (Conv2D)            (None, 16, 16, 128)       73856     
_________________________________________________________________
max_pooling2d_2 (MaxPooling2 (None, 8, 8, 128)         0         
_________________________________________________________________
flatten_1 (Flatten)          (None, 8192)              0         
_________________________________________________________________
dense_1 (Dense)              (None, 128)               1048704   
_________________________________________________________________
activation_1 (Activation)    (None, 128)               0         
_________________________________________________________________
dense_2 (Dense)              (None, 10)                1290      
=================================================================
Total params: 1,152,490
Trainable params: 1,152,490
Non-trainable params: 0
_________________________________________________________________

2018-04-29 08:24:47.812439AM --- Model took seconds to train 343.26710295677185
2018-04-29 08:24:47.981253AM --- Accuracy on test data is: 76.0
2018-04-29 08:24:48.025701AM --- starting process for: (((conv*1)pool)*3)fc*2
2018-04-29 08:24:48.745027AM
_________________________________________________________________
Layer (type)                 Output Shape              Param #   
=================================================================
conv2d_1 (Conv2D)            (None, 32, 32, 32)        896       
_________________________________________________________________
max_pooling2d_1 (MaxPooling2 (None, 16, 16, 32)        0         
_________________________________________________________________
conv2d_2 (Conv2D)            (None, 16, 16, 32)        9248      
_________________________________________________________________
max_pooling2d_2 (MaxPooling2 (None, 8, 8, 32)          0         
_________________________________________________________________
conv2d_3 (Conv2D)            (None, 8, 8, 64)          18496     
_________________________________________________________________
max_pooling2d_3 (MaxPooling2 (None, 4, 4, 64)          0         
_________________________________________________________________
flatten_1 (Flatten)          (None, 1024)              0         
_________________________________________________________________
dense_1 (Dense)              (None, 128)               131200    
_________________________________________________________________
activation_1 (Activation)    (None, 128)               0         
_________________________________________________________________
dense_2 (Dense)              (None, 128)               16512     
_________________________________________________________________
activation_2 (Activation)    (None, 128)               0         
_________________________________________________________________
dense_3 (Dense)              (None, 10)                1290      
=================================================================
Total params: 177,642
Trainable params: 177,642
Non-trainable params: 0
_________________________________________________________________

2018-04-29 08:28:04.145542AM --- Model took seconds to train 195.38479924201965
2018-04-29 08:28:04.253567AM --- Accuracy on test data is: 71.75
2018-04-29 08:28:04.298669AM --- starting process for: (((conv*1)pool)*3)fc*2
2018-04-29 08:28:05.017227AM
_________________________________________________________________
Layer (type)                 Output Shape              Param #   
=================================================================
conv2d_1 (Conv2D)            (None, 32, 32, 32)        896       
_________________________________________________________________
max_pooling2d_1 (MaxPooling2 (None, 16, 16, 32)        0         
_________________________________________________________________
conv2d_2 (Conv2D)            (None, 16, 16, 32)        9248      
_________________________________________________________________
max_pooling2d_2 (MaxPooling2 (None, 8, 8, 32)          0         
_________________________________________________________________
conv2d_3 (Conv2D)            (None, 8, 8, 64)          18496     
_________________________________________________________________
max_pooling2d_3 (MaxPooling2 (None, 4, 4, 64)          0         
_________________________________________________________________
flatten_1 (Flatten)          (None, 1024)              0         
_________________________________________________________________
dense_1 (Dense)              (None, 128)               131200    
_________________________________________________________________
activation_1 (Activation)    (None, 128)               0         
_________________________________________________________________
dense_2 (Dense)              (None, 128)               16512     
_________________________________________________________________
activation_2 (Activation)    (None, 128)               0         
_________________________________________________________________
dense_3 (Dense)              (None, 10)                1290      
=================================================================
Total params: 177,642
Trainable params: 177,642
Non-trainable params: 0
_________________________________________________________________

2018-04-29 08:31:23.446334AM --- Model took seconds to train 198.41373348236084
2018-04-29 08:31:23.565037AM --- Accuracy on test data is: 71.05
2018-04-29 08:31:23.613495AM --- starting process for: (((conv*2)pool)*3)fc*1
2018-04-29 08:31:24.333429AM
_________________________________________________________________
Layer (type)                 Output Shape              Param #   
=================================================================
conv2d_1 (Conv2D)            (None, 32, 32, 32)        896       
_________________________________________________________________
conv2d_2 (Conv2D)            (None, 32, 32, 32)        9248      
_________________________________________________________________
max_pooling2d_1 (MaxPooling2 (None, 16, 16, 32)        0         
_________________________________________________________________
conv2d_3 (Conv2D)            (None, 16, 16, 64)        18496     
_________________________________________________________________
conv2d_4 (Conv2D)            (None, 16, 16, 128)       73856     
_________________________________________________________________
max_pooling2d_2 (MaxPooling2 (None, 8, 8, 128)         0         
_________________________________________________________________
conv2d_5 (Conv2D)            (None, 8, 8, 128)         147584    
_________________________________________________________________
conv2d_6 (Conv2D)            (None, 8, 8, 128)         147584    
_________________________________________________________________
max_pooling2d_3 (MaxPooling2 (None, 4, 4, 128)         0         
_________________________________________________________________
flatten_1 (Flatten)          (None, 2048)              0         
_________________________________________________________________
dense_1 (Dense)              (None, 128)               262272    
_________________________________________________________________
activation_1 (Activation)    (None, 128)               0         
_________________________________________________________________
dense_2 (Dense)              (None, 10)                1290      
=================================================================
Total params: 661,226
Trainable params: 661,226
Non-trainable params: 0
_________________________________________________________________

2018-04-29 08:38:00.145476AM --- Model took seconds to train 395.79617381095886
2018-04-29 08:38:00.303384AM --- Accuracy on test data is: 76.6
2018-04-29 08:38:00.350771AM --- starting process for: (((conv*2)pool)*3)fc*1
2018-04-29 08:38:01.079068AM
_________________________________________________________________
Layer (type)                 Output Shape              Param #   
=================================================================
conv2d_1 (Conv2D)            (None, 32, 32, 32)        896       
_________________________________________________________________
conv2d_2 (Conv2D)            (None, 32, 32, 32)        9248      
_________________________________________________________________
max_pooling2d_1 (MaxPooling2 (None, 16, 16, 32)        0         
_________________________________________________________________
conv2d_3 (Conv2D)            (None, 16, 16, 64)        18496     
_________________________________________________________________
conv2d_4 (Conv2D)            (None, 16, 16, 128)       73856     
_________________________________________________________________
max_pooling2d_2 (MaxPooling2 (None, 8, 8, 128)         0         
_________________________________________________________________
conv2d_5 (Conv2D)            (None, 8, 8, 128)         147584    
_________________________________________________________________
…
_________________________________________________________________
max_pooling2d_2 (MaxPooling2 (None, 8, 8, 128)         0         
_________________________________________________________________
conv2d_5 (Conv2D)            (None, 8, 8, 128)         147584    
_________________________________________________________________
conv2d_6 (Conv2D)            (None, 8, 8, 128)         147584    
_________________________________________________________________
max_pooling2d_3 (MaxPooling2 (None, 4, 4, 128)         0         
_________________________________________________________________
flatten_1 (Flatten)          (None, 2048)              0         
_________________________________________________________________
dense_1 (Dense)              (None, 128)               262272    
_________________________________________________________________
activation_1 (Activation)    (None, 128)               0         
_________________________________________________________________
dense_2 (Dense)              (None, 10)                1290      
=================================================================
Total params: 661,226
Trainable params: 661,226
Non-trainable params: 0
_________________________________________________________________

2018-04-29 21:40:49.060839PM --- Model took seconds to train 370.39289450645447
2018-04-29 21:40:49.217706PM --- Accuracy on test data is: 79.25
2018-04-29 21:40:49.266423PM --- starting process for: (((conv*1)pool)*1)fc*0
2018-04-29 21:40:49.956713PM
_________________________________________________________________
Layer (type)                 Output Shape              Param #   
=================================================================
conv2d_1 (Conv2D)            (None, 32, 32, 32)        896       
_________________________________________________________________
max_pooling2d_1 (MaxPooling2 (None, 16, 16, 32)        0         
_________________________________________________________________
flatten_1 (Flatten)          (None, 8192)              0         
_________________________________________________________________
dense_1 (Dense)              (None, 10)                81930     
=================================================================
Total params: 82,826
Trainable params: 82,826
Non-trainable params: 0
_________________________________________________________________

2018-04-29 21:43:23.180329PM --- Model took seconds to train 153.2077920436859
2018-04-29 21:43:23.298200PM --- Accuracy on test data is: 60.8
2018-04-29 21:43:23.339409PM --- starting process for: (((conv*2)pool)*2)fc*1
2018-04-29 21:43:24.055341PM
_________________________________________________________________
Layer (type)                 Output Shape              Param #   
=================================================================
conv2d_1 (Conv2D)            (None, 32, 32, 32)        896       
_________________________________________________________________
conv2d_2 (Conv2D)            (None, 32, 32, 32)        9248      
_________________________________________________________________
max_pooling2d_1 (MaxPooling2 (None, 16, 16, 32)        0         
_________________________________________________________________
conv2d_3 (Conv2D)            (None, 16, 16, 64)        18496     
_________________________________________________________________
conv2d_4 (Conv2D)            (None, 16, 16, 128)       73856     
_________________________________________________________________
max_pooling2d_2 (MaxPooling2 (None, 8, 8, 128)         0         
_________________________________________________________________
flatten_1 (Flatten)          (None, 8192)              0         
_________________________________________________________________
dense_1 (Dense)              (None, 128)               1048704   
_________________________________________________________________
activation_1 (Activation)    (None, 128)               0         
_________________________________________________________________
dense_2 (Dense)              (None, 10)                1290      
=================================================================
Total params: 1,152,490
Trainable params: 1,152,490
Non-trainable params: 0
_________________________________________________________________

2018-04-29 21:48:44.822501PM --- Model took seconds to train 320.7520558834076
2018-04-29 21:48:45.020528PM --- Accuracy on test data is: 73.65
2018-04-29 21:48:45.070699PM --- starting process for: (((conv*2)pool)*3)fc*2
2018-04-29 21:48:45.800217PM
_________________________________________________________________
Layer (type)                 Output Shape              Param #   
=================================================================
conv2d_1 (Conv2D)            (None, 32, 32, 32)        896       
_________________________________________________________________
conv2d_2 (Conv2D)            (None, 32, 32, 32)        9248      
_________________________________________________________________
max_pooling2d_1 (MaxPooling2 (None, 16, 16, 32)        0         
_________________________________________________________________
conv2d_3 (Conv2D)            (None, 16, 16, 64)        18496     
_________________________________________________________________
conv2d_4 (Conv2D)            (None, 16, 16, 128)       73856     
_________________________________________________________________
max_pooling2d_2 (MaxPooling2 (None, 8, 8, 128)         0         
_________________________________________________________________
conv2d_5 (Conv2D)            (None, 8, 8, 128)         147584    
_________________________________________________________________
conv2d_6 (Conv2D)            (None, 8, 8, 128)         147584    
_________________________________________________________________
max_pooling2d_3 (MaxPooling2 (None, 4, 4, 128)         0         
_________________________________________________________________
flatten_1 (Flatten)          (None, 2048)              0         
_________________________________________________________________
dense_1 (Dense)              (None, 128)               262272    
_________________________________________________________________
activation_1 (Activation)    (None, 128)               0         
_________________________________________________________________
dense_2 (Dense)              (None, 128)               16512     
_________________________________________________________________
activation_2 (Activation)    (None, 128)               0         
_________________________________________________________________
dense_3 (Dense)              (None, 10)                1290      
=================================================================
Total params: 677,738
Trainable params: 677,738
Non-trainable params: 0
_________________________________________________________________

2018-04-29 21:55:02.297481PM --- Model took seconds to train 376.48151564598083
2018-04-29 21:55:02.451396PM --- Accuracy on test data is: 77.3
2018-04-29 21:55:02.495573PM --- starting process for: (((conv*2)pool)*3)fc*2
2018-04-29 21:55:03.239919PM
_________________________________________________________________
Layer (type)                 Output Shape              Param #   
=================================================================
conv2d_1 (Conv2D)            (None, 32, 32, 32)        896       
_________________________________________________________________
conv2d_2 (Conv2D)            (None, 32, 32, 32)        9248      
_________________________________________________________________
max_pooling2d_1 (MaxPooling2 (None, 16, 16, 32)        0         
_________________________________________________________________
conv2d_3 (Conv2D)            (None, 16, 16, 64)        18496     
_________________________________________________________________
conv2d_4 (Conv2D)            (None, 16, 16, 128)       73856     
_________________________________________________________________
max_pooling2d_2 (MaxPooling2 (None, 8, 8, 128)         0         
_________________________________________________________________
conv2d_5 (Conv2D)            (None, 8, 8, 128)         147584    
_________________________________________________________________
conv2d_6 (Conv2D)            (None, 8, 8, 128)         147584    
_________________________________________________________________
max_pooling2d_3 (MaxPooling2 (None, 4, 4, 128)         0         
_________________________________________________________________
flatten_1 (Flatten)          (None, 2048)              0         
_________________________________________________________________
dense_1 (Dense)              (None, 128)               262272    
_________________________________________________________________
activation_1 (Activation)    (None, 128)               0         
_________________________________________________________________
dense_2 (Dense)              (None, 128)               16512     
_________________________________________________________________
activation_2 (Activation)    (None, 128)               0         
_________________________________________________________________
dense_3 (Dense)              (None, 10)                1290      
=================================================================
Total params: 677,738
Trainable params: 677,738
Non-trainable params: 0
_________________________________________________________________

2018-04-29 22:01:20.553964PM --- Model took seconds to train 377.2979896068573
2018-04-29 22:01:20.708789PM --- Accuracy on test data is: 78.55
2018-04-29 22:01:20.759770PM --- starting process for: (((conv*2)pool)*3)fc*2
2018-04-29 22:01:21.496193PM
_________________________________________________________________
Layer (type)                 Output Shape              Param #   
=================================================================
conv2d_1 (Conv2D)            (None, 32, 32, 32)        896       
_________________________________________________________________
conv2d_2 (Conv2D)            (None, 32, 32, 32)        9248      
_________________________________________________________________
max_pooling2d_1 (MaxPooling2 (None, 16, 16, 32)        0         
_________________________________________________________________
conv2d_3 (Conv2D)            (None, 16, 16, 64)        18496     
_________________________________________________________________
conv2d_4 (Conv2D)            (None, 16, 16, 128)       73856     
_________________________________________________________________
max_pooling2d_2 (MaxPooling2 (None, 8, 8, 128)         0         
_________________________________________________________________
conv2d_5 (Conv2D)            (None, 8, 8, 128)         147584    
_________________________________________________________________
conv2d_6 (Conv2D)            (None, 8, 8, 128)         147584    
_________________________________________________________________
max_pooling2d_3 (MaxPooling2 (None, 4, 4, 128)         0         
_________________________________________________________________
flatten_1 (Flatten)          (None, 2048)              0         
_________________________________________________________________
dense_1 (Dense)              (None, 128)               262272    
_________________________________________________________________
activation_1 (Activation)    (None, 128)               0         
_________________________________________________________________
dense_2 (Dense)              (None, 128)               16512     
_________________________________________________________________
activation_2 (Activation)    (None, 128)               0         
_________________________________________________________________
dense_3 (Dense)              (None, 10)                1290      
=================================================================
Total params: 677,738
Trainable params: 677,738
Non-trainable params: 0
_________________________________________________________________

2018-04-29 22:07:35.835231PM --- Model took seconds to train 374.32269406318665
2018-04-29 22:07:35.996253PM --- Accuracy on test data is: 76.6
2018-04-29 22:07:36.046148PM --- starting process for: (((conv*2)vazio)*3)fc*2
2018-04-29 22:07:36.851720PM
_________________________________________________________________
Layer (type)                 Output Shape              Param #   
=================================================================
conv2d_1 (Conv2D)            (None, 32, 32, 32)        896       
_________________________________________________________________
conv2d_2 (Conv2D)            (None, 32, 32, 32)        9248      
_________________________________________________________________
conv2d_3 (Conv2D)            (None, 32, 32, 64)        18496     
_________________________________________________________________
conv2d_4 (Conv2D)            (None, 32, 32, 128)       73856     
_________________________________________________________________
conv2d_5 (Conv2D)            (None, 32, 32, 128)       147584    
_________________________________________________________________
conv2d_6 (Conv2D)            (None, 32, 32, 128)       147584    
_________________________________________________________________
flatten_1 (Flatten)          (None, 131072)            0         
_________________________________________________________________
dense_1 (Dense)              (None, 128)               16777344  
_________________________________________________________________
activation_1 (Activation)    (None, 128)               0         
_________________________________________________________________
dense_2 (Dense)              (None, 128)               16512     
_________________________________________________________________
activation_2 (Activation)    (None, 128)               0         
_________________________________________________________________
dense_3 (Dense)              (None, 10)                1290      
=================================================================
Total params: 17,192,810
Trainable params: 17,192,810
Non-trainable params: 0
_________________________________________________________________

2018-04-29 22:28:47.018552PM --- Model took seconds to train 1270.1514449119568
2018-04-29 22:28:48.064490PM --- Accuracy on test data is: 65.4
2018-04-29 22:28:48.105059PM --- starting process for: (((conv*1)pool)*3)fc*0
2018-04-29 22:28:48.805419PM
_________________________________________________________________
Layer (type)                 Output Shape              Param #   
=================================================================
conv2d_1 (Conv2D)            (None, 32, 32, 32)        896       
_________________________________________________________________
max_pooling2d_1 (MaxPooling2 (None, 16, 16, 32)        0         
_________________________________________________________________
conv2d_2 (Conv2D)            (None, 16, 16, 32)        9248      
_________________________________________________________________
max_pooling2d_2 (MaxPooling2 (None, 8, 8, 32)          0         
_________________________________________________________________
conv2d_3 (Conv2D)            (None, 8, 8, 64)          18496     
_________________________________________________________________
max_pooling2d_3 (MaxPooling2 (None, 4, 4, 64)          0         
_________________________________________________________________
flatten_1 (Flatten)          (None, 1024)              0         
_________________________________________________________________
dense_1 (Dense)              (None, 10)                10250     
=================================================================
Total params: 38,890
Trainable params: 38,890
Non-trainable params: 0
_________________________________________________________________

2018-04-29 22:31:33.186144PM --- Model took seconds to train 164.3652000427246
2018-04-29 22:31:33.291242PM --- Accuracy on test data is: 69.75
2018-04-29 22:31:33.340507PM --- starting process for: (((conv*2)pool)*3)fc*0
2018-04-29 22:31:34.063717PM
_________________________________________________________________
Layer (type)                 Output Shape              Param #   
=================================================================
conv2d_1 (Conv2D)            (None, 32, 32, 32)        896       
_________________________________________________________________
conv2d_2 (Conv2D)            (None, 32, 32, 32)        9248      
_________________________________________________________________
max_pooling2d_1 (MaxPooling2 (None, 16, 16, 32)        0         
_________________________________________________________________
conv2d_3 (Conv2D)            (None, 16, 16, 64)        18496     
_________________________________________________________________
conv2d_4 (Conv2D)            (None, 16, 16, 128)       73856     
_________________________________________________________________
max_pooling2d_2 (MaxPooling2 (None, 8, 8, 128)         0         
_________________________________________________________________
conv2d_5 (Conv2D)            (None, 8, 8, 128)         147584    
_________________________________________________________________
conv2d_6 (Conv2D)            (None, 8, 8, 128)         147584    
_________________________________________________________________
max_pooling2d_3 (MaxPooling2 (None, 4, 4, 128)         0         
_________________________________________________________________
flatten_1 (Flatten)          (None, 2048)              0         
_________________________________________________________________
dense_1 (Dense)              (None, 10)                20490     
=================================================================
Total params: 418,154
Trainable params: 418,154
Non-trainable params: 0
_________________________________________________________________

2018-04-29 22:37:43.113889PM --- Model took seconds to train 369.034987449646
2018-04-29 22:37:43.259596PM --- Accuracy on test data is: 76.5
2018-04-29 22:37:43.310388PM --- starting process for: (((conv*2)pool)*3)fc*1
2018-04-29 22:37:44.042474PM
_________________________________________________________________
Layer (type)                 Output Shape              Param #   
=================================================================
conv2d_1 (Conv2D)            (None, 32, 32, 32)        896       
_________________________________________________________________
conv2d_2 (Conv2D)            (None, 32, 32, 32)        9248      
_________________________________________________________________
max_pooling2d_1 (MaxPooling2 (None, 16, 16, 32)        0         
_________________________________________________________________
conv2d_3 (Conv2D)            (None, 16, 16, 64)        18496     
_________________________________________________________________
conv2d_4 (Conv2D)            (None, 16, 16, 128)       73856     
_________________________________________________________________
max_pooling2d_2 (MaxPooling2 (None, 8, 8, 128)         0         
_________________________________________________________________
conv2d_5 (Conv2D)            (None, 8, 8, 128)         147584    
_________________________________________________________________
conv2d_6 (Conv2D)            (None, 8, 8, 128)         147584    
_________________________________________________________________
max_pooling2d_3 (MaxPooling2 (None, 4, 4, 128)         0         
_________________________________________________________________
flatten_1 (Flatten)          (None, 2048)              0         
_________________________________________________________________
dense_1 (Dense)              (None, 128)               262272    
_________________________________________________________________
activation_1 (Activation)    (None, 128)               0         
_________________________________________________________________
dense_2 (Dense)              (None, 10)                1290      
=================================================================
Total params: 661,226
Trainable params: 661,226
Non-trainable params: 0
_________________________________________________________________

2018-04-29 22:43:54.737876PM --- Model took seconds to train 370.67969584465027
2018-04-29 22:43:54.893423PM --- Accuracy on test data is: 79.10000000000001
2018-04-29 22:43:54.937893PM --- starting process for: (((conv*2)pool)*3)fc*2
2018-04-29 22:43:55.672457PM
_________________________________________________________________
Layer (type)                 Output Shape              Param #   
=================================================================
conv2d_1 (Conv2D)            (None, 32, 32, 32)        896       
_________________________________________________________________
conv2d_2 (Conv2D)            (None, 32, 32, 32)        9248      
_________________________________________________________________
max_pooling2d_1 (MaxPooling2 (None, 16, 16, 32)        0         
_________________________________________________________________
conv2d_3 (Conv2D)            (None, 16, 16, 64)        18496     
_________________________________________________________________
conv2d_4 (Conv2D)            (None, 16, 16, 128)       73856     
_________________________________________________________________
max_pooling2d_2 (MaxPooling2 (None, 8, 8, 128)         0         
_________________________________________________________________
conv2d_5 (Conv2D)            (None, 8, 8, 128)         147584    
_________________________________________________________________
conv2d_6 (Conv2D)            (None, 8, 8, 128)         147584    
_________________________________________________________________
max_pooling2d_3 (MaxPooling2 (None, 4, 4, 128)         0         
_________________________________________________________________
flatten_1 (Flatten)          (None, 2048)              0         
_________________________________________________________________
dense_1 (Dense)              (None, 128)               262272    
_________________________________________________________________
activation_1 (Activation)    (None, 128)               0         
_________________________________________________________________
dense_2 (Dense)              (None, 128)               16512     
_________________________________________________________________
activation_2 (Activation)    (None, 128)               0         
_________________________________________________________________
dense_3 (Dense)              (None, 10)                1290      
=================================================================
Total params: 677,738
Trainable params: 677,738
Non-trainable params: 0
_________________________________________________________________

2018-04-29 22:50:12.831257PM --- Model took seconds to train 377.1436448097229
2018-04-29 22:50:12.974273PM --- Accuracy on test data is: 78.25
2018-04-29 22:50:13.015809PM --- starting process for: (((conv*2)pool)*2)fc*0
2018-04-29 22:50:13.800442PM
_________________________________________________________________
Layer (type)                 Output Shape              Param #   
=================================================================
conv2d_1 (Conv2D)            (None, 32, 32, 32)        896       
_________________________________________________________________
conv2d_2 (Conv2D)            (None, 32, 32, 32)        9248      
_________________________________________________________________
max_pooling2d_1 (MaxPooling2 (None, 16, 16, 32)        0         
_________________________________________________________________
conv2d_3 (Conv2D)            (None, 16, 16, 64)        18496     
_________________________________________________________________
conv2d_4 (Conv2D)            (None, 16, 16, 128)       73856     
_________________________________________________________________
max_pooling2d_2 (MaxPooling2 (None, 8, 8, 128)         0         
_________________________________________________________________
flatten_1 (Flatten)          (None, 8192)              0         
_________________________________________________________________
dense_1 (Dense)              (None, 10)                81930     
=================================================================
Total params: 184,426
Trainable params: 184,426
Non-trainable params: 0
_________________________________________________________________

2018-04-29 22:55:49.457532PM --- Model took seconds to train 335.6420977115631
2018-04-29 22:55:49.630375PM --- Accuracy on test data is: 73.1
2018-04-29 22:55:49.678029PM --- starting process for: (((conv*2)pool)*3)fc*2
2018-04-29 22:55:50.413098PM
_________________________________________________________________
Layer (type)                 Output Shape              Param #   
=================================================================
conv2d_1 (Conv2D)            (None, 32, 32, 32)        896       
_________________________________________________________________
conv2d_2 (Conv2D)            (None, 32, 32, 32)        9248      
_________________________________________________________________
max_pooling2d_1 (MaxPooling2 (None, 16, 16, 32)        0         
_________________________________________________________________
conv2d_3 (Conv2D)            (None, 16, 16, 64)        18496     
_________________________________________________________________
conv2d_4 (Conv2D)            (None, 16, 16, 128)       73856     
_________________________________________________________________
max_pooling2d_2 (MaxPooling2 (None, 8, 8, 128)         0         
_________________________________________________________________
conv2d_5 (Conv2D)            (None, 8, 8, 128)         147584    
_________________________________________________________________
conv2d_6 (Conv2D)            (None, 8, 8, 128)         147584    
_________________________________________________________________
max_pooling2d_3 (MaxPooling2 (None, 4, 4, 128)         0         
_________________________________________________________________
flatten_1 (Flatten)          (None, 2048)              0         
_________________________________________________________________
dense_1 (Dense)              (None, 128)               262272    
_________________________________________________________________
activation_1 (Activation)    (None, 128)               0         
_________________________________________________________________
dense_2 (Dense)              (None, 128)               16512     
_________________________________________________________________
activation_2 (Activation)    (None, 128)               0         
_________________________________________________________________
dense_3 (Dense)              (None, 10)                1290      
=================================================================
Total params: 677,738
Trainable params: 677,738
Non-trainable params: 0
_________________________________________________________________

2018-04-29 23:02:05.935498PM --- Model took seconds to train 375.5069169998169
2018-04-29 23:02:06.087478PM --- Accuracy on test data is: 77.25
2018-04-29 23:02:06.134961PM --- starting process for: (((conv*1)pool)*3)fc*0
2018-04-29 23:02:06.846801PM
_________________________________________________________________
Layer (type)                 Output Shape              Param #   
=================================================================
conv2d_1 (Conv2D)            (None, 32, 32, 32)        896       
_________________________________________________________________
max_pooling2d_1 (MaxPooling2 (None, 16, 16, 32)        0         
_________________________________________________________________
conv2d_2 (Conv2D)            (None, 16, 16, 32)        9248      
_________________________________________________________________
max_pooling2d_2 (MaxPooling2 (None, 8, 8, 32)          0         
_________________________________________________________________
conv2d_3 (Conv2D)            (None, 8, 8, 64)          18496     
_________________________________________________________________
max_pooling2d_3 (MaxPooling2 (None, 4, 4, 64)          0         
_________________________________________________________________
flatten_1 (Flatten)          (None, 1024)              0         
_________________________________________________________________
dense_1 (Dense)              (None, 10)                10250     
=================================================================
Total params: 38,890
Trainable params: 38,890
Non-trainable params: 0
_________________________________________________________________

2018-04-29 23:04:52.413321PM --- Model took seconds to train 165.55139708518982
2018-04-29 23:04:52.516866PM --- Accuracy on test data is: 70.95
2018-04-29 23:04:52.566696PM --- starting process for: (((conv*2)pool)*3)fc*1
2018-04-29 23:04:53.298396PM
_________________________________________________________________
Layer (type)                 Output Shape              Param #   
=================================================================
conv2d_1 (Conv2D)            (None, 32, 32, 32)        896       
_________________________________________________________________
conv2d_2 (Conv2D)            (None, 32, 32, 32)        9248      
_________________________________________________________________
max_pooling2d_1 (MaxPooling2 (None, 16, 16, 32)        0         
_________________________________________________________________
conv2d_3 (Conv2D)            (None, 16, 16, 64)        18496     
_________________________________________________________________
conv2d_4 (Conv2D)            (None, 16, 16, 128)       73856     
_________________________________________________________________
max_pooling2d_2 (MaxPooling2 (None, 8, 8, 128)         0         
_________________________________________________________________
conv2d_5 (Conv2D)            (None, 8, 8, 128)         147584    
_________________________________________________________________
conv2d_6 (Conv2D)            (None, 8, 8, 128)         147584    
_________________________________________________________________
max_pooling2d_3 (MaxPooling2 (None, 4, 4, 128)         0         
_________________________________________________________________
flatten_1 (Flatten)          (None, 2048)              0         
_________________________________________________________________
dense_1 (Dense)              (None, 128)               262272    
_________________________________________________________________
activation_1 (Activation)    (None, 128)               0         
_________________________________________________________________
dense_2 (Dense)              (None, 10)                1290      
=================================================================
Total params: 661,226
Trainable params: 661,226
Non-trainable params: 0
_________________________________________________________________

2018-04-29 23:11:04.644591PM --- Model took seconds to train 371.3303883075714
2018-04-29 23:11:04.805218PM --- Accuracy on test data is: 76.64999999999999
2018-04-29 23:11:04.852767PM --- starting process for: (((conv*2)pool)*3)fc*0
2018-04-29 23:11:05.583264PM
_________________________________________________________________
Layer (type)                 Output Shape              Param #   
=================================================================
conv2d_1 (Conv2D)            (None, 32, 32, 32)        896       
_________________________________________________________________
conv2d_2 (Conv2D)            (None, 32, 32, 32)        9248      
_________________________________________________________________
max_pooling2d_1 (MaxPooling2 (None, 16, 16, 32)        0         
_________________________________________________________________
conv2d_3 (Conv2D)            (None, 16, 16, 64)        18496     
_________________________________________________________________
conv2d_4 (Conv2D)            (None, 16, 16, 128)       73856     
_________________________________________________________________
max_pooling2d_2 (MaxPooling2 (None, 8, 8, 128)         0         
_________________________________________________________________
conv2d_5 (Conv2D)            (None, 8, 8, 128)         147584    
_________________________________________________________________
conv2d_6 (Conv2D)            (None, 8, 8, 128)         147584    
_________________________________________________________________
max_pooling2d_3 (MaxPooling2 (None, 4, 4, 128)         0         
_________________________________________________________________
flatten_1 (Flatten)          (None, 2048)              0         
_________________________________________________________________
dense_1 (Dense)              (None, 10)                20490     
=================================================================
Total params: 418,154
Trainable params: 418,154
Non-trainable params: 0
_________________________________________________________________

2018-04-29 23:17:15.054450PM --- Model took seconds to train 369.45600152015686
2018-04-29 23:17:15.195096PM --- Accuracy on test data is: 77.5
2018-04-29 23:17:15.239346PM --- starting process for: (((conv*2)pool)*3)fc*2
2018-04-29 23:17:15.976476PM
_________________________________________________________________
Layer (type)                 Output Shape              Param #   
=================================================================
conv2d_1 (Conv2D)            (None, 32, 32, 32)        896       
_________________________________________________________________
conv2d_2 (Conv2D)            (None, 32, 32, 32)        9248      
_________________________________________________________________
max_pooling2d_1 (MaxPooling2 (None, 16, 16, 32)        0         
_________________________________________________________________
conv2d_3 (Conv2D)            (None, 16, 16, 64)        18496     
_________________________________________________________________
conv2d_4 (Conv2D)            (None, 16, 16, 128)       73856     
_________________________________________________________________
max_pooling2d_2 (MaxPooling2 (None, 8, 8, 128)         0         
_________________________________________________________________
conv2d_5 (Conv2D)            (None, 8, 8, 128)         147584    
_________________________________________________________________
conv2d_6 (Conv2D)            (None, 8, 8, 128)         147584    
_________________________________________________________________
max_pooling2d_3 (MaxPooling2 (None, 4, 4, 128)         0         
_________________________________________________________________
flatten_1 (Flatten)          (None, 2048)              0         
_________________________________________________________________
dense_1 (Dense)              (None, 128)               262272    
_________________________________________________________________
activation_1 (Activation)    (None, 128)               0         
_________________________________________________________________
dense_2 (Dense)              (None, 128)               16512     
_________________________________________________________________
activation_2 (Activation)    (None, 128)               0         
_________________________________________________________________
dense_3 (Dense)              (None, 10)                1290      
=================================================================
Total params: 677,738
Trainable params: 677,738
Non-trainable params: 0
_________________________________________________________________

2018-04-29 23:23:30.998978PM --- Model took seconds to train 375.0069329738617
2018-04-29 23:23:31.149254PM --- Accuracy on test data is: 78.05
2018-04-29 23:23:31.191883PM --- starting process for: (((conv*1)pool)*3)fc*2
2018-04-29 23:23:31.912693PM
_________________________________________________________________
Layer (type)                 Output Shape              Param #   
=================================================================
conv2d_1 (Conv2D)            (None, 32, 32, 32)        896       
_________________________________________________________________
max_pooling2d_1 (MaxPooling2 (None, 16, 16, 32)        0         
_________________________________________________________________
conv2d_2 (Conv2D)            (None, 16, 16, 32)        9248      
_________________________________________________________________
max_pooling2d_2 (MaxPooling2 (None, 8, 8, 32)          0         
_________________________________________________________________
conv2d_3 (Conv2D)            (None, 8, 8, 64)          18496     
_________________________________________________________________
max_pooling2d_3 (MaxPooling2 (None, 4, 4, 64)          0         
_________________________________________________________________
flatten_1 (Flatten)          (None, 1024)              0         
_________________________________________________________________
dense_1 (Dense)              (None, 128)               131200    
_________________________________________________________________
activation_1 (Activation)    (None, 128)               0         
_________________________________________________________________
dense_2 (Dense)              (None, 128)               16512     
_________________________________________________________________
activation_2 (Activation)    (None, 128)               0         
_________________________________________________________________
dense_3 (Dense)              (None, 10)                1290      
=================================================================
Total params: 177,642
Trainable params: 177,642
Non-trainable params: 0
_________________________________________________________________

2018-04-29 23:26:25.693484PM --- Model took seconds to train 173.76544976234436
2018-04-29 23:26:25.788197PM --- Accuracy on test data is: 71.5
2018-04-29 23:26:25.830245PM --- starting process for: (((conv*2)pool)*3)fc*1
2018-04-29 23:26:26.563723PM
_________________________________________________________________
Layer (type)                 Output Shape              Param #   
=================================================================
conv2d_1 (Conv2D)            (None, 32, 32, 32)        896       
_________________________________________________________________
conv2d_2 (Conv2D)            (None, 32, 32, 32)        9248      
_________________________________________________________________
max_pooling2d_1 (MaxPooling2 (None, 16, 16, 32)        0         
_________________________________________________________________
conv2d_3 (Conv2D)            (None, 16, 16, 64)        18496     
_________________________________________________________________
conv2d_4 (Conv2D)            (None, 16, 16, 128)       73856     
_________________________________________________________________
max_pooling2d_2 (MaxPooling2 (None, 8, 8, 128)         0         
_________________________________________________________________
conv2d_5 (Conv2D)            (None, 8, 8, 128)         147584    
_________________________________________________________________
conv2d_6 (Conv2D)            (None, 8, 8, 128)         147584    
_________________________________________________________________
max_pooling2d_3 (MaxPooling2 (None, 4, 4, 128)         0         
_________________________________________________________________
flatten_1 (Flatten)          (None, 2048)              0         
_________________________________________________________________
dense_1 (Dense)              (None, 128)               262272    
_________________________________________________________________
activation_1 (Activation)    (None, 128)               0         
_________________________________________________________________
dense_2 (Dense)              (None, 10)                1290      
=================================================================
Total params: 661,226
Trainable params: 661,226
Non-trainable params: 0
_________________________________________________________________

2018-04-29 23:32:37.484804PM --- Model took seconds to train 370.9053111076355
2018-04-29 23:32:37.622186PM --- Accuracy on test data is: 78.45
2018-04-29 23:32:37.663760PM --- starting process for: (((conv*2)pool)*3)fc*2
2018-04-29 23:32:38.400025PM
_________________________________________________________________
Layer (type)                 Output Shape              Param #   
=================================================================
conv2d_1 (Conv2D)            (None, 32, 32, 32)        896       
_________________________________________________________________
conv2d_2 (Conv2D)            (None, 32, 32, 32)        9248      
_________________________________________________________________
max_pooling2d_1 (MaxPooling2 (None, 16, 16, 32)        0         
_________________________________________________________________
conv2d_3 (Conv2D)            (None, 16, 16, 64)        18496     
_________________________________________________________________
conv2d_4 (Conv2D)            (None, 16, 16, 128)       73856     
_________________________________________________________________
max_pooling2d_2 (MaxPooling2 (None, 8, 8, 128)         0         
_________________________________________________________________
conv2d_5 (Conv2D)            (None, 8, 8, 128)         147584    
_________________________________________________________________
conv2d_6 (Conv2D)            (None, 8, 8, 128)         147584    
_________________________________________________________________
max_pooling2d_3 (MaxPooling2 (None, 4, 4, 128)         0         
_________________________________________________________________
flatten_1 (Flatten)          (None, 2048)              0         
_________________________________________________________________
dense_1 (Dense)              (None, 128)               262272    
_________________________________________________________________
activation_1 (Activation)    (None, 128)               0         
_________________________________________________________________
dense_2 (Dense)              (None, 128)               16512     
_________________________________________________________________
activation_2 (Activation)    (None, 128)               0         
_________________________________________________________________
dense_3 (Dense)              (None, 10)                1290      
=================================================================
Total params: 677,738
Trainable params: 677,738
Non-trainable params: 0
_________________________________________________________________

2018-04-29 23:38:53.150926PM --- Model took seconds to train 374.73538279533386
2018-04-29 23:38:53.304156PM --- Accuracy on test data is: 75.3
2018-04-29 23:38:53.345585PM --- starting process for: (((conv*2)pool)*3)fc*0
2018-04-29 23:38:54.076504PM
_________________________________________________________________
Layer (type)                 Output Shape              Param #   
=================================================================
conv2d_1 (Conv2D)            (None, 32, 32, 32)        896       
_________________________________________________________________
conv2d_2 (Conv2D)            (None, 32, 32, 32)        9248      
_________________________________________________________________
max_pooling2d_1 (MaxPooling2 (None, 16, 16, 32)        0         
_________________________________________________________________
conv2d_3 (Conv2D)            (None, 16, 16, 64)        18496     
_________________________________________________________________
conv2d_4 (Conv2D)            (None, 16, 16, 128)       73856     
_________________________________________________________________
max_pooling2d_2 (MaxPooling2 (None, 8, 8, 128)         0         
_________________________________________________________________
conv2d_5 (Conv2D)            (None, 8, 8, 128)         147584    
_________________________________________________________________
conv2d_6 (Conv2D)            (None, 8, 8, 128)         147584    
_________________________________________________________________
max_pooling2d_3 (MaxPooling2 (None, 4, 4, 128)         0         
_________________________________________________________________
flatten_1 (Flatten)          (None, 2048)              0         
_________________________________________________________________
dense_1 (Dense)              (None, 10)                20490     
=================================================================
Total params: 418,154
Trainable params: 418,154
Non-trainable params: 0
_________________________________________________________________

2018-04-29 23:45:02.306172PM --- Model took seconds to train 368.21404814720154
2018-04-29 23:45:02.448024PM --- Accuracy on test data is: 78.8
2018-04-29 23:45:02.495739PM --- starting process for: (((conv*2)pool)*1)fc*0
2018-04-29 23:45:03.194087PM
_________________________________________________________________
Layer (type)                 Output Shape              Param #   
=================================================================
conv2d_1 (Conv2D)            (None, 32, 32, 32)        896       
_________________________________________________________________
conv2d_2 (Conv2D)            (None, 32, 32, 32)        9248      
_________________________________________________________________
max_pooling2d_1 (MaxPooling2 (None, 16, 16, 32)        0         
_________________________________________________________________
flatten_1 (Flatten)          (None, 8192)              0         
_________________________________________________________________
dense_1 (Dense)              (None, 10)                81930     
=================================================================
Total params: 92,074
Trainable params: 92,074
Non-trainable params: 0
_________________________________________________________________

2018-04-29 23:48:54.972932PM --- Model took seconds to train 231.69441890716553
2018-04-29 23:48:55.115367PM --- Accuracy on test data is: 62.55
2018-04-29 23:48:55.157992PM --- starting process for: (((conv*2)pool)*3)fc*1
2018-04-29 23:48:55.887247PM
_________________________________________________________________
Layer (type)                 Output Shape              Param #   
=================================================================
conv2d_1 (Conv2D)            (None, 32, 32, 32)        896       
_________________________________________________________________
conv2d_2 (Conv2D)            (None, 32, 32, 32)        9248      
_________________________________________________________________
max_pooling2d_1 (MaxPooling2 (None, 16, 16, 32)        0         
_________________________________________________________________
conv2d_3 (Conv2D)            (None, 16, 16, 64)        18496     
_________________________________________________________________
conv2d_4 (Conv2D)            (None, 16, 16, 128)       73856     
_________________________________________________________________
max_pooling2d_2 (MaxPooling2 (None, 8, 8, 128)         0         
_________________________________________________________________
conv2d_5 (Conv2D)            (None, 8, 8, 128)         147584    
_________________________________________________________________
conv2d_6 (Conv2D)            (None, 8, 8, 128)         147584    
_________________________________________________________________
max_pooling2d_3 (MaxPooling2 (None, 4, 4, 128)         0         
_________________________________________________________________
flatten_1 (Flatten)          (None, 2048)              0         
_________________________________________________________________
dense_1 (Dense)              (None, 128)               262272    
_________________________________________________________________
activation_1 (Activation)    (None, 128)               0         
_________________________________________________________________
dense_2 (Dense)              (None, 10)                1290      
=================================================================
Total params: 661,226
Trainable params: 661,226
Non-trainable params: 0
_________________________________________________________________

2018-04-29 23:55:07.114864PM --- Model took seconds to train 371.21195793151855
2018-04-29 23:55:07.312654PM --- Accuracy on test data is: 75.8
2018-04-29 23:55:07.367502PM --- starting process for: (((conv*2)vazio)*2)fc*2
2018-04-29 23:55:08.090581PM
_________________________________________________________________
Layer (type)                 Output Shape              Param #   
=================================================================
conv2d_1 (Conv2D)            (None, 32, 32, 32)        896       
_________________________________________________________________
conv2d_2 (Conv2D)            (None, 32, 32, 32)        9248      
_________________________________________________________________
conv2d_3 (Conv2D)            (None, 32, 32, 64)        18496     
_________________________________________________________________
conv2d_4 (Conv2D)            (None, 32, 32, 128)       73856     
_________________________________________________________________
flatten_1 (Flatten)          (None, 131072)            0         
_________________________________________________________________
dense_1 (Dense)              (None, 128)               16777344  
_________________________________________________________________
activation_1 (Activation)    (None, 128)               0         
_________________________________________________________________
dense_2 (Dense)              (None, 128)               16512     
_________________________________________________________________
activation_2 (Activation)    (None, 128)               0         
_________________________________________________________________
dense_3 (Dense)              (None, 10)                1290      
=================================================================
Total params: 16,897,642
Trainable params: 16,897,642
Non-trainable params: 0
_________________________________________________________________
