
2018-04-23 21:47:13.652230PM --- starting process for: (((conv*1)pool)*2)fc*0
2018-04-23 21:47:14.691365PM
_________________________________________________________________
Layer (type)                 Output Shape              Param #   
=================================================================
conv2d_1 (Conv2D)            (None, 32, 32, 32)        896       
_________________________________________________________________
max_pooling2d_1 (MaxPooling2 (None, 16, 16, 32)        0         
_________________________________________________________________
conv2d_2 (Conv2D)            (None, 16, 16, 32)        9248      
_________________________________________________________________
max_pooling2d_2 (MaxPooling2 (None, 8, 8, 32)          0         
_________________________________________________________________
flatten_1 (Flatten)          (None, 2048)              0         
_________________________________________________________________
dense_1 (Dense)              (None, 10)                20490     
=================================================================
Total params: 30,634
Trainable params: 30,634
Non-trainable params: 0
_________________________________________________________________

2018-04-23 21:49:58.194236PM --- Model took seconds to train 163.48684096336365
2018-04-23 21:49:58.309814PM --- Accuracy on test data is: 68.35
2018-04-23 21:49:58.358624PM --- starting process for: (((conv*2)vazio)*2)fc*2
2018-04-23 21:49:59.110092PM
_________________________________________________________________
Layer (type)                 Output Shape              Param #   
=================================================================
conv2d_1 (Conv2D)            (None, 32, 32, 32)        896       
_________________________________________________________________
conv2d_2 (Conv2D)            (None, 32, 32, 32)        9248      
_________________________________________________________________
conv2d_3 (Conv2D)            (None, 32, 32, 64)        18496     
_________________________________________________________________
conv2d_4 (Conv2D)            (None, 32, 32, 128)       73856     
_________________________________________________________________
flatten_1 (Flatten)          (None, 131072)            0         
_________________________________________________________________
dense_1 (Dense)              (None, 128)               16777344  
_________________________________________________________________
activation_1 (Activation)    (None, 128)               0         
_________________________________________________________________
dense_2 (Dense)              (None, 128)               16512     
_________________________________________________________________
activation_2 (Activation)    (None, 128)               0         
_________________________________________________________________
dense_3 (Dense)              (None, 10)                1290      
=================================================================
Total params: 16,897,642
Trainable params: 16,897,642
Non-trainable params: 0
_________________________________________________________________

2018-04-23 22:01:42.114918PM --- Model took seconds to train 702.9879748821259
2018-04-23 22:01:43.031183PM --- Accuracy on test data is: 64.25
2018-04-23 22:01:43.072306PM --- starting process for: (((conv*2)vazio)*2)fc*2
2018-04-23 22:01:43.915825PM
_________________________________________________________________
Layer (type)                 Output Shape              Param #   
=================================================================
conv2d_1 (Conv2D)            (None, 32, 32, 32)        896       
_________________________________________________________________
conv2d_2 (Conv2D)            (None, 32, 32, 32)        9248      
_________________________________________________________________
conv2d_3 (Conv2D)            (None, 32, 32, 64)        18496     
_________________________________________________________________
conv2d_4 (Conv2D)            (None, 32, 32, 128)       73856     
_________________________________________________________________
flatten_1 (Flatten)          (None, 131072)            0         
_________________________________________________________________
dense_1 (Dense)              (None, 128)               16777344  
_________________________________________________________________
activation_1 (Activation)    (None, 128)               0         
_________________________________________________________________
dense_2 (Dense)              (None, 128)               16512     
_________________________________________________________________
activation_2 (Activation)    (None, 128)               0         
_________________________________________________________________
dense_3 (Dense)              (None, 10)                1290      
=================================================================
Total params: 16,897,642
Trainable params: 16,897,642
Non-trainable params: 0
_________________________________________________________________

2018-04-23 22:13:27.106324PM --- Model took seconds to train 703.1749665737152
2018-04-23 22:13:28.008715PM --- Accuracy on test data is: 64.95
2018-04-23 22:13:28.050148PM --- starting process for: (((conv*2)vazio)*1)fc*0
2018-04-23 22:13:28.767971PM
_________________________________________________________________
Layer (type)                 Output Shape              Param #   
=================================================================
conv2d_1 (Conv2D)            (None, 32, 32, 32)        896       
_________________________________________________________________
conv2d_2 (Conv2D)            (None, 32, 32, 32)        9248      
_________________________________________________________________
flatten_1 (Flatten)          (None, 32768)             0         
_________________________________________________________________
dense_1 (Dense)              (None, 10)                327690    
=================================================================
Total params: 337,834
Trainable params: 337,834
Non-trainable params: 0
_________________________________________________________________

2018-04-23 22:19:19.106302PM --- Model took seconds to train 350.3228557109833
2018-04-23 22:19:19.396027PM --- Accuracy on test data is: 59.3
2018-04-23 22:19:19.443110PM --- starting process for: (((conv*2)pool)*1)fc*2
2018-04-23 22:19:20.171046PM
_________________________________________________________________
Layer (type)                 Output Shape              Param #   
=================================================================
conv2d_1 (Conv2D)            (None, 32, 32, 32)        896       
_________________________________________________________________
conv2d_2 (Conv2D)            (None, 32, 32, 32)        9248      
_________________________________________________________________
max_pooling2d_1 (MaxPooling2 (None, 16, 16, 32)        0         
_________________________________________________________________
flatten_1 (Flatten)          (None, 8192)              0         
_________________________________________________________________
dense_1 (Dense)              (None, 128)               1048704   
_________________________________________________________________
activation_1 (Activation)    (None, 128)               0         
_________________________________________________________________
dense_2 (Dense)              (None, 128)               16512     
_________________________________________________________________
activation_2 (Activation)    (None, 128)               0         
_________________________________________________________________
dense_3 (Dense)              (None, 10)                1290      
=================================================================
Total params: 1,076,650
Trainable params: 1,076,650
Non-trainable params: 0
_________________________________________________________________

2018-04-23 22:23:16.461061PM --- Model took seconds to train 236.2746226787567
2018-04-23 22:23:16.585632PM --- Accuracy on test data is: 66.0
2018-04-23 22:23:16.627286PM --- starting process for: (((conv*2)pool)*2)fc*2
2018-04-23 22:23:17.368307PM
_________________________________________________________________
Layer (type)                 Output Shape              Param #   
=================================================================
conv2d_1 (Conv2D)            (None, 32, 32, 32)        896       
_________________________________________________________________
conv2d_2 (Conv2D)            (None, 32, 32, 32)        9248      
_________________________________________________________________
max_pooling2d_1 (MaxPooling2 (None, 16, 16, 32)        0         
_________________________________________________________________
conv2d_3 (Conv2D)            (None, 16, 16, 64)        18496     
_________________________________________________________________
conv2d_4 (Conv2D)            (None, 16, 16, 128)       73856     
_________________________________________________________________
max_pooling2d_2 (MaxPooling2 (None, 8, 8, 128)         0         
_________________________________________________________________
flatten_1 (Flatten)          (None, 8192)              0         
_________________________________________________________________
dense_1 (Dense)              (None, 128)               1048704   
_________________________________________________________________
activation_1 (Activation)    (None, 128)               0         
_________________________________________________________________
dense_2 (Dense)              (None, 128)               16512     
_________________________________________________________________
activation_2 (Activation)    (None, 128)               0         
_________________________________________________________________
dense_3 (Dense)              (None, 10)                1290      
=================================================================
Total params: 1,169,002
Trainable params: 1,169,002
Non-trainable params: 0
_________________________________________________________________

2018-04-23 22:28:59.287358PM --- Model took seconds to train 341.90367794036865
2018-04-23 22:28:59.438847PM --- Accuracy on test data is: 74.6
2018-04-23 22:28:59.486875PM --- starting process for: (((conv*2)pool)*3)fc*1
2018-04-23 22:29:00.234987PM
_________________________________________________________________
Layer (type)                 Output Shape              Param #   
=================================================================
conv2d_1 (Conv2D)            (None, 32, 32, 32)        896       
_________________________________________________________________
conv2d_2 (Conv2D)            (None, 32, 32, 32)        9248      
_________________________________________________________________
max_pooling2d_1 (MaxPooling2 (None, 16, 16, 32)        0         
_________________________________________________________________
conv2d_3 (Conv2D)            (None, 16, 16, 64)        18496     
_________________________________________________________________
conv2d_4 (Conv2D)            (None, 16, 16, 128)       73856     
_________________________________________________________________
max_pooling2d_2 (MaxPooling2 (None, 8, 8, 128)         0         
_________________________________________________________________
conv2d_5 (Conv2D)            (None, 8, 8, 128)         147584    
_________________________________________________________________
conv2d_6 (Conv2D)            (None, 8, 8, 128)         147584    
_________________________________________________________________
max_pooling2d_3 (MaxPooling2 (None, 4, 4, 128)         0         
_________________________________________________________________
flatten_1 (Flatten)          (None, 2048)              0         
_________________________________________________________________
dense_1 (Dense)              (None, 128)               262272    
_________________________________________________________________
activation_1 (Activation)    (None, 128)               0         
_________________________________________________________________
dense_2 (Dense)              (None, 10)                1290      
=================================================================
Total params: 661,226
Trainable params: 661,226
Non-trainable params: 0
_________________________________________________________________

2018-04-23 22:35:25.246347PM --- Model took seconds to train 384.99477100372314
2018-04-23 22:35:25.403755PM --- Accuracy on test data is: 77.9
2018-04-23 22:35:25.449032PM --- starting process for: (((conv*2)pool)*2)fc*1
2018-04-23 22:35:26.184869PM
_________________________________________________________________
Layer (type)                 Output Shape              Param #   
=================================================================
conv2d_1 (Conv2D)            (None, 32, 32, 32)        896       
_________________________________________________________________
conv2d_2 (Conv2D)            (None, 32, 32, 32)        9248      
_________________________________________________________________
max_pooling2d_1 (MaxPooling2 (None, 16, 16, 32)        0         
_________________________________________________________________
conv2d_3 (Conv2D)            (None, 16, 16, 64)        18496     
_________________________________________________________________
conv2d_4 (Conv2D)            (None, 16, 16, 128)       73856     
_________________________________________________________________
max_pooling2d_2 (MaxPooling2 (None, 8, 8, 128)         0         
_________________________________________________________________
flatten_1 (Flatten)          (None, 8192)              0         
_________________________________________________________________
dense_1 (Dense)              (None, 128)               1048704   
_________________________________________________________________
activation_1 (Activation)    (None, 128)               0         
_________________________________________________________________
dense_2 (Dense)              (None, 10)                1290      
=================================================================
Total params: 1,152,490
Trainable params: 1,152,490
Non-trainable params: 0
_________________________________________________________________

2018-04-23 22:41:03.023486PM --- Model took seconds to train 336.8225815296173
2018-04-23 22:41:03.191573PM --- Accuracy on test data is: 73.5
2018-04-23 22:41:03.237062PM --- starting process for: (((conv*1)pool)*2)fc*0
2018-04-23 22:41:04.019926PM
_________________________________________________________________
Layer (type)                 Output Shape              Param #   
=================================================================
conv2d_1 (Conv2D)            (None, 32, 32, 32)        896       
_________________________________________________________________
max_pooling2d_1 (MaxPooling2 (None, 16, 16, 32)        0         
_________________________________________________________________
conv2d_2 (Conv2D)            (None, 16, 16, 32)        9248      
_________________________________________________________________
max_pooling2d_2 (MaxPooling2 (None, 8, 8, 32)          0         
_________________________________________________________________
flatten_1 (Flatten)          (None, 2048)              0         
_________________________________________________________________
dense_1 (Dense)              (None, 10)                20490     
=================================================================
Total params: 30,634
Trainable params: 30,634
Non-trainable params: 0
_________________________________________________________________

2018-04-23 22:43:50.591837PM --- Model took seconds to train 166.55657291412354
2018-04-23 22:43:50.692061PM --- Accuracy on test data is: 69.8
2018-04-23 22:43:50.740121PM --- starting process for: (((conv*2)vazio)*3)fc*2
2018-04-23 22:43:51.488672PM
_________________________________________________________________
Layer (type)                 Output Shape              Param #   
=================================================================
conv2d_1 (Conv2D)            (None, 32, 32, 32)        896       
_________________________________________________________________
conv2d_2 (Conv2D)            (None, 32, 32, 32)        9248      
_________________________________________________________________
conv2d_3 (Conv2D)            (None, 32, 32, 64)        18496     
_________________________________________________________________
conv2d_4 (Conv2D)            (None, 32, 32, 128)       73856     
_________________________________________________________________
conv2d_5 (Conv2D)            (None, 32, 32, 128)       147584    
_________________________________________________________________
conv2d_6 (Conv2D)            (None, 32, 32, 128)       147584    
_________________________________________________________________
flatten_1 (Flatten)          (None, 131072)            0         
_________________________________________________________________
dense_1 (Dense)              (None, 128)               16777344  
_________________________________________________________________
activation_1 (Activation)    (None, 128)               0         
_________________________________________________________________
dense_2 (Dense)              (None, 128)               16512     
_________________________________________________________________
activation_2 (Activation)    (None, 128)               0         
_________________________________________________________________
dense_3 (Dense)              (None, 10)                1290      
=================================================================
Total params: 17,192,810
Trainable params: 17,192,810
Non-trainable params: 0
_________________________________________________________________

2018-04-23 23:05:08.009536PM --- Model took seconds to train 1276.5053942203522
2018-04-23 23:05:09.028781PM --- Accuracy on test data is: 61.75000000000001
2018-04-23 23:05:09.070711PM --- starting process for: (((conv*1)pool)*3)fc*0
2018-04-23 23:05:09.864818PM
_________________________________________________________________
Layer (type)                 Output Shape              Param #   
=================================================================
conv2d_1 (Conv2D)            (None, 32, 32, 32)        896       
_________________________________________________________________
max_pooling2d_1 (MaxPooling2 (None, 16, 16, 32)        0         
_________________________________________________________________
conv2d_2 (Conv2D)            (None, 16, 16, 32)        9248      
_________________________________________________________________
max_pooling2d_2 (MaxPooling2 (None, 8, 8, 32)          0         
_________________________________________________________________
conv2d_3 (Conv2D)            (None, 8, 8, 64)          18496     
_________________________________________________________________
max_pooling2d_3 (MaxPooling2 (None, 4, 4, 64)          0         
_________________________________________________________________
flatten_1 (Flatten)          (None, 1024)              0         
_________________________________________________________________
dense_1 (Dense)              (None, 10)                10250     
=================================================================
Total params: 38,890
Trainable params: 38,890
Non-trainable params: 0
_________________________________________________________________

2018-04-23 23:08:18.875834PM --- Model took seconds to train 188.99582600593567
2018-04-23 23:08:18.972849PM --- Accuracy on test data is: 70.75
2018-04-23 23:08:19.021972PM --- starting process for: (((conv*1)vazio)*1)fc*2
2018-04-23 23:08:19.744817PM
_________________________________________________________________
Layer (type)                 Output Shape              Param #   
=================================================================
conv2d_1 (Conv2D)            (None, 32, 32, 32)        896       
_________________________________________________________________
flatten_1 (Flatten)          (None, 32768)             0         
_________________________________________________________________
dense_1 (Dense)              (None, 128)               4194432   
_________________________________________________________________
activation_1 (Activation)    (None, 128)               0         
_________________________________________________________________
dense_2 (Dense)              (None, 128)               16512     
_________________________________________________________________
activation_2 (Activation)    (None, 128)               0         
_________________________________________________________________
dense_3 (Dense)              (None, 10)                1290      
=================================================================
Total params: 4,213,130
Trainable params: 4,213,130
Non-trainable params: 0
_________________________________________________________________

2018-04-23 23:11:30.695061PM --- Model took seconds to train 190.93485164642334
2018-04-23 23:11:30.963322PM --- Accuracy on test data is: 57.3
2018-04-23 23:11:31.014111PM --- starting process for: (((conv*2)pool)*3)fc*1
2018-04-23 23:11:31.756643PM
_________________________________________________________________
Layer (type)                 Output Shape              Param #   
=================================================================
conv2d_1 (Conv2D)            (None, 32, 32, 32)        896       
_________________________________________________________________
conv2d_2 (Conv2D)            (None, 32, 32, 32)        9248      
_________________________________________________________________
max_pooling2d_1 (MaxPooling2 (None, 16, 16, 32)        0         
_________________________________________________________________
conv2d_3 (Conv2D)            (None, 16, 16, 64)        18496     
_________________________________________________________________
conv2d_4 (Conv2D)            (None, 16, 16, 128)       73856     
_________________________________________________________________
max_pooling2d_2 (MaxPooling2 (None, 8, 8, 128)         0         
_________________________________________________________________
conv2d_5 (Conv2D)            (None, 8, 8, 128)         147584    
_________________________________________________________________
conv2d_6 (Conv2D)            (None, 8, 8, 128)         147584    
_________________________________________________________________
max_pooling2d_3 (MaxPooling2 (None, 4, 4, 128)         0         
_________________________________________________________________
flatten_1 (Flatten)          (None, 2048)              0         
_________________________________________________________________
dense_1 (Dense)              (None, 128)               262272    
_________________________________________________________________
activation_1 (Activation)    (None, 128)               0         
_________________________________________________________________
dense_2 (Dense)              (None, 10)                1290      
=================================================================
Total params: 661,226
Trainable params: 661,226
Non-trainable params: 0
_________________________________________________________________

2018-04-23 23:17:59.110342PM --- Model took seconds to train 387.33773970603943
2018-04-23 23:17:59.264151PM --- Accuracy on test data is: 76.85
2018-04-23 23:17:59.314960PM --- starting process for: (((conv*1)vazio)*2)fc*0
2018-04-23 23:18:00.037769PM
_________________________________________________________________
Layer (type)                 Output Shape              Param #   
=================================================================
conv2d_1 (Conv2D)            (None, 32, 32, 32)        896       
_________________________________________________________________
conv2d_2 (Conv2D)            (None, 32, 32, 32)        9248      
_________________________________________________________________
flatten_1 (Flatten)          (None, 32768)             0         
_________________________________________________________________
dense_1 (Dense)              (None, 10)                327690    
=================================================================
Total params: 337,834
Trainable params: 337,834
Non-trainable params: 0
_________________________________________________________________

2018-04-23 23:23:50.521292PM --- Model took seconds to train 350.46814489364624
2018-04-23 23:23:50.784208PM --- Accuracy on test data is: 58.95
2018-04-23 23:23:50.833984PM --- starting process for: (((conv*2)vazio)*1)fc*2
2018-04-23 23:23:51.561431PM
_________________________________________________________________
Layer (type)                 Output Shape              Param #   
=================================================================
conv2d_1 (Conv2D)            (None, 32, 32, 32)        896       
_________________________________________________________________
conv2d_2 (Conv2D)            (None, 32, 32, 32)        9248      
_________________________________________________________________
flatten_1 (Flatten)          (None, 32768)             0         
_________________________________________________________________
dense_1 (Dense)              (None, 128)               4194432   
_________________________________________________________________
activation_1 (Activation)    (None, 128)               0         
_________________________________________________________________
dense_2 (Dense)              (None, 128)               16512     
_________________________________________________________________
activation_2 (Activation)    (None, 128)               0         
_________________________________________________________________
dense_3 (Dense)              (None, 10)                1290      
=================================================================
Total params: 4,222,378
Trainable params: 4,222,378
Non-trainable params: 0
_________________________________________________________________

2018-04-23 23:28:17.489247PM --- Model took seconds to train 265.9116849899292
2018-04-23 23:28:17.782390PM --- Accuracy on test data is: 60.75000000000001
2018-04-23 23:28:17.835315PM --- starting process for: (((conv*1)vazio)*2)fc*1
2018-04-23 23:28:18.549109PM
_________________________________________________________________
Layer (type)                 Output Shape              Param #   
=================================================================
conv2d_1 (Conv2D)            (None, 32, 32, 32)        896       
_________________________________________________________________
conv2d_2 (Conv2D)            (None, 32, 32, 32)        9248      
_________________________________________________________________
flatten_1 (Flatten)          (None, 32768)             0         
_________________________________________________________________
dense_1 (Dense)              (None, 128)               4194432   
_________________________________________________________________
activation_1 (Activation)    (None, 128)               0         
_________________________________________________________________
dense_2 (Dense)              (None, 10)                1290      
=================================================================
Total params: 4,205,866
Trainable params: 4,205,866
Non-trainable params: 0
_________________________________________________________________

2018-04-23 23:32:38.418528PM --- Model took seconds to train 259.8540771007538
2018-04-23 23:32:38.710896PM --- Accuracy on test data is: 61.650000000000006
2018-04-23 23:32:38.762279PM --- starting process for: (((conv*1)vazio)*3)fc*1
2018-04-23 23:32:39.487613PM
_________________________________________________________________
Layer (type)                 Output Shape              Param #   
=================================================================
conv2d_1 (Conv2D)            (None, 32, 32, 32)        896       
_________________________________________________________________
conv2d_2 (Conv2D)            (None, 32, 32, 32)        9248      
_________________________________________________________________
conv2d_3 (Conv2D)            (None, 32, 32, 64)        18496     
_________________________________________________________________
flatten_1 (Flatten)          (None, 65536)             0         
_________________________________________________________________
dense_1 (Dense)              (None, 128)               8388736   
_________________________________________________________________
activation_1 (Activation)    (None, 128)               0         
_________________________________________________________________
dense_2 (Dense)              (None, 10)                1290      
=================================================================
Total params: 8,418,666
Trainable params: 8,418,666
Non-trainable params: 0
_________________________________________________________________

2018-04-23 23:39:37.293319PM --- Model took seconds to train 417.78982853889465
2018-04-23 23:39:37.778244PM --- Accuracy on test data is: 63.9
2018-04-23 23:39:37.820507PM --- starting process for: (((conv*2)pool)*1)fc*1
2018-04-23 23:39:38.543808PM
_________________________________________________________________
Layer (type)                 Output Shape              Param #   
=================================================================
conv2d_1 (Conv2D)            (None, 32, 32, 32)        896       
_________________________________________________________________
conv2d_2 (Conv2D)            (None, 32, 32, 32)        9248      
_________________________________________________________________
max_pooling2d_1 (MaxPooling2 (None, 16, 16, 32)        0         
_________________________________________________________________
flatten_1 (Flatten)          (None, 8192)              0         
_________________________________________________________________
dense_1 (Dense)              (None, 128)               1048704   
_________________________________________________________________
activation_1 (Activation)    (None, 128)               0         
_________________________________________________________________
dense_2 (Dense)              (None, 10)                1290      
=================================================================
Total params: 1,060,138
Trainable params: 1,060,138
Non-trainable params: 0
_________________________________________________________________

2018-04-23 23:43:28.540158PM --- Model took seconds to train 229.9070656299591
2018-04-23 23:43:28.705646PM --- Accuracy on test data is: 63.9
2018-04-23 23:43:28.758477PM --- starting process for: (((conv*1)vazio)*3)fc*2
2018-04-23 23:43:29.494479PM
_________________________________________________________________
Layer (type)                 Output Shape              Param #   
=================================================================
conv2d_1 (Conv2D)            (None, 32, 32, 32)        896       
_________________________________________________________________
conv2d_2 (Conv2D)            (None, 32, 32, 32)        9248      
_________________________________________________________________
conv2d_3 (Conv2D)            (None, 32, 32, 64)        18496     
_________________________________________________________________
flatten_1 (Flatten)          (None, 65536)             0         
_________________________________________________________________
dense_1 (Dense)              (None, 128)               8388736   
_________________________________________________________________
activation_1 (Activation)    (None, 128)               0         
_________________________________________________________________
dense_2 (Dense)              (None, 128)               16512     
_________________________________________________________________
activation_2 (Activation)    (None, 128)               0         
_________________________________________________________________
dense_3 (Dense)              (None, 10)                1290      
=================================================================
Total params: 8,435,178
Trainable params: 8,435,178
Non-trainable params: 0
_________________________________________________________________

2018-04-23 23:50:27.197533PM --- Model took seconds to train 417.68705701828003
2018-04-23 23:50:27.688507PM --- Accuracy on test data is: 63.24999999999999
2018-04-23 23:50:27.730584PM --- starting process for: (((conv*2)pool)*2)fc*0
2018-04-23 23:50:28.458660PM
_________________________________________________________________
Layer (type)                 Output Shape              Param #   
=================================================================
conv2d_1 (Conv2D)            (None, 32, 32, 32)        896       
_________________________________________________________________
conv2d_2 (Conv2D)            (None, 32, 32, 32)        9248      
_________________________________________________________________
max_pooling2d_1 (MaxPooling2 (None, 16, 16, 32)        0         
_________________________________________________________________
conv2d_3 (Conv2D)            (None, 16, 16, 64)        18496     
_________________________________________________________________
conv2d_4 (Conv2D)            (None, 16, 16, 128)       73856     
_________________________________________________________________
max_pooling2d_2 (MaxPooling2 (None, 8, 8, 128)         0         
_________________________________________________________________
flatten_1 (Flatten)          (None, 8192)              0         
_________________________________________________________________
dense_1 (Dense)              (None, 10)                81930     
=================================================================
Total params: 184,426
Trainable params: 184,426
Non-trainable params: 0
_________________________________________________________________

2018-04-23 23:56:16.711992PM --- Model took seconds to train 348.2378342151642
2018-04-23 23:56:16.887303PM --- Accuracy on test data is: 72.85000000000001
2018-04-23 23:56:16.937613PM --- starting process for: (((conv*2)vazio)*3)fc*1
2018-04-23 23:56:17.682402PM
_________________________________________________________________
Layer (type)                 Output Shape              Param #   
=================================================================
conv2d_1 (Conv2D)            (None, 32, 32, 32)        896       
_________________________________________________________________
conv2d_2 (Conv2D)            (None, 32, 32, 32)        9248      
_________________________________________________________________
conv2d_3 (Conv2D)            (None, 32, 32, 64)        18496     
_________________________________________________________________
conv2d_4 (Conv2D)            (None, 32, 32, 128)       73856     
_________________________________________________________________
conv2d_5 (Conv2D)            (None, 32, 32, 128)       147584    
_________________________________________________________________
conv2d_6 (Conv2D)            (None, 32, 32, 128)       147584    
_________________________________________________________________
flatten_1 (Flatten)          (None, 131072)            0         
_________________________________________________________________
dense_1 (Dense)              (None, 128)               16777344  
_________________________________________________________________
activation_1 (Activation)    (None, 128)               0         
_________________________________________________________________
dense_2 (Dense)              (None, 10)                1290      
=================================================================
Total params: 17,176,298
Trainable params: 17,176,298
Non-trainable params: 0
_________________________________________________________________
