
2018-04-25 00:01:45.273401AM --- Model took seconds to train 361.8602077960968
2018-04-25 00:01:45.576203AM --- Accuracy on test data is: 59.9
2018-04-25 00:01:45.624616AM --- starting process for: (((conv*1)pool)*3)fc*2
2018-04-25 00:01:46.334671AM
_________________________________________________________________
Layer (type)                 Output Shape              Param #   
=================================================================
conv2d_1 (Conv2D)            (None, 32, 32, 32)        896       
_________________________________________________________________
max_pooling2d_1 (MaxPooling2 (None, 16, 16, 32)        0         
_________________________________________________________________
conv2d_2 (Conv2D)            (None, 16, 16, 32)        9248      
_________________________________________________________________
max_pooling2d_2 (MaxPooling2 (None, 8, 8, 32)          0         
_________________________________________________________________
conv2d_3 (Conv2D)            (None, 8, 8, 64)          18496     
_________________________________________________________________
max_pooling2d_3 (MaxPooling2 (None, 4, 4, 64)          0         
_________________________________________________________________
flatten_1 (Flatten)          (None, 1024)              0         
_________________________________________________________________
dense_1 (Dense)              (None, 128)               131200    
_________________________________________________________________
activation_1 (Activation)    (None, 128)               0         
_________________________________________________________________
dense_2 (Dense)              (None, 128)               16512     
_________________________________________________________________
activation_2 (Activation)    (None, 128)               0         
_________________________________________________________________
dense_3 (Dense)              (None, 10)                1290      
=================================================================
Total params: 177,642
Trainable params: 177,642
Non-trainable params: 0
_________________________________________________________________

2018-04-25 00:04:58.222605AM --- Model took seconds to train 191.87307476997375
2018-04-25 00:04:58.329788AM --- Accuracy on test data is: 72.1
2018-04-25 00:04:58.370768AM --- starting process for: (((conv*1)vazio)*2)fc*1
2018-04-25 00:04:59.065641AM
_________________________________________________________________
Layer (type)                 Output Shape              Param #   
=================================================================
conv2d_1 (Conv2D)            (None, 32, 32, 32)        896       
_________________________________________________________________
conv2d_2 (Conv2D)            (None, 32, 32, 32)        9248      
_________________________________________________________________
flatten_1 (Flatten)          (None, 32768)             0         
_________________________________________________________________
dense_1 (Dense)              (None, 128)               4194432   
_________________________________________________________________
activation_1 (Activation)    (None, 128)               0         
_________________________________________________________________
dense_2 (Dense)              (None, 10)                1290      
=================================================================
Total params: 4,205,866
Trainable params: 4,205,866
Non-trainable params: 0
_________________________________________________________________

2018-04-25 00:09:28.072347AM --- Model took seconds to train 268.9916591644287
2018-04-25 00:09:28.350345AM --- Accuracy on test data is: 61.050000000000004
2018-04-25 00:09:28.383183AM --- starting process for: (((conv*1)vazio)*1)fc*1
2018-04-25 00:09:29.064265AM
_________________________________________________________________
Layer (type)                 Output Shape              Param #   
=================================================================
conv2d_1 (Conv2D)            (None, 32, 32, 32)        896       
_________________________________________________________________
flatten_1 (Flatten)          (None, 32768)             0         
_________________________________________________________________
dense_1 (Dense)              (None, 128)               4194432   
_________________________________________________________________
activation_1 (Activation)    (None, 128)               0         
_________________________________________________________________
dense_2 (Dense)              (None, 10)                1290      
=================================================================
Total params: 4,196,618
Trainable params: 4,196,618
Non-trainable params: 0
_________________________________________________________________

2018-04-25 00:12:35.155282AM --- Model took seconds to train 186.07602095603943
2018-04-25 00:12:35.415611AM --- Accuracy on test data is: 57.49999999999999
2018-04-25 00:12:35.456231AM --- starting process for: (((conv*1)pool)*1)fc*2
2018-04-25 00:12:36.155895AM
_________________________________________________________________
Layer (type)                 Output Shape              Param #   
=================================================================
conv2d_1 (Conv2D)            (None, 32, 32, 32)        896       
_________________________________________________________________
max_pooling2d_1 (MaxPooling2 (None, 16, 16, 32)        0         
_________________________________________________________________
flatten_1 (Flatten)          (None, 8192)              0         
_________________________________________________________________
dense_1 (Dense)              (None, 128)               1048704   
_________________________________________________________________
activation_1 (Activation)    (None, 128)               0         
_________________________________________________________________
dense_2 (Dense)              (None, 128)               16512     
_________________________________________________________________
activation_2 (Activation)    (None, 128)               0         
_________________________________________________________________
dense_3 (Dense)              (None, 10)                1290      
=================================================================
Total params: 1,067,402
Trainable params: 1,067,402
Non-trainable params: 0
_________________________________________________________________

2018-04-25 00:15:13.828440AM --- Model took seconds to train 157.657728433609
2018-04-25 00:15:13.964966AM --- Accuracy on test data is: 63.3
2018-04-25 00:15:14.006371AM --- starting process for: (((conv*1)pool)*1)fc*2
2018-04-25 00:15:14.703290AM
_________________________________________________________________
Layer (type)                 Output Shape              Param #   
=================================================================
conv2d_1 (Conv2D)            (None, 32, 32, 32)        896       
_________________________________________________________________
max_pooling2d_1 (MaxPooling2 (None, 16, 16, 32)        0         
_________________________________________________________________
flatten_1 (Flatten)          (None, 8192)              0         
_________________________________________________________________
dense_1 (Dense)              (None, 128)               1048704   
_________________________________________________________________
activation_1 (Activation)    (None, 128)               0         
_________________________________________________________________
dense_2 (Dense)              (None, 128)               16512     
_________________________________________________________________
activation_2 (Activation)    (None, 128)               0         
_________________________________________________________________
dense_3 (Dense)              (None, 10)                1290      
=================================================================
Total params: 1,067,402
Trainable params: 1,067,402
Non-trainable params: 0
_________________________________________________________________

2018-04-25 00:17:56.389106AM --- Model took seconds to train 161.6708676815033
2018-04-25 00:17:56.520224AM --- Accuracy on test data is: 62.8
2018-04-25 00:17:56.559890AM --- starting process for: (((conv*2)pool)*2)fc*1
2018-04-25 00:17:57.264591AM
_________________________________________________________________
Layer (type)                 Output Shape              Param #   
=================================================================
conv2d_1 (Conv2D)            (None, 32, 32, 32)        896       
_________________________________________________________________
conv2d_2 (Conv2D)            (None, 32, 32, 32)        9248      
_________________________________________________________________
max_pooling2d_1 (MaxPooling2 (None, 16, 16, 32)        0         
_________________________________________________________________
conv2d_3 (Conv2D)            (None, 16, 16, 64)        18496     
_________________________________________________________________
conv2d_4 (Conv2D)            (None, 16, 16, 128)       73856     
_________________________________________________________________
max_pooling2d_2 (MaxPooling2 (None, 8, 8, 128)         0         
_________________________________________________________________
flatten_1 (Flatten)          (None, 8192)              0         
_________________________________________________________________
dense_1 (Dense)              (None, 128)               1048704   
_________________________________________________________________
activation_1 (Activation)    (None, 128)               0         
_________________________________________________________________
dense_2 (Dense)              (None, 10)                1290      
=================================================================
Total params: 1,152,490
Trainable params: 1,152,490
Non-trainable params: 0
_________________________________________________________________

2018-04-25 00:23:43.053085AM --- Model took seconds to train 345.77299404144287
2018-04-25 00:23:43.237732AM --- Accuracy on test data is: 73.4
2018-04-25 00:23:43.279269AM --- starting process for: (((conv*2)pool)*3)fc*2
2018-04-25 00:23:44.008214AM
_________________________________________________________________
Layer (type)                 Output Shape              Param #   
=================================================================
conv2d_1 (Conv2D)            (None, 32, 32, 32)        896       
_________________________________________________________________
conv2d_2 (Conv2D)            (None, 32, 32, 32)        9248      
_________________________________________________________________
max_pooling2d_1 (MaxPooling2 (None, 16, 16, 32)        0         
_________________________________________________________________
conv2d_3 (Conv2D)            (None, 16, 16, 64)        18496     
_________________________________________________________________
conv2d_4 (Conv2D)            (None, 16, 16, 128)       73856     
_________________________________________________________________
max_pooling2d_2 (MaxPooling2 (None, 8, 8, 128)         0         
_________________________________________________________________
conv2d_5 (Conv2D)            (None, 8, 8, 128)         147584    
_________________________________________________________________
conv2d_6 (Conv2D)            (None, 8, 8, 128)         147584    
_________________________________________________________________
max_pooling2d_3 (MaxPooling2 (None, 4, 4, 128)         0         
_________________________________________________________________
flatten_1 (Flatten)          (None, 2048)              0         
_________________________________________________________________
dense_1 (Dense)              (None, 128)               262272    
_________________________________________________________________
activation_1 (Activation)    (None, 128)               0         
_________________________________________________________________
dense_2 (Dense)              (None, 128)               16512     
_________________________________________________________________
activation_2 (Activation)    (None, 128)               0         
_________________________________________________________________
dense_3 (Dense)              (None, 10)                1290      
=================================================================
Total params: 677,738
Trainable params: 677,738
Non-trainable params: 0
_________________________________________________________________

2018-04-25 00:30:21.136741AM --- Model took seconds to train 397.11280608177185
2018-04-25 00:30:21.298472AM --- Accuracy on test data is: 77.14999999999999
2018-04-25 00:30:21.341336AM --- 0 - Individual: (((conv*2)pool)*3)fc*0; 78.5
…
2018-04-25 00:30:21.343583AM --- 47 - Individual: (((conv*1)vazio)*1)fc*2; 58.3
2018-04-25 00:30:21.343628AM --- 48 - Individual: (((conv*1)vazio)*1)fc*1; 57.49999999999999
2018-04-25 00:30:21.343674AM --- 49 - Individual: (((conv*1)vazio)*1)fc*0; 56.65
2018-04-25 00:30:21.343713AM --- Generation: 4
2018-04-25 00:30:21.346184AM --- starting process for: (((conv*1)pool)*1)fc*0
2018-04-25 00:30:22.039046AM
_________________________________________________________________
Layer (type)                 Output Shape              Param #   
=================================================================
conv2d_1 (Conv2D)            (None, 32, 32, 32)        896       
_________________________________________________________________
max_pooling2d_1 (MaxPooling2 (None, 16, 16, 32)        0         
_________________________________________________________________
flatten_1 (Flatten)          (None, 8192)              0         
_________________________________________________________________
dense_1 (Dense)              (None, 10)                81930     
=================================================================
Total params: 82,826
Trainable params: 82,826
Non-trainable params: 0
_________________________________________________________________

2018-04-25 00:33:07.966337AM --- Model took seconds to train 165.91296410560608
2018-04-25 00:33:08.096707AM --- Accuracy on test data is: 62.64999999999999
2018-04-25 00:33:08.139227AM --- starting process for: (((conv*1)vazio)*2)fc*2
2018-04-25 00:33:08.842368AM
_________________________________________________________________
Layer (type)                 Output Shape              Param #   
=================================================================
conv2d_1 (Conv2D)            (None, 32, 32, 32)        896       
_________________________________________________________________
conv2d_2 (Conv2D)            (None, 32, 32, 32)        9248      
_________________________________________________________________
flatten_1 (Flatten)          (None, 32768)             0         
_________________________________________________________________
dense_1 (Dense)              (None, 128)               4194432   
_________________________________________________________________
activation_1 (Activation)    (None, 128)               0         
_________________________________________________________________
dense_2 (Dense)              (None, 128)               16512     
_________________________________________________________________
activation_2 (Activation)    (None, 128)               0         
_________________________________________________________________
dense_3 (Dense)              (None, 10)                1290      
=================================================================
Total params: 4,222,378
Trainable params: 4,222,378
Non-trainable params: 0
_________________________________________________________________

2018-04-25 00:37:39.223366AM --- Model took seconds to train 270.3658719062805
2018-04-25 00:37:39.501250AM --- Accuracy on test data is: 60.75000000000001
2018-04-25 00:37:39.536165AM --- starting process for: (((conv*2)vazio)*1)fc*0
2018-04-25 00:37:40.231036AM
_________________________________________________________________
Layer (type)                 Output Shape              Param #   
=================================================================
conv2d_1 (Conv2D)            (None, 32, 32, 32)        896       
_________________________________________________________________
conv2d_2 (Conv2D)            (None, 32, 32, 32)        9248      
_________________________________________________________________
flatten_1 (Flatten)          (None, 32768)             0         
_________________________________________________________________
dense_1 (Dense)              (None, 10)                327690    
=================================================================
Total params: 337,834
Trainable params: 337,834
Non-trainable params: 0
_________________________________________________________________

2018-04-25 00:43:48.252813AM --- Model took seconds to train 368.00656843185425
2018-04-25 00:43:48.505919AM --- Accuracy on test data is: 56.85
2018-04-25 00:43:48.542140AM --- starting process for: (((conv*1)pool)*3)fc*2
2018-04-25 00:43:49.251321AM
_________________________________________________________________
Layer (type)                 Output Shape              Param #   
=================================================================
conv2d_1 (Conv2D)            (None, 32, 32, 32)        896       
_________________________________________________________________
max_pooling2d_1 (MaxPooling2 (None, 16, 16, 32)        0         
_________________________________________________________________
conv2d_2 (Conv2D)            (None, 16, 16, 32)        9248      
_________________________________________________________________
max_pooling2d_2 (MaxPooling2 (None, 8, 8, 32)          0         
_________________________________________________________________
conv2d_3 (Conv2D)            (None, 8, 8, 64)          18496     
_________________________________________________________________
max_pooling2d_3 (MaxPooling2 (None, 4, 4, 64)          0         
_________________________________________________________________
flatten_1 (Flatten)          (None, 1024)              0         
_________________________________________________________________
dense_1 (Dense)              (None, 128)               131200    
_________________________________________________________________
activation_1 (Activation)    (None, 128)               0         
_________________________________________________________________
dense_2 (Dense)              (None, 128)               16512     
_________________________________________________________________
activation_2 (Activation)    (None, 128)               0         
_________________________________________________________________
dense_3 (Dense)              (None, 10)                1290      
=================================================================
Total params: 177,642
Trainable params: 177,642
Non-trainable params: 0
_________________________________________________________________

2018-04-25 00:47:03.076892AM --- Model took seconds to train 193.81021523475647
2018-04-25 00:47:03.186995AM --- Accuracy on test data is: 71.2
2018-04-25 00:47:03.229911AM --- starting process for: (((conv*2)vazio)*2)fc*2
2018-04-25 00:47:03.945548AM
_________________________________________________________________
Layer (type)                 Output Shape              Param #   
=================================================================
conv2d_1 (Conv2D)            (None, 32, 32, 32)        896       
_________________________________________________________________
conv2d_2 (Conv2D)            (None, 32, 32, 32)        9248      
_________________________________________________________________
conv2d_3 (Conv2D)            (None, 32, 32, 64)        18496     
_________________________________________________________________
conv2d_4 (Conv2D)            (None, 32, 32, 128)       73856     
_________________________________________________________________
flatten_1 (Flatten)          (None, 131072)            0         
_________________________________________________________________
dense_1 (Dense)              (None, 128)               16777344  
_________________________________________________________________
activation_1 (Activation)    (None, 128)               0         
_________________________________________________________________
dense_2 (Dense)              (None, 128)               16512     
_________________________________________________________________
activation_2 (Activation)    (None, 128)               0         
_________________________________________________________________
dense_3 (Dense)              (None, 10)                1290      
=================================================================
Total params: 16,897,642
Trainable params: 16,897,642
Non-trainable params: 0
_________________________________________________________________

2018-04-25 00:58:43.350130AM --- Model took seconds to train 699.3895316123962
2018-04-25 00:58:44.235792AM --- Accuracy on test data is: 63.74999999999999
2018-04-25 00:58:44.271993AM --- starting process for: (((conv*2)pool)*2)fc*0
2018-04-25 00:58:44.975782AM
_________________________________________________________________
Layer (type)                 Output Shape              Param #   
=================================================================
conv2d_1 (Conv2D)            (None, 32, 32, 32)        896       
_________________________________________________________________
conv2d_2 (Conv2D)            (None, 32, 32, 32)        9248      
_________________________________________________________________
max_pooling2d_1 (MaxPooling2 (None, 16, 16, 32)        0         
_________________________________________________________________
conv2d_3 (Conv2D)            (None, 16, 16, 64)        18496     
_________________________________________________________________
conv2d_4 (Conv2D)            (None, 16, 16, 128)       73856     
_________________________________________________________________
max_pooling2d_2 (MaxPooling2 (None, 8, 8, 128)         0         
_________________________________________________________________
flatten_1 (Flatten)          (None, 8192)              0         
_________________________________________________________________
dense_1 (Dense)              (None, 10)                81930     
=================================================================
Total params: 184,426
Trainable params: 184,426
Non-trainable params: 0
_________________________________________________________________

2018-04-25 01:04:38.860663AM --- Model took seconds to train 353.869802236557
2018-04-25 01:04:39.032990AM --- Accuracy on test data is: 73.9
2018-04-25 01:04:39.073125AM --- starting process for: (((conv*2)vazio)*2)fc*2
2018-04-25 01:04:39.789516AM
_________________________________________________________________
Layer (type)                 Output Shape              Param #   
=================================================================
conv2d_1 (Conv2D)            (None, 32, 32, 32)        896       
_________________________________________________________________
conv2d_2 (Conv2D)            (None, 32, 32, 32)        9248      
_________________________________________________________________
conv2d_3 (Conv2D)            (None, 32, 32, 64)        18496     
_________________________________________________________________
conv2d_4 (Conv2D)            (None, 32, 32, 128)       73856     
_________________________________________________________________
flatten_1 (Flatten)          (None, 131072)            0         
_________________________________________________________________
dense_1 (Dense)              (None, 128)               16777344  
_________________________________________________________________
activation_1 (Activation)    (None, 128)               0         
_________________________________________________________________
dense_2 (Dense)              (None, 128)               16512     
_________________________________________________________________
activation_2 (Activation)    (None, 128)               0         
_________________________________________________________________
dense_3 (Dense)              (None, 10)                1290      
=================================================================
Total params: 16,897,642
Trainable params: 16,897,642
Non-trainable params: 0
_________________________________________________________________

2018-04-25 01:16:20.415461AM --- Model took seconds to train 700.6109206676483
2018-04-25 01:16:21.309652AM --- Accuracy on test data is: 66.2
2018-04-25 01:16:21.345466AM --- starting process for: (((conv*2)vazio)*2)fc*2
2018-04-25 01:16:22.064473AM
_________________________________________________________________
Layer (type)                 Output Shape              Param #   
=================================================================
conv2d_1 (Conv2D)            (None, 32, 32, 32)        896       
_________________________________________________________________
conv2d_2 (Conv2D)            (None, 32, 32, 32)        9248      
_________________________________________________________________
conv2d_3 (Conv2D)            (None, 32, 32, 64)        18496     
_________________________________________________________________
conv2d_4 (Conv2D)            (None, 32, 32, 128)       73856     
_________________________________________________________________
flatten_1 (Flatten)          (None, 131072)            0         
_________________________________________________________________
dense_1 (Dense)              (None, 128)               16777344  
_________________________________________________________________
activation_1 (Activation)    (None, 128)               0         
_________________________________________________________________
dense_2 (Dense)              (None, 128)               16512     
_________________________________________________________________
activation_2 (Activation)    (None, 128)               0         
_________________________________________________________________
dense_3 (Dense)              (None, 10)                1290      
=================================================================
Total params: 16,897,642
Trainable params: 16,897,642
Non-trainable params: 0
_________________________________________________________________

2018-04-25 01:28:03.384822AM --- Model took seconds to train 701.3048462867737
2018-04-25 01:28:04.276575AM --- Accuracy on test data is: 66.3
2018-04-25 01:28:04.310929AM --- starting process for: (((conv*1)vazio)*3)fc*2
2018-04-25 01:28:05.024390AM
_________________________________________________________________
Layer (type)                 Output Shape              Param #   
=================================================================
conv2d_1 (Conv2D)            (None, 32, 32, 32)        896       
_________________________________________________________________
conv2d_2 (Conv2D)            (None, 32, 32, 32)        9248      
_________________________________________________________________
conv2d_3 (Conv2D)            (None, 32, 32, 64)        18496     
_________________________________________________________________
flatten_1 (Flatten)          (None, 65536)             0         
_________________________________________________________________
dense_1 (Dense)              (None, 128)               8388736   
_________________________________________________________________
activation_1 (Activation)    (None, 128)               0         
_________________________________________________________________
dense_2 (Dense)              (None, 128)               16512     
_________________________________________________________________
activation_2 (Activation)    (None, 128)               0         
_________________________________________________________________
dense_3 (Dense)              (None, 10)                1290      
=================================================================
Total params: 8,435,178
Trainable params: 8,435,178
Non-trainable params: 0
_________________________________________________________________

2018-04-25 01:35:07.856942AM --- Model took seconds to train 422.81786155700684
2018-04-25 01:35:08.322642AM --- Accuracy on test data is: 66.2
2018-04-25 01:35:08.359939AM --- starting process for: (((conv*1)pool)*2)fc*2
2018-04-25 01:35:09.067817AM
_________________________________________________________________
Layer (type)                 Output Shape              Param #   
=================================================================
conv2d_1 (Conv2D)            (None, 32, 32, 32)        896       
_________________________________________________________________
max_pooling2d_1 (MaxPooling2 (None, 16, 16, 32)        0         
_________________________________________________________________
conv2d_2 (Conv2D)            (None, 16, 16, 32)        9248      
_________________________________________________________________
max_pooling2d_2 (MaxPooling2 (None, 8, 8, 32)          0         
_________________________________________________________________
flatten_1 (Flatten)          (None, 2048)              0         
_________________________________________________________________
dense_1 (Dense)              (None, 128)               262272    
_________________________________________________________________
activation_1 (Activation)    (None, 128)               0         
_________________________________________________________________
dense_2 (Dense)              (None, 128)               16512     
_________________________________________________________________
activation_2 (Activation)    (None, 128)               0         
_________________________________________________________________
dense_3 (Dense)              (None, 10)                1290      
=================================================================
Total params: 290,218
Trainable params: 290,218
Non-trainable params: 0
_________________________________________________________________

2018-04-25 01:38:02.980353AM --- Model took seconds to train 173.89698386192322
2018-04-25 01:38:03.088853AM --- Accuracy on test data is: 68.89999999999999
2018-04-25 01:38:03.133497AM --- starting process for: (((conv*2)pool)*3)fc*0
2018-04-25 01:38:03.846945AM
_________________________________________________________________
Layer (type)                 Output Shape              Param #   
=================================================================
conv2d_1 (Conv2D)            (None, 32, 32, 32)        896       
_________________________________________________________________
conv2d_2 (Conv2D)            (None, 32, 32, 32)        9248      
_________________________________________________________________
max_pooling2d_1 (MaxPooling2 (None, 16, 16, 32)        0         
_________________________________________________________________
conv2d_3 (Conv2D)            (None, 16, 16, 64)        18496     
_________________________________________________________________
conv2d_4 (Conv2D)            (None, 16, 16, 128)       73856     
_________________________________________________________________
max_pooling2d_2 (MaxPooling2 (None, 8, 8, 128)         0         
_________________________________________________________________
conv2d_5 (Conv2D)            (None, 8, 8, 128)         147584    
_________________________________________________________________
conv2d_6 (Conv2D)            (None, 8, 8, 128)         147584    
_________________________________________________________________
max_pooling2d_3 (MaxPooling2 (None, 4, 4, 128)         0         
_________________________________________________________________
flatten_1 (Flatten)          (None, 2048)              0         
_________________________________________________________________
dense_1 (Dense)              (None, 10)                20490     
=================================================================
Total params: 418,154
Trainable params: 418,154
Non-trainable params: 0
_________________________________________________________________

2018-04-25 01:44:32.875464AM --- Model took seconds to train 389.01301884651184
2018-04-25 01:44:33.006291AM --- Accuracy on test data is: 74.8
2018-04-25 01:44:33.042793AM --- starting process for: (((conv*1)pool)*3)fc*2
2018-04-25 01:44:33.755018AM
_________________________________________________________________
Layer (type)                 Output Shape              Param #   
=================================================================
conv2d_1 (Conv2D)            (None, 32, 32, 32)        896       
_________________________________________________________________
max_pooling2d_1 (MaxPooling2 (None, 16, 16, 32)        0         
_________________________________________________________________
conv2d_2 (Conv2D)            (None, 16, 16, 32)        9248      
_________________________________________________________________
max_pooling2d_2 (MaxPooling2 (None, 8, 8, 32)          0         
_________________________________________________________________
conv2d_3 (Conv2D)            (None, 8, 8, 64)          18496     
_________________________________________________________________
max_pooling2d_3 (MaxPooling2 (None, 4, 4, 64)          0         
_________________________________________________________________
flatten_1 (Flatten)          (None, 1024)              0         
_________________________________________________________________
dense_1 (Dense)              (None, 128)               131200    
_________________________________________________________________
activation_1 (Activation)    (None, 128)               0         
_________________________________________________________________
dense_2 (Dense)              (None, 128)               16512     
_________________________________________________________________
activation_2 (Activation)    (None, 128)               0         
_________________________________________________________________
dense_3 (Dense)              (None, 10)                1290      
=================================================================
Total params: 177,642
Trainable params: 177,642
Non-trainable params: 0
_________________________________________________________________

2018-04-25 01:47:43.589415AM --- Model took seconds to train 189.81939888000488
2018-04-25 01:47:43.703104AM --- Accuracy on test data is: 70.65
2018-04-25 01:47:43.747747AM --- starting process for: (((conv*1)pool)*3)fc*2
2018-04-25 01:47:44.461870AM
_________________________________________________________________
Layer (type)                 Output Shape              Param #   
=================================================================
conv2d_1 (Conv2D)            (None, 32, 32, 32)        896       
_________________________________________________________________
max_pooling2d_1 (MaxPooling2 (None, 16, 16, 32)        0         
_________________________________________________________________
conv2d_2 (Conv2D)            (None, 16, 16, 32)        9248      
_________________________________________________________________
max_pooling2d_2 (MaxPooling2 (None, 8, 8, 32)          0         
_________________________________________________________________
conv2d_3 (Conv2D)            (None, 8, 8, 64)          18496     
_________________________________________________________________
max_pooling2d_3 (MaxPooling2 (None, 4, 4, 64)          0         
_________________________________________________________________
flatten_1 (Flatten)          (None, 1024)              0         
_________________________________________________________________
dense_1 (Dense)              (None, 128)               131200    
_________________________________________________________________
activation_1 (Activation)    (None, 128)               0         
_________________________________________________________________
dense_2 (Dense)              (None, 128)               16512     
_________________________________________________________________
activation_2 (Activation)    (None, 128)               0         
_________________________________________________________________
dense_3 (Dense)              (None, 10)                1290      
=================================================================
Total params: 177,642
Trainable params: 177,642
Non-trainable params: 0
_________________________________________________________________

2018-04-25 01:50:55.876648AM --- Model took seconds to train 191.3991641998291
2018-04-25 01:50:55.977047AM --- Accuracy on test data is: 71.15
2018-04-25 01:50:56.017115AM --- starting process for: (((conv*1)vazio)*2)fc*0
2018-04-25 01:50:56.714892AM
_________________________________________________________________
Layer (type)                 Output Shape              Param #   
=================================================================
conv2d_1 (Conv2D)            (None, 32, 32, 32)        896       
_________________________________________________________________
conv2d_2 (Conv2D)            (None, 32, 32, 32)        9248      
_________________________________________________________________
flatten_1 (Flatten)          (None, 32768)             0         
_________________________________________________________________
dense_1 (Dense)              (None, 10)                327690    
=================================================================
Total params: 337,834
Trainable params: 337,834
Non-trainable params: 0
_________________________________________________________________

2018-04-25 01:56:59.468687AM --- Model took seconds to train 362.73905301094055
2018-04-25 01:56:59.745593AM --- Accuracy on test data is: 58.95
2018-04-25 01:56:59.780595AM --- starting process for: (((conv*1)vazio)*2)fc*1
2018-04-25 01:57:00.481584AM
_________________________________________________________________
Layer (type)                 Output Shape              Param #   
=================================================================
conv2d_1 (Conv2D)            (None, 32, 32, 32)        896       
_________________________________________________________________
conv2d_2 (Conv2D)            (None, 32, 32, 32)        9248      
_________________________________________________________________
flatten_1 (Flatten)          (None, 32768)             0         
_________________________________________________________________
dense_1 (Dense)              (None, 128)               4194432   
_________________________________________________________________
activation_1 (Activation)    (None, 128)               0         
_________________________________________________________________
dense_2 (Dense)              (None, 10)                1290      
=================================================================
Total params: 4,205,866
Trainable params: 4,205,866
Non-trainable params: 0
_________________________________________________________________

2018-04-25 02:01:21.428555AM --- Model took seconds to train 260.93160223960876
2018-04-25 02:01:21.728170AM --- Accuracy on test data is: 61.3
2018-04-25 02:01:21.774231AM --- starting process for: (((conv*2)vazio)*1)fc*0
2018-04-25 02:01:22.472979AM
_________________________________________________________________
Layer (type)                 Output Shape              Param #   
=================================================================
conv2d_1 (Conv2D)            (None, 32, 32, 32)        896       
_________________________________________________________________
conv2d_2 (Conv2D)            (None, 32, 32, 32)        9248      
_________________________________________________________________
flatten_1 (Flatten)          (None, 32768)             0         
_________________________________________________________________
dense_1 (Dense)              (None, 10)                327690    
=================================================================
Total params: 337,834
Trainable params: 337,834
Non-trainable params: 0
_________________________________________________________________

2018-04-25 02:07:23.522933AM --- Model took seconds to train 361.0348045825958
2018-04-25 02:07:23.831790AM --- Accuracy on test data is: 58.4
2018-04-25 02:07:23.880749AM --- starting process for: (((conv*2)pool)*2)fc*1
2018-04-25 02:07:24.589163AM
_________________________________________________________________
Layer (type)                 Output Shape              Param #   
=================================================================
conv2d_1 (Conv2D)            (None, 32, 32, 32)        896       
_________________________________________________________________
conv2d_2 (Conv2D)            (None, 32, 32, 32)        9248      
_________________________________________________________________
max_pooling2d_1 (MaxPooling2 (None, 16, 16, 32)        0         
_________________________________________________________________
conv2d_3 (Conv2D)            (None, 16, 16, 64)        18496     
_________________________________________________________________
conv2d_4 (Conv2D)            (None, 16, 16, 128)       73856     
_________________________________________________________________
max_pooling2d_2 (MaxPooling2 (None, 8, 8, 128)         0         
_________________________________________________________________
flatten_1 (Flatten)          (None, 8192)              0         
_________________________________________________________________
dense_1 (Dense)              (None, 128)               1048704   
_________________________________________________________________
activation_1 (Activation)    (None, 128)               0         
_________________________________________________________________
dense_2 (Dense)              (None, 10)                1290      
=================================================================
Total params: 1,152,490
Trainable params: 1,152,490
Non-trainable params: 0
_________________________________________________________________

2018-04-25 02:13:05.773217AM --- Model took seconds to train 341.16913414001465
2018-04-25 02:13:05.944823AM --- Accuracy on test data is: 74.1
2018-04-25 02:13:05.985635AM --- starting process for: (((conv*2)pool)*3)fc*0
2018-04-25 02:13:06.705736AM
_________________________________________________________________
Layer (type)                 Output Shape              Param #   
=================================================================
conv2d_1 (Conv2D)            (None, 32, 32, 32)        896       
_________________________________________________________________
conv2d_2 (Conv2D)            (None, 32, 32, 32)        9248      
_________________________________________________________________
max_pooling2d_1 (MaxPooling2 (None, 16, 16, 32)        0         
_________________________________________________________________
conv2d_3 (Conv2D)            (None, 16, 16, 64)        18496     
_________________________________________________________________
conv2d_4 (Conv2D)            (None, 16, 16, 128)       73856     
_________________________________________________________________
max_pooling2d_2 (MaxPooling2 (None, 8, 8, 128)         0         
_________________________________________________________________
conv2d_5 (Conv2D)            (None, 8, 8, 128)         147584    
_________________________________________________________________
conv2d_6 (Conv2D)            (None, 8, 8, 128)         147584    
_________________________________________________________________
max_pooling2d_3 (MaxPooling2 (None, 4, 4, 128)         0         
_________________________________________________________________
flatten_1 (Flatten)          (None, 2048)              0         
_________________________________________________________________
dense_1 (Dense)              (None, 10)                20490     
=================================================================
Total params: 418,154
Trainable params: 418,154
Non-trainable params: 0
_________________________________________________________________

2018-04-25 02:19:33.712990AM --- Model took seconds to train 386.99218583106995
2018-04-25 02:19:33.863637AM --- Accuracy on test data is: 76.75
2018-04-25 02:19:33.919592AM --- starting process for: (((conv*1)vazio)*2)fc*1
2018-04-25 02:19:34.622864AM
_________________________________________________________________
Layer (type)                 Output Shape              Param #   
=================================================================
conv2d_1 (Conv2D)            (None, 32, 32, 32)        896       
_________________________________________________________________
conv2d_2 (Conv2D)            (None, 32, 32, 32)        9248      
_________________________________________________________________
flatten_1 (Flatten)          (None, 32768)             0         
_________________________________________________________________
dense_1 (Dense)              (None, 128)               4194432   
_________________________________________________________________
activation_1 (Activation)    (None, 128)               0         
_________________________________________________________________
dense_2 (Dense)              (None, 10)                1290      
=================================================================
Total params: 4,205,866
Trainable params: 4,205,866
Non-trainable params: 0
_________________________________________________________________

2018-04-25 02:23:59.098456AM --- Model took seconds to train 264.4603281021118
2018-04-25 02:23:59.388028AM --- Accuracy on test data is: 60.5
2018-04-25 02:23:59.424671AM --- starting process for: (((conv*2)pool)*2)fc*0
2018-04-25 02:24:00.137733AM
_________________________________________________________________
Layer (type)                 Output Shape              Param #   
=================================================================
conv2d_1 (Conv2D)            (None, 32, 32, 32)        896       
_________________________________________________________________
conv2d_2 (Conv2D)            (None, 32, 32, 32)        9248      
_________________________________________________________________
max_pooling2d_1 (MaxPooling2 (None, 16, 16, 32)        0         
_________________________________________________________________
conv2d_3 (Conv2D)            (None, 16, 16, 64)        18496     
_________________________________________________________________
conv2d_4 (Conv2D)            (None, 16, 16, 128)       73856     
_________________________________________________________________
max_pooling2d_2 (MaxPooling2 (None, 8, 8, 128)         0         
_________________________________________________________________
flatten_1 (Flatten)          (None, 8192)              0         
_________________________________________________________________
dense_1 (Dense)              (None, 10)                81930     
=================================================================
Total params: 184,426
Trainable params: 184,426
Non-trainable params: 0
_________________________________________________________________

2018-04-25 02:29:52.022033AM --- Model took seconds to train 351.86887073516846
2018-04-25 02:29:52.197682AM --- Accuracy on test data is: 75.44999999999999
2018-04-25 02:29:52.238850AM --- starting process for: (((conv*1)vazio)*3)fc*2
2018-04-25 02:29:52.948714AM
_________________________________________________________________
Layer (type)                 Output Shape              Param #   
=================================================================
conv2d_1 (Conv2D)            (None, 32, 32, 32)        896       
_________________________________________________________________
conv2d_2 (Conv2D)            (None, 32, 32, 32)        9248      
_________________________________________________________________
conv2d_3 (Conv2D)            (None, 32, 32, 64)        18496     
_________________________________________________________________
flatten_1 (Flatten)          (None, 65536)             0         
_________________________________________________________________
dense_1 (Dense)              (None, 128)               8388736   
_________________________________________________________________
activation_1 (Activation)    (None, 128)               0         
_________________________________________________________________
dense_2 (Dense)              (None, 128)               16512     
_________________________________________________________________
activation_2 (Activation)    (None, 128)               0         
_________________________________________________________________
dense_3 (Dense)              (None, 10)                1290      
=================================================================
Total params: 8,435,178
Trainable params: 8,435,178
Non-trainable params: 0
_________________________________________________________________

2018-04-25 02:36:58.002911AM --- Model took seconds to train 425.03877902030945
2018-04-25 02:36:58.490798AM --- Accuracy on test data is: 63.449999999999996
2018-04-25 02:36:58.526175AM --- starting process for: (((conv*2)pool)*3)fc*1
2018-04-25 02:36:59.250942AM
_________________________________________________________________
Layer (type)                 Output Shape              Param #   
=================================================================
conv2d_1 (Conv2D)            (None, 32, 32, 32)        896       
_________________________________________________________________
conv2d_2 (Conv2D)            (None, 32, 32, 32)        9248      
_________________________________________________________________
max_pooling2d_1 (MaxPooling2 (None, 16, 16, 32)        0         
_________________________________________________________________
conv2d_3 (Conv2D)            (None, 16, 16, 64)        18496     
_________________________________________________________________
conv2d_4 (Conv2D)            (None, 16, 16, 128)       73856     
_________________________________________________________________
max_pooling2d_2 (MaxPooling2 (None, 8, 8, 128)         0         
_________________________________________________________________
conv2d_5 (Conv2D)            (None, 8, 8, 128)         147584    
_________________________________________________________________
conv2d_6 (Conv2D)            (None, 8, 8, 128)         147584    
_________________________________________________________________
max_pooling2d_3 (MaxPooling2 (None, 4, 4, 128)         0         
_________________________________________________________________
flatten_1 (Flatten)          (None, 2048)              0         
_________________________________________________________________
dense_1 (Dense)              (None, 128)               262272    
_________________________________________________________________
activation_1 (Activation)    (None, 128)               0         
_________________________________________________________________
dense_2 (Dense)              (None, 10)                1290      
=================================================================
Total params: 661,226
Trainable params: 661,226
Non-trainable params: 0
_________________________________________________________________

2018-04-25 02:43:32.664537AM --- Model took seconds to train 393.39795994758606
2018-04-25 02:43:32.815075AM --- Accuracy on test data is: 76.5
2018-04-25 02:43:32.851498AM --- starting process for: (((conv*2)vazio)*3)fc*2
2018-04-25 02:43:33.579970AM
_________________________________________________________________
Layer (type)                 Output Shape              Param #   
=================================================================
conv2d_1 (Conv2D)            (None, 32, 32, 32)        896       
_________________________________________________________________
conv2d_2 (Conv2D)            (None, 32, 32, 32)        9248      
_________________________________________________________________
conv2d_3 (Conv2D)            (None, 32, 32, 64)        18496     
_________________________________________________________________
conv2d_4 (Conv2D)            (None, 32, 32, 128)       73856     
_________________________________________________________________
conv2d_5 (Conv2D)            (None, 32, 32, 128)       147584    
_________________________________________________________________
conv2d_6 (Conv2D)            (None, 32, 32, 128)       147584    
_________________________________________________________________
flatten_1 (Flatten)          (None, 131072)            0         
_________________________________________________________________
dense_1 (Dense)              (None, 128)               16777344  
_________________________________________________________________
activation_1 (Activation)    (None, 128)               0         
_________________________________________________________________
dense_2 (Dense)              (None, 128)               16512     
_________________________________________________________________
activation_2 (Activation)    (None, 128)               0         
_________________________________________________________________
dense_3 (Dense)              (None, 10)                1290      
=================================================================
Total params: 17,192,810
Trainable params: 17,192,810
Non-trainable params: 0
_________________________________________________________________

2018-04-25 03:04:33.181455AM --- Model took seconds to train 1259.5222301483154
2018-04-25 03:04:34.193597AM --- Accuracy on test data is: 65.5
2018-04-25 03:04:34.229617AM --- starting process for: (((conv*2)vazio)*2)fc*2
2018-04-25 03:04:34.947080AM
_________________________________________________________________
Layer (type)                 Output Shape              Param #   
=================================================================
conv2d_1 (Conv2D)            (None, 32, 32, 32)        896       
_________________________________________________________________
conv2d_2 (Conv2D)            (None, 32, 32, 32)        9248      
_________________________________________________________________
conv2d_3 (Conv2D)            (None, 32, 32, 64)        18496     
_________________________________________________________________
conv2d_4 (Conv2D)            (None, 32, 32, 128)       73856     
_________________________________________________________________
flatten_1 (Flatten)          (None, 131072)            0         
_________________________________________________________________
dense_1 (Dense)              (None, 128)               16777344  
_________________________________________________________________
activation_1 (Activation)    (None, 128)               0         
_________________________________________________________________
dense_2 (Dense)              (None, 128)               16512     
_________________________________________________________________
activation_2 (Activation)    (None, 128)               0         
_________________________________________________________________
dense_3 (Dense)              (None, 10)                1290      
=================================================================
Total params: 16,897,642
Trainable params: 16,897,642
Non-trainable params: 0
_________________________________________________________________

2018-04-25 03:16:14.023423AM --- Model took seconds to train 699.0614631175995
2018-04-25 03:16:14.902609AM --- Accuracy on test data is: 63.3
2018-04-25 03:16:14.938889AM --- starting process for: (((conv*2)pool)*3)fc*2
2018-04-25 03:16:15.665824AM
_________________________________________________________________
Layer (type)                 Output Shape              Param #   
=================================================================
conv2d_1 (Conv2D)            (None, 32, 32, 32)        896       
_________________________________________________________________
conv2d_2 (Conv2D)            (None, 32, 32, 32)        9248      
_________________________________________________________________
max_pooling2d_1 (MaxPooling2 (None, 16, 16, 32)        0         
_________________________________________________________________
conv2d_3 (Conv2D)            (None, 16, 16, 64)        18496     
_________________________________________________________________
conv2d_4 (Conv2D)            (None, 16, 16, 128)       73856     
_________________________________________________________________
max_pooling2d_2 (MaxPooling2 (None, 8, 8, 128)         0         
_________________________________________________________________
conv2d_5 (Conv2D)            (None, 8, 8, 128)         147584    
_________________________________________________________________
conv2d_6 (Conv2D)            (None, 8, 8, 128)         147584    
_________________________________________________________________
max_pooling2d_3 (MaxPooling2 (None, 4, 4, 128)         0         
_________________________________________________________________
flatten_1 (Flatten)          (None, 2048)              0         
_________________________________________________________________
dense_1 (Dense)              (None, 128)               262272    
_________________________________________________________________
activation_1 (Activation)    (None, 128)               0         
_________________________________________________________________
dense_2 (Dense)              (None, 128)               16512     
_________________________________________________________________
activation_2 (Activation)    (None, 128)               0         
_________________________________________________________________
dense_3 (Dense)              (None, 10)                1290      
=================================================================
Total params: 677,738
Trainable params: 677,738
Non-trainable params: 0
_________________________________________________________________

2018-04-25 03:22:53.659826AM --- Model took seconds to train 397.97884225845337
2018-04-25 03:22:53.815036AM --- Accuracy on test data is: 77.14999999999999
2018-04-25 03:22:53.852592AM --- starting process for: (((conv*2)vazio)*2)fc*2
2018-04-25 03:22:54.570563AM
_________________________________________________________________
Layer (type)                 Output Shape              Param #   
=================================================================
conv2d_1 (Conv2D)            (None, 32, 32, 32)        896       
_________________________________________________________________
conv2d_2 (Conv2D)            (None, 32, 32, 32)        9248      
_________________________________________________________________
conv2d_3 (Conv2D)            (None, 32, 32, 64)        18496     
_________________________________________________________________
conv2d_4 (Conv2D)            (None, 32, 32, 128)       73856     
_________________________________________________________________
flatten_1 (Flatten)          (None, 131072)            0         
_________________________________________________________________
dense_1 (Dense)              (None, 128)               16777344  
_________________________________________________________________
activation_1 (Activation)    (None, 128)               0         
_________________________________________________________________
dense_2 (Dense)              (None, 128)               16512     
_________________________________________________________________
activation_2 (Activation)    (None, 128)               0         
_________________________________________________________________
dense_3 (Dense)              (None, 10)                1290      
=================================================================
Total params: 16,897,642
Trainable params: 16,897,642
Non-trainable params: 0
_________________________________________________________________

2018-04-25 03:34:34.843073AM --- Model took seconds to train 700.1905720233917
2018-04-25 03:34:35.729830AM --- Accuracy on test data is: 64.25
2018-04-25 03:34:35.768281AM --- starting process for: (((conv*2)pool)*2)fc*2
2018-04-25 03:34:36.487149AM
_________________________________________________________________
Layer (type)                 Output Shape              Param #   
=================================================================
conv2d_1 (Conv2D)            (None, 32, 32, 32)        896       
_________________________________________________________________
conv2d_2 (Conv2D)            (None, 32, 32, 32)        9248      
_________________________________________________________________
max_pooling2d_1 (MaxPooling2 (None, 16, 16, 32)        0         
_________________________________________________________________
conv2d_3 (Conv2D)            (None, 16, 16, 64)        18496     
_________________________________________________________________
conv2d_4 (Conv2D)            (None, 16, 16, 128)       73856     
_________________________________________________________________
max_pooling2d_2 (MaxPooling2 (None, 8, 8, 128)         0         
_________________________________________________________________
flatten_1 (Flatten)          (None, 8192)              0         
_________________________________________________________________
dense_1 (Dense)              (None, 128)               1048704   
_________________________________________________________________
activation_1 (Activation)    (None, 128)               0         
_________________________________________________________________
dense_2 (Dense)              (None, 128)               16512     
_________________________________________________________________
activation_2 (Activation)    (None, 128)               0         
_________________________________________________________________
dense_3 (Dense)              (None, 10)                1290      
=================================================================
Total params: 1,169,002
Trainable params: 1,169,002
Non-trainable params: 0
_________________________________________________________________

2018-04-25 03:40:24.369711AM --- Model took seconds to train 347.8672366142273
2018-04-25 03:40:24.546602AM --- Accuracy on test data is: 73.1
2018-04-25 03:40:24.593147AM --- starting process for: (((conv*2)pool)*1)fc*2
2018-04-25 03:40:25.303457AM
_________________________________________________________________
Layer (type)                 Output Shape              Param #   
=================================================================
conv2d_1 (Conv2D)            (None, 32, 32, 32)        896       
_________________________________________________________________
conv2d_2 (Conv2D)            (None, 32, 32, 32)        9248      
_________________________________________________________________
max_pooling2d_1 (MaxPooling2 (None, 16, 16, 32)        0         
_________________________________________________________________
flatten_1 (Flatten)          (None, 8192)              0         
_________________________________________________________________
dense_1 (Dense)              (None, 128)               1048704   
_________________________________________________________________
activation_1 (Activation)    (None, 128)               0         
_________________________________________________________________
dense_2 (Dense)              (None, 128)               16512     
_________________________________________________________________
activation_2 (Activation)    (None, 128)               0         
_________________________________________________________________
dense_3 (Dense)              (None, 10)                1290      
=================================================================
Total params: 1,076,650
Trainable params: 1,076,650
Non-trainable params: 0
_________________________________________________________________

2018-04-25 03:44:17.778022AM --- Model took seconds to train 232.4594750404358
2018-04-25 03:44:17.930462AM --- Accuracy on test data is: 65.25
2018-04-25 03:44:17.972821AM --- starting process for: (((conv*2)pool)*3)fc*0
2018-04-25 03:44:18.686943AM
_________________________________________________________________
Layer (type)                 Output Shape              Param #   
=================================================================
conv2d_1 (Conv2D)            (None, 32, 32, 32)        896       
_________________________________________________________________
conv2d_2 (Conv2D)            (None, 32, 32, 32)        9248      
_________________________________________________________________
max_pooling2d_1 (MaxPooling2 (None, 16, 16, 32)        0         
_________________________________________________________________
conv2d_3 (Conv2D)            (None, 16, 16, 64)        18496     
_________________________________________________________________
conv2d_4 (Conv2D)            (None, 16, 16, 128)       73856     
_________________________________________________________________
max_pooling2d_2 (MaxPooling2 (None, 8, 8, 128)         0         
_________________________________________________________________
conv2d_5 (Conv2D)            (None, 8, 8, 128)         147584    
_________________________________________________________________
conv2d_6 (Conv2D)            (None, 8, 8, 128)         147584    
_________________________________________________________________
max_pooling2d_3 (MaxPooling2 (None, 4, 4, 128)         0         
_________________________________________________________________
flatten_1 (Flatten)          (None, 2048)              0         
_________________________________________________________________
dense_1 (Dense)              (None, 10)                20490     
=================================================================
Total params: 418,154
Trainable params: 418,154
Non-trainable params: 0
_________________________________________________________________

2018-04-25 03:50:45.141616AM --- Model took seconds to train 386.43938851356506
2018-04-25 03:50:45.279070AM --- Accuracy on test data is: 78.10000000000001
2018-04-25 03:50:45.315911AM --- starting process for: (((conv*1)pool)*3)fc*2
2018-04-25 03:50:46.027478AM
_________________________________________________________________
Layer (type)                 Output Shape              Param #   
=================================================================
conv2d_1 (Conv2D)            (None, 32, 32, 32)        896       
_________________________________________________________________
max_pooling2d_1 (MaxPooling2 (None, 16, 16, 32)        0         
_________________________________________________________________
conv2d_2 (Conv2D)            (None, 16, 16, 32)        9248      
_________________________________________________________________
max_pooling2d_2 (MaxPooling2 (None, 8, 8, 32)          0         
_________________________________________________________________
conv2d_3 (Conv2D)            (None, 8, 8, 64)          18496     
_________________________________________________________________
max_pooling2d_3 (MaxPooling2 (None, 4, 4, 64)          0         
_________________________________________________________________
flatten_1 (Flatten)          (None, 1024)              0         
_________________________________________________________________
dense_1 (Dense)              (None, 128)               131200    
_________________________________________________________________
activation_1 (Activation)    (None, 128)               0         
_________________________________________________________________
dense_2 (Dense)              (None, 128)               16512     
_________________________________________________________________
activation_2 (Activation)    (None, 128)               0         
_________________________________________________________________
dense_3 (Dense)              (None, 10)                1290      
=================================================================
Total params: 177,642
Trainable params: 177,642
Non-trainable params: 0
_________________________________________________________________

2018-04-25 03:53:52.506273AM --- Model took seconds to train 186.46398973464966
2018-04-25 03:53:52.586226AM --- Accuracy on test data is: 70.5
2018-04-25 03:53:52.622821AM --- starting process for: (((conv*1)pool)*1)fc*1
2018-04-25 03:53:53.320880AM
_________________________________________________________________
Layer (type)                 Output Shape              Param #   
=================================================================
conv2d_1 (Conv2D)            (None, 32, 32, 32)        896       
_________________________________________________________________
max_pooling2d_1 (MaxPooling2 (None, 16, 16, 32)        0         
_________________________________________________________________
flatten_1 (Flatten)          (None, 8192)              0         
_________________________________________________________________
dense_1 (Dense)              (None, 128)               1048704   
_________________________________________________________________
activation_1 (Activation)    (None, 128)               0         
_________________________________________________________________
dense_2 (Dense)              (None, 10)                1290      
=================================================================
Total params: 1,050,890
Trainable params: 1,050,890
Non-trainable params: 0
_________________________________________________________________

2018-04-25 03:56:24.114426AM --- Model took seconds to train 150.77796483039856
2018-04-25 03:56:24.253495AM --- Accuracy on test data is: 61.9
2018-04-25 03:56:24.296702AM --- starting process for: (((conv*2)vazio)*3)fc*1
2018-04-25 03:56:25.016102AM
_________________________________________________________________
Layer (type)                 Output Shape              Param #   
=================================================================
conv2d_1 (Conv2D)            (None, 32, 32, 32)        896       
_________________________________________________________________
conv2d_2 (Conv2D)            (None, 32, 32, 32)        9248      
_________________________________________________________________
conv2d_3 (Conv2D)            (None, 32, 32, 64)        18496     
_________________________________________________________________
conv2d_4 (Conv2D)            (None, 32, 32, 128)       73856     
_________________________________________________________________
conv2d_5 (Conv2D)            (None, 32, 32, 128)       147584    
_________________________________________________________________
conv2d_6 (Conv2D)            (None, 32, 32, 128)       147584    
_________________________________________________________________
flatten_1 (Flatten)          (None, 131072)            0         
_________________________________________________________________
dense_1 (Dense)              (None, 128)               16777344  
_________________________________________________________________
activation_1 (Activation)    (None, 128)               0         
_________________________________________________________________
dense_2 (Dense)              (None, 10)                1290      
=================================================================
Total params: 17,176,298
Trainable params: 17,176,298
Non-trainable params: 0
_________________________________________________________________

2018-04-25 04:17:24.821565AM --- Model took seconds to train 1259.7897055149078
2018-04-25 04:17:25.847172AM --- Accuracy on test data is: 66.4
2018-04-25 04:17:25.880358AM --- starting process for: (((conv*1)vazio)*3)fc*1
2018-04-25 04:17:26.586253AM
_________________________________________________________________
Layer (type)                 Output Shape              Param #   
=================================================================
conv2d_1 (Conv2D)            (None, 32, 32, 32)        896       
_________________________________________________________________
conv2d_2 (Conv2D)            (None, 32, 32, 32)        9248      
_________________________________________________________________
conv2d_3 (Conv2D)            (None, 32, 32, 64)        18496     
_________________________________________________________________
flatten_1 (Flatten)          (None, 65536)             0         
_________________________________________________________________
dense_1 (Dense)              (None, 128)               8388736   
_________________________________________________________________
activation_1 (Activation)    (None, 128)               0         
_________________________________________________________________
dense_2 (Dense)              (None, 10)                1290      
=================================================================
Total params: 8,418,666
Trainable params: 8,418,666
Non-trainable params: 0
_________________________________________________________________

2018-04-25 04:24:33.444825AM --- Model took seconds to train 426.84367203712463
2018-04-25 04:24:33.924779AM --- Accuracy on test data is: 64.35
2018-04-25 04:24:33.961571AM --- starting process for: (((conv*1)pool)*3)fc*2
2018-04-25 04:24:34.733946AM
_________________________________________________________________
Layer (type)                 Output Shape              Param #   
=================================================================
conv2d_1 (Conv2D)            (None, 32, 32, 32)        896       
_________________________________________________________________
max_pooling2d_1 (MaxPooling2 (None, 16, 16, 32)        0         
_________________________________________________________________
conv2d_2 (Conv2D)            (None, 16, 16, 32)        9248      
_________________________________________________________________
max_pooling2d_2 (MaxPooling2 (None, 8, 8, 32)          0         
_________________________________________________________________
conv2d_3 (Conv2D)            (None, 8, 8, 64)          18496     
_________________________________________________________________
max_pooling2d_3 (MaxPooling2 (None, 4, 4, 64)          0         
_________________________________________________________________
flatten_1 (Flatten)          (None, 1024)              0         
_________________________________________________________________
dense_1 (Dense)              (None, 128)               131200    
_________________________________________________________________
activation_1 (Activation)    (None, 128)               0         
_________________________________________________________________
dense_2 (Dense)              (None, 128)               16512     
_________________________________________________________________
activation_2 (Activation)    (None, 128)               0         
_________________________________________________________________
dense_3 (Dense)              (None, 10)                1290      
=================================================================
Total params: 177,642
Trainable params: 177,642
Non-trainable params: 0
_________________________________________________________________

2018-04-25 04:27:39.862976AM --- Model took seconds to train 185.1142041683197
2018-04-25 04:27:39.988947AM --- Accuracy on test data is: 71.7
2018-04-25 04:27:40.038685AM --- starting process for: (((conv*2)pool)*1)fc*1
2018-04-25 04:27:40.743426AM
_________________________________________________________________
Layer (type)                 Output Shape              Param #   
=================================================================
conv2d_1 (Conv2D)            (None, 32, 32, 32)        896       
_________________________________________________________________
conv2d_2 (Conv2D)            (None, 32, 32, 32)        9248      
_________________________________________________________________
max_pooling2d_1 (MaxPooling2 (None, 16, 16, 32)        0         
_________________________________________________________________
flatten_1 (Flatten)          (None, 8192)              0         
_________________________________________________________________
dense_1 (Dense)              (None, 128)               1048704   
_________________________________________________________________
activation_1 (Activation)    (None, 128)               0         
_________________________________________________________________
dense_2 (Dense)              (None, 10)                1290      
=================================================================
Total params: 1,060,138
Trainable params: 1,060,138
Non-trainable params: 0
_________________________________________________________________

2018-04-25 04:31:26.619463AM --- Model took seconds to train 225.86112928390503
2018-04-25 04:31:26.782995AM --- Accuracy on test data is: 65.8
2018-04-25 04:31:26.830702AM --- starting process for: (((conv*1)pool)*2)fc*0
2018-04-25 04:31:27.527779AM
_________________________________________________________________
Layer (type)                 Output Shape              Param #   
=================================================================
conv2d_1 (Conv2D)            (None, 32, 32, 32)        896       
_________________________________________________________________
max_pooling2d_1 (MaxPooling2 (None, 16, 16, 32)        0         
_________________________________________________________________
conv2d_2 (Conv2D)            (None, 16, 16, 32)        9248      
_________________________________________________________________
max_pooling2d_2 (MaxPooling2 (None, 8, 8, 32)          0         
_________________________________________________________________
flatten_1 (Flatten)          (None, 2048)              0         
_________________________________________________________________
dense_1 (Dense)              (None, 10)                20490     
=================================================================
Total params: 30,634
Trainable params: 30,634
Non-trainable params: 0
_________________________________________________________________

2018-04-25 04:34:15.567108AM --- Model took seconds to train 168.02474689483643
2018-04-25 04:34:15.673209AM --- Accuracy on test data is: 69.85
2018-04-25 04:34:15.719230AM --- starting process for: (((conv*1)pool)*2)fc*0
2018-04-25 04:34:16.410198AM
_________________________________________________________________
Layer (type)                 Output Shape              Param #   
=================================================================
conv2d_1 (Conv2D)            (None, 32, 32, 32)        896       
_________________________________________________________________
max_pooling2d_1 (MaxPooling2 (None, 16, 16, 32)        0         
_________________________________________________________________
conv2d_2 (Conv2D)            (None, 16, 16, 32)        9248      
_________________________________________________________________
max_pooling2d_2 (MaxPooling2 (None, 8, 8, 32)          0         
_________________________________________________________________
flatten_1 (Flatten)          (None, 2048)              0         
_________________________________________________________________
dense_1 (Dense)              (None, 10)                20490     
=================================================================
Total params: 30,634
Trainable params: 30,634
Non-trainable params: 0
_________________________________________________________________

2018-04-25 04:37:05.200611AM --- Model took seconds to train 168.77520751953125
2018-04-25 04:37:05.271651AM --- Accuracy on test data is: 69.5
2018-04-25 04:37:05.309720AM --- starting process for: (((conv*1)pool)*2)fc*1
2018-04-25 04:37:06.013478AM
_________________________________________________________________
Layer (type)                 Output Shape              Param #   
=================================================================
conv2d_1 (Conv2D)            (None, 32, 32, 32)        896       
_________________________________________________________________
max_pooling2d_1 (MaxPooling2 (None, 16, 16, 32)        0         
_________________________________________________________________
conv2d_2 (Conv2D)            (None, 16, 16, 32)        9248      
_________________________________________________________________
max_pooling2d_2 (MaxPooling2 (None, 8, 8, 32)          0         
_________________________________________________________________
flatten_1 (Flatten)          (None, 2048)              0         
_________________________________________________________________
dense_1 (Dense)              (None, 128)               262272    
_________________________________________________________________
activation_1 (Activation)    (None, 128)               0         
_________________________________________________________________
dense_2 (Dense)              (None, 10)                1290      
=================================================================
Total params: 273,706
Trainable params: 273,706
Non-trainable params: 0
_________________________________________________________________

2018-04-25 04:39:57.299282AM --- Model took seconds to train 171.27057528495789
2018-04-25 04:39:57.410652AM --- Accuracy on test data is: 66.64999999999999
2018-04-25 04:39:57.458184AM --- starting process for: (((conv*1)pool)*1)fc*2
2018-04-25 04:39:58.157678AM
_________________________________________________________________
Layer (type)                 Output Shape              Param #   
=================================================================
conv2d_1 (Conv2D)            (None, 32, 32, 32)        896       
_________________________________________________________________
max_pooling2d_1 (MaxPooling2 (None, 16, 16, 32)        0         
_________________________________________________________________
flatten_1 (Flatten)          (None, 8192)              0         
_________________________________________________________________
dense_1 (Dense)              (None, 128)               1048704   
_________________________________________________________________
activation_1 (Activation)    (None, 128)               0         
_________________________________________________________________
dense_2 (Dense)              (None, 128)               16512     
_________________________________________________________________
activation_2 (Activation)    (None, 128)               0         
_________________________________________________________________
dense_3 (Dense)              (None, 10)                1290      
=================================================================
Total params: 1,067,402
Trainable params: 1,067,402
Non-trainable params: 0
_________________________________________________________________

2018-04-25 04:42:35.802534AM --- Model took seconds to train 157.62985348701477
2018-04-25 04:42:35.934350AM --- Accuracy on test data is: 62.6
2018-04-25 04:42:35.975566AM --- starting process for: (((conv*1)pool)*2)fc*1
2018-04-25 04:42:36.678139AM
_________________________________________________________________
Layer (type)                 Output Shape              Param #   
=================================================================
conv2d_1 (Conv2D)            (None, 32, 32, 32)        896       
_________________________________________________________________
max_pooling2d_1 (MaxPooling2 (None, 16, 16, 32)        0         
_________________________________________________________________
conv2d_2 (Conv2D)            (None, 16, 16, 32)        9248      
_________________________________________________________________
max_pooling2d_2 (MaxPooling2 (None, 8, 8, 32)          0         
_________________________________________________________________
flatten_1 (Flatten)          (None, 2048)              0         
_________________________________________________________________
dense_1 (Dense)              (None, 128)               262272    
_________________________________________________________________
activation_1 (Activation)    (None, 128)               0         
_________________________________________________________________
dense_2 (Dense)              (None, 10)                1290      
=================================================================
Total params: 273,706
Trainable params: 273,706
Non-trainable params: 0
_________________________________________________________________

2018-04-25 04:45:28.739198AM --- Model took seconds to train 172.04646730422974
2018-04-25 04:45:28.835707AM --- Accuracy on test data is: 67.10000000000001
2018-04-25 04:45:28.878443AM --- starting process for: (((conv*2)pool)*1)fc*1
2018-04-25 04:45:29.579226AM
_________________________________________________________________
Layer (type)                 Output Shape              Param #   
=================================================================
conv2d_1 (Conv2D)            (None, 32, 32, 32)        896       
_________________________________________________________________
conv2d_2 (Conv2D)            (None, 32, 32, 32)        9248      
_________________________________________________________________
max_pooling2d_1 (MaxPooling2 (None, 16, 16, 32)        0         
_________________________________________________________________
flatten_1 (Flatten)          (None, 8192)              0         
_________________________________________________________________
dense_1 (Dense)              (None, 128)               1048704   
_________________________________________________________________
activation_1 (Activation)    (None, 128)               0         
_________________________________________________________________
dense_2 (Dense)              (None, 10)                1290      
=================================================================
Total params: 1,060,138
Trainable params: 1,060,138
Non-trainable params: 0
_________________________________________________________________

2018-04-25 04:49:15.348516AM --- Model took seconds to train 225.7546682357788
2018-04-25 04:49:15.506129AM --- Accuracy on test data is: 66.2
2018-04-25 04:49:15.549087AM --- starting process for: (((conv*2)vazio)*2)fc*1
2018-04-25 04:49:16.262834AM
_________________________________________________________________
Layer (type)                 Output Shape              Param #   
=================================================================
conv2d_1 (Conv2D)            (None, 32, 32, 32)        896       
_________________________________________________________________
conv2d_2 (Conv2D)            (None, 32, 32, 32)        9248      
_________________________________________________________________
conv2d_3 (Conv2D)            (None, 32, 32, 64)        18496     
_________________________________________________________________
conv2d_4 (Conv2D)            (None, 32, 32, 128)       73856     
_________________________________________________________________
flatten_1 (Flatten)          (None, 131072)            0         
_________________________________________________________________
dense_1 (Dense)              (None, 128)               16777344  
_________________________________________________________________
activation_1 (Activation)    (None, 128)               0         
_________________________________________________________________
dense_2 (Dense)              (None, 10)                1290      
=================================================================
Total params: 16,881,130
Trainable params: 16,881,130
Non-trainable params: 0
_________________________________________________________________

2018-04-25 05:00:51.102651AM --- Model took seconds to train 694.8249359130859
2018-04-25 05:00:51.995806AM --- Accuracy on test data is: 64.5
2018-04-25 05:00:52.033310AM --- starting process for: (((conv*2)pool)*2)fc*1
2018-04-25 05:00:52.750331AM
_________________________________________________________________
Layer (type)                 Output Shape              Param #   
=================================================================
conv2d_1 (Conv2D)            (None, 32, 32, 32)        896       
_________________________________________________________________
conv2d_2 (Conv2D)            (None, 32, 32, 32)        9248      
_________________________________________________________________
max_pooling2d_1 (MaxPooling2 (None, 16, 16, 32)        0         
_________________________________________________________________
conv2d_3 (Conv2D)            (None, 16, 16, 64)        18496     
_________________________________________________________________
conv2d_4 (Conv2D)            (None, 16, 16, 128)       73856     
_________________________________________________________________
max_pooling2d_2 (MaxPooling2 (None, 8, 8, 128)         0         
_________________________________________________________________
flatten_1 (Flatten)          (None, 8192)              0         
_________________________________________________________________
dense_1 (Dense)              (None, 128)               1048704   
_________________________________________________________________
activation_1 (Activation)    (None, 128)               0         
_________________________________________________________________
dense_2 (Dense)              (None, 10)                1290      
=================================================================
Total params: 1,152,490
Trainable params: 1,152,490
Non-trainable params: 0
_________________________________________________________________

2018-04-25 05:06:28.740925AM --- Model took seconds to train 335.975679397583
2018-04-25 05:06:28.904916AM --- Accuracy on test data is: 73.05
2018-04-25 05:06:28.941016AM --- starting process for: (((conv*2)pool)*3)fc*2
2018-04-25 05:06:29.670716AM
_________________________________________________________________
Layer (type)                 Output Shape              Param #   
=================================================================
conv2d_1 (Conv2D)            (None, 32, 32, 32)        896       
_________________________________________________________________
conv2d_2 (Conv2D)            (None, 32, 32, 32)        9248      
_________________________________________________________________
max_pooling2d_1 (MaxPooling2 (None, 16, 16, 32)        0         
_________________________________________________________________
conv2d_3 (Conv2D)            (None, 16, 16, 64)        18496     
_________________________________________________________________
conv2d_4 (Conv2D)            (None, 16, 16, 128)       73856     
_________________________________________________________________
max_pooling2d_2 (MaxPooling2 (None, 8, 8, 128)         0         
_________________________________________________________________
conv2d_5 (Conv2D)            (None, 8, 8, 128)         147584    
_________________________________________________________________
conv2d_6 (Conv2D)            (None, 8, 8, 128)         147584    
_________________________________________________________________
max_pooling2d_3 (MaxPooling2 (None, 4, 4, 128)         0         
_________________________________________________________________
flatten_1 (Flatten)          (None, 2048)              0         
_________________________________________________________________
dense_1 (Dense)              (None, 128)               262272    
_________________________________________________________________
activation_1 (Activation)    (None, 128)               0         
_________________________________________________________________
dense_2 (Dense)              (None, 128)               16512     
_________________________________________________________________
activation_2 (Activation)    (None, 128)               0         
_________________________________________________________________
dense_3 (Dense)              (None, 10)                1290      
=================================================================
Total params: 677,738
Trainable params: 677,738
Non-trainable params: 0
_________________________________________________________________

2018-04-25 05:13:02.395272AM --- Model took seconds to train 392.70857763290405
2018-04-25 05:13:02.546595AM --- Accuracy on test data is: 78.4
2018-04-25 05:13:02.584821AM --- starting process for: (((conv*1)vazio)*2)fc*1
2018-04-25 05:13:03.287715AM
_________________________________________________________________
Layer (type)                 Output Shape              Param #   
=================================================================
conv2d_1 (Conv2D)            (None, 32, 32, 32)        896       
_________________________________________________________________
conv2d_2 (Conv2D)            (None, 32, 32, 32)        9248      
_________________________________________________________________
flatten_1 (Flatten)          (None, 32768)             0         
_________________________________________________________________
dense_1 (Dense)              (None, 128)               4194432   
_________________________________________________________________
activation_1 (Activation)    (None, 128)               0         
_________________________________________________________________
dense_2 (Dense)              (None, 10)                1290      
=================================================================
Total params: 4,205,866
Trainable params: 4,205,866
Non-trainable params: 0
_________________________________________________________________

2018-04-25 05:17:24.224563AM --- Model took seconds to train 260.9220323562622
2018-04-25 05:17:24.538400AM --- Accuracy on test data is: 60.0
2018-04-25 05:17:24.589598AM --- starting process for: (((conv*2)pool)*2)fc*0
2018-04-25 05:17:25.299300AM
_________________________________________________________________
Layer (type)                 Output Shape              Param #   
=================================================================
conv2d_1 (Conv2D)            (None, 32, 32, 32)        896       
_________________________________________________________________
conv2d_2 (Conv2D)            (None, 32, 32, 32)        9248      
_________________________________________________________________
max_pooling2d_1 (MaxPooling2 (None, 16, 16, 32)        0         
_________________________________________________________________
conv2d_3 (Conv2D)            (None, 16, 16, 64)        18496     
_________________________________________________________________
conv2d_4 (Conv2D)            (None, 16, 16, 128)       73856     
_________________________________________________________________
max_pooling2d_2 (MaxPooling2 (None, 8, 8, 128)         0         
_________________________________________________________________
flatten_1 (Flatten)          (None, 8192)              0         
_________________________________________________________________
dense_1 (Dense)              (None, 10)                81930     
=================================================================
Total params: 184,426
Trainable params: 184,426
Non-trainable params: 0
_________________________________________________________________

2018-04-25 05:23:19.076020AM --- Model took seconds to train 353.76105189323425
2018-04-25 05:23:19.249621AM --- Accuracy on test data is: 73.75
2018-04-25 05:23:19.293551AM --- 0 - Individual: (((conv*2)pool)*3)fc*0; 78.5
…
2018-04-25 05:23:19.295811AM --- 47 - Individual: (((conv*1)vazio)*2)fc*1; 60.0
2018-04-25 05:23:19.295856AM --- 48 - Individual: (((conv*1)vazio)*2)fc*0; 58.95
2018-04-25 05:23:19.295901AM --- 49 - Individual: (((conv*2)vazio)*1)fc*0; 58.4
2018-04-25 05:23:19.295939AM --- Generation: 5
2018-04-25 05:23:19.298385AM --- starting process for: (((conv*1)pool)*1)fc*0
2018-04-25 05:23:19.988892AM
_________________________________________________________________
Layer (type)                 Output Shape              Param #   
=================================================================
conv2d_1 (Conv2D)            (None, 32, 32, 32)        896       
_________________________________________________________________
max_pooling2d_1 (MaxPooling2 (None, 16, 16, 32)        0         
_________________________________________________________________
flatten_1 (Flatten)          (None, 8192)              0         
_________________________________________________________________
dense_1 (Dense)              (None, 10)                81930     
=================================================================
Total params: 82,826
Trainable params: 82,826
Non-trainable params: 0
_________________________________________________________________

2018-04-25 05:26:05.572890AM --- Model took seconds to train 165.56928896903992
2018-04-25 05:26:05.703564AM --- Accuracy on test data is: 62.150000000000006
2018-04-25 05:26:05.745665AM --- starting process for: (((conv*2)pool)*1)fc*2
2018-04-25 05:26:06.445150AM
_________________________________________________________________
Layer (type)                 Output Shape              Param #   
=================================================================
conv2d_1 (Conv2D)            (None, 32, 32, 32)        896       
_________________________________________________________________
conv2d_2 (Conv2D)            (None, 32, 32, 32)        9248      
_________________________________________________________________
max_pooling2d_1 (MaxPooling2 (None, 16, 16, 32)        0         
_________________________________________________________________
flatten_1 (Flatten)          (None, 8192)              0         
_________________________________________________________________
dense_1 (Dense)              (None, 128)               1048704   
_________________________________________________________________
activation_1 (Activation)    (None, 128)               0         
_________________________________________________________________
dense_2 (Dense)              (None, 128)               16512     
_________________________________________________________________
activation_2 (Activation)    (None, 128)               0         
_________________________________________________________________
dense_3 (Dense)              (None, 10)                1290      
=================================================================
Total params: 1,076,650
Trainable params: 1,076,650
Non-trainable params: 0
_________________________________________________________________

2018-04-25 05:29:58.699065AM --- Model took seconds to train 232.23901343345642
2018-04-25 05:29:58.854514AM --- Accuracy on test data is: 66.2
2018-04-25 05:29:58.897069AM --- starting process for: (((conv*2)pool)*3)fc*2
2018-04-25 05:29:59.624159AM
_________________________________________________________________
Layer (type)                 Output Shape              Param #   
=================================================================
conv2d_1 (Conv2D)            (None, 32, 32, 32)        896       
_________________________________________________________________
conv2d_2 (Conv2D)            (None, 32, 32, 32)        9248      
_________________________________________________________________
max_pooling2d_1 (MaxPooling2 (None, 16, 16, 32)        0         
_________________________________________________________________
conv2d_3 (Conv2D)            (None, 16, 16, 64)        18496     
_________________________________________________________________
conv2d_4 (Conv2D)            (None, 16, 16, 128)       73856     
_________________________________________________________________
max_pooling2d_2 (MaxPooling2 (None, 8, 8, 128)         0         
_________________________________________________________________
conv2d_5 (Conv2D)            (None, 8, 8, 128)         147584    
_________________________________________________________________
conv2d_6 (Conv2D)            (None, 8, 8, 128)         147584    
_________________________________________________________________
max_pooling2d_3 (MaxPooling2 (None, 4, 4, 128)         0         
_________________________________________________________________
flatten_1 (Flatten)          (None, 2048)              0         
_________________________________________________________________
dense_1 (Dense)              (None, 128)               262272    
_________________________________________________________________
activation_1 (Activation)    (None, 128)               0         
_________________________________________________________________
dense_2 (Dense)              (None, 128)               16512     
_________________________________________________________________
activation_2 (Activation)    (None, 128)               0         
_________________________________________________________________
dense_3 (Dense)              (None, 10)                1290      
=================================================================
Total params: 677,738
Trainable params: 677,738
Non-trainable params: 0
_________________________________________________________________

2018-04-25 05:36:34.500446AM --- Model took seconds to train 394.86082220077515
2018-04-25 05:36:34.660428AM --- Accuracy on test data is: 75.55
2018-04-25 05:36:34.708303AM --- starting process for: (((conv*1)vazio)*1)fc*1
2018-04-25 05:36:35.408668AM
_________________________________________________________________
Layer (type)                 Output Shape              Param #   
=================================================================
conv2d_1 (Conv2D)            (None, 32, 32, 32)        896       
_________________________________________________________________
flatten_1 (Flatten)          (None, 32768)             0         
_________________________________________________________________
dense_1 (Dense)              (None, 128)               4194432   
_________________________________________________________________
activation_1 (Activation)    (None, 128)               0         
_________________________________________________________________
dense_2 (Dense)              (None, 10)                1290      
=================================================================
Total params: 4,196,618
Trainable params: 4,196,618
Non-trainable params: 0
_________________________________________________________________

2018-04-25 05:39:36.293868AM --- Model took seconds to train 180.86959958076477
2018-04-25 05:39:36.545914AM --- Accuracy on test data is: 57.65
2018-04-25 05:39:36.584655AM --- starting process for: (((conv*2)pool)*2)fc*0
2018-04-25 05:39:37.291965AM
_________________________________________________________________
Layer (type)                 Output Shape              Param #   
=================================================================
conv2d_1 (Conv2D)            (None, 32, 32, 32)        896       
_________________________________________________________________
conv2d_2 (Conv2D)            (None, 32, 32, 32)        9248      
_________________________________________________________________
max_pooling2d_1 (MaxPooling2 (None, 16, 16, 32)        0         
_________________________________________________________________
conv2d_3 (Conv2D)            (None, 16, 16, 64)        18496     
_________________________________________________________________
conv2d_4 (Conv2D)            (None, 16, 16, 128)       73856     
_________________________________________________________________
max_pooling2d_2 (MaxPooling2 (None, 8, 8, 128)         0         
_________________________________________________________________
flatten_1 (Flatten)          (None, 8192)              0         
_________________________________________________________________
dense_1 (Dense)              (None, 10)                81930     
=================================================================
Total params: 184,426
Trainable params: 184,426
Non-trainable params: 0
_________________________________________________________________

2018-04-25 05:45:31.925123AM --- Model took seconds to train 354.6180372238159
2018-04-25 05:45:32.100710AM --- Accuracy on test data is: 75.35
2018-04-25 05:45:32.159892AM --- starting process for: (((conv*2)pool)*3)fc*2
2018-04-25 05:45:32.886950AM
_________________________________________________________________
Layer (type)                 Output Shape              Param #   
=================================================================
conv2d_1 (Conv2D)            (None, 32, 32, 32)        896       
_________________________________________________________________
conv2d_2 (Conv2D)            (None, 32, 32, 32)        9248      
_________________________________________________________________
max_pooling2d_1 (MaxPooling2 (None, 16, 16, 32)        0         
_________________________________________________________________
conv2d_3 (Conv2D)            (None, 16, 16, 64)        18496     
_________________________________________________________________
conv2d_4 (Conv2D)            (None, 16, 16, 128)       73856     
_________________________________________________________________
max_pooling2d_2 (MaxPooling2 (None, 8, 8, 128)         0         
_________________________________________________________________
conv2d_5 (Conv2D)            (None, 8, 8, 128)         147584    
_________________________________________________________________
conv2d_6 (Conv2D)            (None, 8, 8, 128)         147584    
_________________________________________________________________
max_pooling2d_3 (MaxPooling2 (None, 4, 4, 128)         0         
_________________________________________________________________
flatten_1 (Flatten)          (None, 2048)              0         
_________________________________________________________________
dense_1 (Dense)              (None, 128)               262272    
_________________________________________________________________
activation_1 (Activation)    (None, 128)               0         
_________________________________________________________________
dense_2 (Dense)              (None, 128)               16512     
_________________________________________________________________
activation_2 (Activation)    (None, 128)               0         
_________________________________________________________________
dense_3 (Dense)              (None, 10)                1290      
=================================================================
Total params: 677,738
Trainable params: 677,738
Non-trainable params: 0
_________________________________________________________________

2018-04-25 05:52:05.995980AM --- Model took seconds to train 393.0935115814209
2018-04-25 05:52:06.153222AM --- Accuracy on test data is: 76.85
2018-04-25 05:52:06.196651AM --- starting process for: (((conv*2)pool)*1)fc*1
2018-04-25 05:52:06.886199AM
_________________________________________________________________
Layer (type)                 Output Shape              Param #   
=================================================================
conv2d_1 (Conv2D)            (None, 32, 32, 32)        896       
_________________________________________________________________
conv2d_2 (Conv2D)            (None, 32, 32, 32)        9248      
_________________________________________________________________
max_pooling2d_1 (MaxPooling2 (None, 16, 16, 32)        0         
_________________________________________________________________
flatten_1 (Flatten)          (None, 8192)              0         
_________________________________________________________________
dense_1 (Dense)              (None, 128)               1048704   
_________________________________________________________________
activation_1 (Activation)    (None, 128)               0         
_________________________________________________________________
dense_2 (Dense)              (None, 10)                1290      
=================================================================
Total params: 1,060,138
Trainable params: 1,060,138
Non-trainable params: 0
_________________________________________________________________

2018-04-25 05:55:55.382876AM --- Model took seconds to train 228.48193287849426
2018-04-25 05:55:55.517996AM --- Accuracy on test data is: 66.05
2018-04-25 05:55:55.558233AM --- starting process for: (((conv*2)pool)*2)fc*2
2018-04-25 05:55:56.274755AM
_________________________________________________________________
Layer (type)                 Output Shape              Param #   
=================================================================
conv2d_1 (Conv2D)            (None, 32, 32, 32)        896       
_________________________________________________________________
conv2d_2 (Conv2D)            (None, 32, 32, 32)        9248      
_________________________________________________________________
max_pooling2d_1 (MaxPooling2 (None, 16, 16, 32)        0         
_________________________________________________________________
conv2d_3 (Conv2D)            (None, 16, 16, 64)        18496     
_________________________________________________________________
conv2d_4 (Conv2D)            (None, 16, 16, 128)       73856     
_________________________________________________________________
max_pooling2d_2 (MaxPooling2 (None, 8, 8, 128)         0         
_________________________________________________________________
flatten_1 (Flatten)          (None, 8192)              0         
_________________________________________________________________
dense_1 (Dense)              (None, 128)               1048704   
_________________________________________________________________
activation_1 (Activation)    (None, 128)               0         
_________________________________________________________________
dense_2 (Dense)              (None, 128)               16512     
_________________________________________________________________
activation_2 (Activation)    (None, 128)               0         
_________________________________________________________________
dense_3 (Dense)              (None, 10)                1290      
=================================================================
Total params: 1,169,002
Trainable params: 1,169,002
Non-trainable params: 0
_________________________________________________________________

2018-04-25 06:01:36.726119AM --- Model took seconds to train 340.4358322620392
2018-04-25 06:01:36.926319AM --- Accuracy on test data is: 76.55
2018-04-25 06:01:36.984558AM --- starting process for: (((conv*1)pool)*3)fc*1
2018-04-25 06:01:37.695278AM
_________________________________________________________________
Layer (type)                 Output Shape              Param #   
=================================================================
conv2d_1 (Conv2D)            (None, 32, 32, 32)        896       
_________________________________________________________________
max_pooling2d_1 (MaxPooling2 (None, 16, 16, 32)        0         
_________________________________________________________________
conv2d_2 (Conv2D)            (None, 16, 16, 32)        9248      
_________________________________________________________________
max_pooling2d_2 (MaxPooling2 (None, 8, 8, 32)          0         
_________________________________________________________________
conv2d_3 (Conv2D)            (None, 8, 8, 64)          18496     
_________________________________________________________________
max_pooling2d_3 (MaxPooling2 (None, 4, 4, 64)          0         
_________________________________________________________________
flatten_1 (Flatten)          (None, 1024)              0         
_________________________________________________________________
dense_1 (Dense)              (None, 128)               131200    
_________________________________________________________________
activation_1 (Activation)    (None, 128)               0         
_________________________________________________________________
dense_2 (Dense)              (None, 10)                1290      
=================================================================
Total params: 161,130
Trainable params: 161,130
Non-trainable params: 0
_________________________________________________________________

2018-04-25 06:04:34.975957AM --- Model took seconds to train 177.2657368183136
2018-04-25 06:04:35.075374AM --- Accuracy on test data is: 71.8
2018-04-25 06:04:35.116338AM --- starting process for: (((conv*2)pool)*2)fc*0
2018-04-25 06:04:35.821383AM
_________________________________________________________________
Layer (type)                 Output Shape              Param #   
=================================================================
conv2d_1 (Conv2D)            (None, 32, 32, 32)        896       
_________________________________________________________________
conv2d_2 (Conv2D)            (None, 32, 32, 32)        9248      
_________________________________________________________________
max_pooling2d_1 (MaxPooling2 (None, 16, 16, 32)        0         
_________________________________________________________________
conv2d_3 (Conv2D)            (None, 16, 16, 64)        18496     
_________________________________________________________________
conv2d_4 (Conv2D)            (None, 16, 16, 128)       73856     
_________________________________________________________________
max_pooling2d_2 (MaxPooling2 (None, 8, 8, 128)         0         
_________________________________________________________________
flatten_1 (Flatten)          (None, 8192)              0         
_________________________________________________________________
dense_1 (Dense)              (None, 10)                81930     
=================================================================
Total params: 184,426
Trainable params: 184,426
Non-trainable params: 0
_________________________________________________________________

2018-04-25 06:10:27.874278AM --- Model took seconds to train 351.9777407646179
2018-04-25 06:10:28.038269AM --- Accuracy on test data is: 73.3
2018-04-25 06:10:28.074679AM --- starting process for: (((conv*1)pool)*3)fc*0
2018-04-25 06:10:28.778434AM
_________________________________________________________________
Layer (type)                 Output Shape              Param #   
=================================================================
conv2d_1 (Conv2D)            (None, 32, 32, 32)        896       
_________________________________________________________________
max_pooling2d_1 (MaxPooling2 (None, 16, 16, 32)        0         
_________________________________________________________________
conv2d_2 (Conv2D)            (None, 16, 16, 32)        9248      
_________________________________________________________________
max_pooling2d_2 (MaxPooling2 (None, 8, 8, 32)          0         
_________________________________________________________________
conv2d_3 (Conv2D)            (None, 8, 8, 64)          18496     
_________________________________________________________________
max_pooling2d_3 (MaxPooling2 (None, 4, 4, 64)          0         
_________________________________________________________________
flatten_1 (Flatten)          (None, 1024)              0         
_________________________________________________________________
dense_1 (Dense)              (None, 10)                10250     
=================================================================
Total params: 38,890
Trainable params: 38,890
Non-trainable params: 0
_________________________________________________________________

2018-04-25 06:13:24.634692AM --- Model took seconds to train 175.84130096435547
2018-04-25 06:13:24.750460AM --- Accuracy on test data is: 71.5
2018-04-25 06:13:24.799045AM --- starting process for: (((conv*2)pool)*3)fc*1
2018-04-25 06:13:25.520953AM
_________________________________________________________________
Layer (type)                 Output Shape              Param #   
=================================================================
conv2d_1 (Conv2D)            (None, 32, 32, 32)        896       
_________________________________________________________________
conv2d_2 (Conv2D)            (None, 32, 32, 32)        9248      
_________________________________________________________________
max_pooling2d_1 (MaxPooling2 (None, 16, 16, 32)        0         
_________________________________________________________________
conv2d_3 (Conv2D)            (None, 16, 16, 64)        18496     
_________________________________________________________________
conv2d_4 (Conv2D)            (None, 16, 16, 128)       73856     
_________________________________________________________________
max_pooling2d_2 (MaxPooling2 (None, 8, 8, 128)         0         
_________________________________________________________________
conv2d_5 (Conv2D)            (None, 8, 8, 128)         147584    
_________________________________________________________________
conv2d_6 (Conv2D)            (None, 8, 8, 128)         147584    
_________________________________________________________________
max_pooling2d_3 (MaxPooling2 (None, 4, 4, 128)         0         
_________________________________________________________________
flatten_1 (Flatten)          (None, 2048)              0         
_________________________________________________________________
dense_1 (Dense)              (None, 128)               262272    
_________________________________________________________________
activation_1 (Activation)    (None, 128)               0         
_________________________________________________________________
dense_2 (Dense)              (None, 10)                1290      
=================================================================
Total params: 661,226
Trainable params: 661,226
Non-trainable params: 0
_________________________________________________________________

2018-04-25 06:19:54.947682AM --- Model took seconds to train 389.4115786552429
2018-04-25 06:19:55.099140AM --- Accuracy on test data is: 77.05
2018-04-25 06:19:55.137091AM --- starting process for: (((conv*2)pool)*2)fc*0
2018-04-25 06:19:55.846729AM
_________________________________________________________________
Layer (type)                 Output Shape              Param #   
=================================================================
conv2d_1 (Conv2D)            (None, 32, 32, 32)        896       
_________________________________________________________________
conv2d_2 (Conv2D)            (None, 32, 32, 32)        9248      
_________________________________________________________________
max_pooling2d_1 (MaxPooling2 (None, 16, 16, 32)        0         
_________________________________________________________________
conv2d_3 (Conv2D)            (None, 16, 16, 64)        18496     
_________________________________________________________________
conv2d_4 (Conv2D)            (None, 16, 16, 128)       73856     
_________________________________________________________________
max_pooling2d_2 (MaxPooling2 (None, 8, 8, 128)         0         
_________________________________________________________________
flatten_1 (Flatten)          (None, 8192)              0         
_________________________________________________________________
dense_1 (Dense)              (None, 10)                81930     
=================================================================
Total params: 184,426
Trainable params: 184,426
Non-trainable params: 0
_________________________________________________________________

2018-04-25 06:25:50.511285AM --- Model took seconds to train 354.6497299671173
2018-04-25 06:25:50.719531AM --- Accuracy on test data is: 74.05000000000001
2018-04-25 06:25:50.775552AM --- starting process for: (((conv*2)pool)*1)fc*1
2018-04-25 06:25:51.477755AM
_________________________________________________________________
Layer (type)                 Output Shape              Param #   
=================================================================
conv2d_1 (Conv2D)            (None, 32, 32, 32)        896       
_________________________________________________________________
conv2d_2 (Conv2D)            (None, 32, 32, 32)        9248      
_________________________________________________________________
max_pooling2d_1 (MaxPooling2 (None, 16, 16, 32)        0         
_________________________________________________________________
flatten_1 (Flatten)          (None, 8192)              0         
_________________________________________________________________
dense_1 (Dense)              (None, 128)               1048704   
_________________________________________________________________
activation_1 (Activation)    (None, 128)               0         
_________________________________________________________________
dense_2 (Dense)              (None, 10)                1290      
=================================================================
Total params: 1,060,138
Trainable params: 1,060,138
Non-trainable params: 0
_________________________________________________________________

2018-04-25 06:29:37.316505AM --- Model took seconds to train 225.82399535179138
2018-04-25 06:29:37.477554AM --- Accuracy on test data is: 66.0
2018-04-25 06:29:37.523744AM --- starting process for: (((conv*2)vazio)*1)fc*2
2018-04-25 06:29:38.231025AM
_________________________________________________________________
Layer (type)                 Output Shape              Param #   
=================================================================
conv2d_1 (Conv2D)            (None, 32, 32, 32)        896       
_________________________________________________________________
conv2d_2 (Conv2D)            (None, 32, 32, 32)        9248      
_________________________________________________________________
flatten_1 (Flatten)          (None, 32768)             0         
_________________________________________________________________
dense_1 (Dense)              (None, 128)               4194432   
_________________________________________________________________
activation_1 (Activation)    (None, 128)               0         
_________________________________________________________________
dense_2 (Dense)              (None, 128)               16512     
_________________________________________________________________
activation_2 (Activation)    (None, 128)               0         
_________________________________________________________________
dense_3 (Dense)              (None, 10)                1290      
=================================================================
Total params: 4,222,378
Trainable params: 4,222,378
Non-trainable params: 0
_________________________________________________________________

2018-04-25 06:34:02.077842AM --- Model took seconds to train 263.83198976516724
2018-04-25 06:34:02.356756AM --- Accuracy on test data is: 62.150000000000006
2018-04-25 06:34:02.399621AM --- starting process for: (((conv*2)pool)*3)fc*2
2018-04-25 06:34:03.127087AM
_________________________________________________________________
Layer (type)                 Output Shape              Param #   
=================================================================
conv2d_1 (Conv2D)            (None, 32, 32, 32)        896       
_________________________________________________________________
conv2d_2 (Conv2D)            (None, 32, 32, 32)        9248      
_________________________________________________________________
max_pooling2d_1 (MaxPooling2 (None, 16, 16, 32)        0         
_________________________________________________________________
conv2d_3 (Conv2D)            (None, 16, 16, 64)        18496     
_________________________________________________________________
conv2d_4 (Conv2D)            (None, 16, 16, 128)       73856     
_________________________________________________________________
max_pooling2d_2 (MaxPooling2 (None, 8, 8, 128)         0         
_________________________________________________________________
conv2d_5 (Conv2D)            (None, 8, 8, 128)         147584    
_________________________________________________________________
conv2d_6 (Conv2D)            (None, 8, 8, 128)         147584    
_________________________________________________________________
max_pooling2d_3 (MaxPooling2 (None, 4, 4, 128)         0         
_________________________________________________________________
flatten_1 (Flatten)          (None, 2048)              0         
_________________________________________________________________
dense_1 (Dense)              (None, 128)               262272    
_________________________________________________________________
activation_1 (Activation)    (None, 128)               0         
_________________________________________________________________
dense_2 (Dense)              (None, 128)               16512     
_________________________________________________________________
activation_2 (Activation)    (None, 128)               0         
_________________________________________________________________
dense_3 (Dense)              (None, 10)                1290      
=================================================================
Total params: 677,738
Trainable params: 677,738
Non-trainable params: 0
_________________________________________________________________

2018-04-25 06:40:36.896773AM --- Model took seconds to train 393.7545688152313
2018-04-25 06:40:37.035817AM --- Accuracy on test data is: 76.8
2018-04-25 06:40:37.071940AM --- starting process for: (((conv*2)pool)*2)fc*0
2018-04-25 06:40:37.782684AM
_________________________________________________________________
Layer (type)                 Output Shape              Param #   
=================================================================
conv2d_1 (Conv2D)            (None, 32, 32, 32)        896       
_________________________________________________________________
conv2d_2 (Conv2D)            (None, 32, 32, 32)        9248      
_________________________________________________________________
max_pooling2d_1 (MaxPooling2 (None, 16, 16, 32)        0         
_________________________________________________________________
conv2d_3 (Conv2D)            (None, 16, 16, 64)        18496     
_________________________________________________________________
conv2d_4 (Conv2D)            (None, 16, 16, 128)       73856     
_________________________________________________________________
max_pooling2d_2 (MaxPooling2 (None, 8, 8, 128)         0         
_________________________________________________________________
flatten_1 (Flatten)          (None, 8192)              0         
_________________________________________________________________
dense_1 (Dense)              (None, 10)                81930     
=================================================================
Total params: 184,426
Trainable params: 184,426
Non-trainable params: 0
_________________________________________________________________

2018-04-25 06:46:31.614795AM --- Model took seconds to train 353.81713700294495
2018-04-25 06:46:31.751721AM --- Accuracy on test data is: 75.05
2018-04-25 06:46:31.789450AM --- starting process for: (((conv*2)pool)*3)fc*1
2018-04-25 06:46:32.512156AM
_________________________________________________________________
Layer (type)                 Output Shape              Param #   
=================================================================
conv2d_1 (Conv2D)            (None, 32, 32, 32)        896       
_________________________________________________________________
conv2d_2 (Conv2D)            (None, 32, 32, 32)        9248      
_________________________________________________________________
max_pooling2d_1 (MaxPooling2 (None, 16, 16, 32)        0         
_________________________________________________________________
conv2d_3 (Conv2D)            (None, 16, 16, 64)        18496     
_________________________________________________________________
conv2d_4 (Conv2D)            (None, 16, 16, 128)       73856     
_________________________________________________________________
max_pooling2d_2 (MaxPooling2 (None, 8, 8, 128)         0         
_________________________________________________________________
conv2d_5 (Conv2D)            (None, 8, 8, 128)         147584    
_________________________________________________________________
conv2d_6 (Conv2D)            (None, 8, 8, 128)         147584    
_________________________________________________________________
max_pooling2d_3 (MaxPooling2 (None, 4, 4, 128)         0         
_________________________________________________________________
flatten_1 (Flatten)          (None, 2048)              0         
_________________________________________________________________
dense_1 (Dense)              (None, 128)               262272    
_________________________________________________________________
activation_1 (Activation)    (None, 128)               0         
_________________________________________________________________
dense_2 (Dense)              (None, 10)                1290      
=================================================================
Total params: 661,226
Trainable params: 661,226
Non-trainable params: 0
_________________________________________________________________

2018-04-25 06:52:59.565521AM --- Model took seconds to train 387.03803753852844
2018-04-25 06:52:59.716260AM --- Accuracy on test data is: 77.0
2018-04-25 06:52:59.753276AM --- starting process for: (((conv*1)pool)*2)fc*2
2018-04-25 06:53:00.462748AM
_________________________________________________________________
Layer (type)                 Output Shape              Param #   
=================================================================
conv2d_1 (Conv2D)            (None, 32, 32, 32)        896       
_________________________________________________________________
max_pooling2d_1 (MaxPooling2 (None, 16, 16, 32)        0         
_________________________________________________________________
conv2d_2 (Conv2D)            (None, 16, 16, 32)        9248      
_________________________________________________________________
max_pooling2d_2 (MaxPooling2 (None, 8, 8, 32)          0         
_________________________________________________________________
flatten_1 (Flatten)          (None, 2048)              0         
_________________________________________________________________
dense_1 (Dense)              (None, 128)               262272    
_________________________________________________________________
activation_1 (Activation)    (None, 128)               0         
_________________________________________________________________
dense_2 (Dense)              (None, 128)               16512     
_________________________________________________________________
activation_2 (Activation)    (None, 128)               0         
_________________________________________________________________
dense_3 (Dense)              (None, 10)                1290      
=================================================================
Total params: 290,218
Trainable params: 290,218
Non-trainable params: 0
_________________________________________________________________

2018-04-25 06:55:53.697052AM --- Model took seconds to train 173.21955227851868
2018-04-25 06:55:53.798337AM --- Accuracy on test data is: 67.25
2018-04-25 06:55:53.839662AM --- starting process for: (((conv*1)pool)*3)fc*2
2018-04-25 06:55:54.611815AM
_________________________________________________________________
Layer (type)                 Output Shape              Param #   
=================================================================
conv2d_1 (Conv2D)            (None, 32, 32, 32)        896       
_________________________________________________________________
max_pooling2d_1 (MaxPooling2 (None, 16, 16, 32)        0         
_________________________________________________________________
conv2d_2 (Conv2D)            (None, 16, 16, 32)        9248      
_________________________________________________________________
max_pooling2d_2 (MaxPooling2 (None, 8, 8, 32)          0         
_________________________________________________________________
conv2d_3 (Conv2D)            (None, 8, 8, 64)          18496     
_________________________________________________________________
max_pooling2d_3 (MaxPooling2 (None, 4, 4, 64)          0         
_________________________________________________________________
flatten_1 (Flatten)          (None, 1024)              0         
_________________________________________________________________
dense_1 (Dense)              (None, 128)               131200    
_________________________________________________________________
activation_1 (Activation)    (None, 128)               0         
_________________________________________________________________
dense_2 (Dense)              (None, 128)               16512     
_________________________________________________________________
activation_2 (Activation)    (None, 128)               0         
_________________________________________________________________
dense_3 (Dense)              (None, 10)                1290      
=================================================================
Total params: 177,642
Trainable params: 177,642
Non-trainable params: 0
_________________________________________________________________

2018-04-25 06:59:01.061155AM --- Model took seconds to train 186.43430590629578
2018-04-25 06:59:01.166725AM --- Accuracy on test data is: 72.0
2018-04-25 06:59:01.206019AM --- starting process for: (((conv*2)pool)*1)fc*2
2018-04-25 06:59:01.913271AM
_________________________________________________________________
Layer (type)                 Output Shape              Param #   
=================================================================
conv2d_1 (Conv2D)            (None, 32, 32, 32)        896       
_________________________________________________________________
conv2d_2 (Conv2D)            (None, 32, 32, 32)        9248      
_________________________________________________________________
max_pooling2d_1 (MaxPooling2 (None, 16, 16, 32)        0         
_________________________________________________________________
flatten_1 (Flatten)          (None, 8192)              0         
_________________________________________________________________
dense_1 (Dense)              (None, 128)               1048704   
_________________________________________________________________
activation_1 (Activation)    (None, 128)               0         
_________________________________________________________________
dense_2 (Dense)              (None, 128)               16512     
_________________________________________________________________
activation_2 (Activation)    (None, 128)               0         
_________________________________________________________________
dense_3 (Dense)              (None, 10)                1290      
=================================================================
Total params: 1,076,650
Trainable params: 1,076,650
Non-trainable params: 0
_________________________________________________________________

2018-04-25 07:02:55.444741AM --- Model took seconds to train 233.51630687713623
2018-04-25 07:02:55.603981AM --- Accuracy on test data is: 66.55
2018-04-25 07:02:55.651555AM --- starting process for: (((conv*1)pool)*3)fc*1
2018-04-25 07:02:56.357347AM
_________________________________________________________________
Layer (type)                 Output Shape              Param #   
=================================================================
conv2d_1 (Conv2D)            (None, 32, 32, 32)        896       
_________________________________________________________________
max_pooling2d_1 (MaxPooling2 (None, 16, 16, 32)        0         
_________________________________________________________________
conv2d_2 (Conv2D)            (None, 16, 16, 32)        9248      
_________________________________________________________________
max_pooling2d_2 (MaxPooling2 (None, 8, 8, 32)          0         
_________________________________________________________________
conv2d_3 (Conv2D)            (None, 8, 8, 64)          18496     
_________________________________________________________________
max_pooling2d_3 (MaxPooling2 (None, 4, 4, 64)          0         
_________________________________________________________________
flatten_1 (Flatten)          (None, 1024)              0         
_________________________________________________________________
dense_1 (Dense)              (None, 128)               131200    
_________________________________________________________________
activation_1 (Activation)    (None, 128)               0         
_________________________________________________________________
dense_2 (Dense)              (None, 10)                1290      
=================================================================
Total params: 161,130
Trainable params: 161,130
Non-trainable params: 0
_________________________________________________________________

2018-04-25 07:05:56.946210AM --- Model took seconds to train 180.57362961769104
2018-04-25 07:05:57.046111AM --- Accuracy on test data is: 71.35000000000001
2018-04-25 07:05:57.085791AM --- starting process for: (((conv*1)pool)*3)fc*0
2018-04-25 07:05:57.791441AM
_________________________________________________________________
Layer (type)                 Output Shape              Param #   
=================================================================
conv2d_1 (Conv2D)            (None, 32, 32, 32)        896       
_________________________________________________________________
max_pooling2d_1 (MaxPooling2 (None, 16, 16, 32)        0         
_________________________________________________________________
conv2d_2 (Conv2D)            (None, 16, 16, 32)        9248      
_________________________________________________________________
max_pooling2d_2 (MaxPooling2 (None, 8, 8, 32)          0         
_________________________________________________________________
conv2d_3 (Conv2D)            (None, 8, 8, 64)          18496     
_________________________________________________________________
max_pooling2d_3 (MaxPooling2 (None, 4, 4, 64)          0         
_________________________________________________________________
flatten_1 (Flatten)          (None, 1024)              0         
_________________________________________________________________
dense_1 (Dense)              (None, 10)                10250     
=================================================================
Total params: 38,890
Trainable params: 38,890
Non-trainable params: 0
_________________________________________________________________

2018-04-25 07:08:54.447237AM --- Model took seconds to train 176.64037132263184
2018-04-25 07:08:54.539274AM --- Accuracy on test data is: 70.55
2018-04-25 07:08:54.583360AM --- starting process for: (((conv*2)pool)*3)fc*2
2018-04-25 07:08:55.308589AM
_________________________________________________________________
Layer (type)                 Output Shape              Param #   
=================================================================
conv2d_1 (Conv2D)            (None, 32, 32, 32)        896       
_________________________________________________________________
conv2d_2 (Conv2D)            (None, 32, 32, 32)        9248      
_________________________________________________________________
max_pooling2d_1 (MaxPooling2 (None, 16, 16, 32)        0         
_________________________________________________________________
conv2d_3 (Conv2D)            (None, 16, 16, 64)        18496     
_________________________________________________________________
conv2d_4 (Conv2D)            (None, 16, 16, 128)       73856     
_________________________________________________________________
max_pooling2d_2 (MaxPooling2 (None, 8, 8, 128)         0         
_________________________________________________________________
conv2d_5 (Conv2D)            (None, 8, 8, 128)         147584    
_________________________________________________________________
conv2d_6 (Conv2D)            (None, 8, 8, 128)         147584    
_________________________________________________________________
max_pooling2d_3 (MaxPooling2 (None, 4, 4, 128)         0         
_________________________________________________________________
flatten_1 (Flatten)          (None, 2048)              0         
_________________________________________________________________
dense_1 (Dense)              (None, 128)               262272    
_________________________________________________________________
activation_1 (Activation)    (None, 128)               0         
_________________________________________________________________
dense_2 (Dense)              (None, 128)               16512     
_________________________________________________________________
activation_2 (Activation)    (None, 128)               0         
_________________________________________________________________
dense_3 (Dense)              (None, 10)                1290      
=================================================================
Total params: 677,738
Trainable params: 677,738
Non-trainable params: 0
_________________________________________________________________

2018-04-25 07:15:30.970609AM --- Model took seconds to train 395.64665603637695
2018-04-25 07:15:31.121097AM --- Accuracy on test data is: 77.2
2018-04-25 07:15:31.157949AM --- starting process for: (((conv*1)vazio)*3)fc*1
2018-04-25 07:15:31.865225AM
_________________________________________________________________
Layer (type)                 Output Shape              Param #   
=================================================================
conv2d_1 (Conv2D)            (None, 32, 32, 32)        896       
_________________________________________________________________
conv2d_2 (Conv2D)            (None, 32, 32, 32)        9248      
_________________________________________________________________
conv2d_3 (Conv2D)            (None, 32, 32, 64)        18496     
_________________________________________________________________
flatten_1 (Flatten)          (None, 65536)             0         
_________________________________________________________________
dense_1 (Dense)              (None, 128)               8388736   
_________________________________________________________________
activation_1 (Activation)    (None, 128)               0         
_________________________________________________________________
dense_2 (Dense)              (None, 10)                1290      
=================================================================
Total params: 8,418,666
Trainable params: 8,418,666
Non-trainable params: 0
_________________________________________________________________

2018-04-25 07:22:35.790152AM --- Model took seconds to train 423.9093427658081
2018-04-25 07:22:36.273071AM --- Accuracy on test data is: 62.74999999999999
2018-04-25 07:22:36.310925AM --- starting process for: (((conv*1)pool)*3)fc*0
2018-04-25 07:22:37.012738AM
_________________________________________________________________
Layer (type)                 Output Shape              Param #   
=================================================================
conv2d_1 (Conv2D)            (None, 32, 32, 32)        896       
_________________________________________________________________
max_pooling2d_1 (MaxPooling2 (None, 16, 16, 32)        0         
_________________________________________________________________
conv2d_2 (Conv2D)            (None, 16, 16, 32)        9248      
_________________________________________________________________
max_pooling2d_2 (MaxPooling2 (None, 8, 8, 32)          0         
_________________________________________________________________
conv2d_3 (Conv2D)            (None, 8, 8, 64)          18496     
_________________________________________________________________
max_pooling2d_3 (MaxPooling2 (None, 4, 4, 64)          0         
_________________________________________________________________
flatten_1 (Flatten)          (None, 1024)              0         
_________________________________________________________________
dense_1 (Dense)              (None, 10)                10250     
=================================================================
Total params: 38,890
Trainable params: 38,890
Non-trainable params: 0
_________________________________________________________________

2018-04-25 07:25:37.965017AM --- Model took seconds to train 180.93698382377625
2018-04-25 07:25:38.070551AM --- Accuracy on test data is: 70.19999999999999
2018-04-25 07:25:38.110875AM --- starting process for: (((conv*2)pool)*3)fc*0
2018-04-25 07:25:38.830744AM
_________________________________________________________________
Layer (type)                 Output Shape              Param #   
=================================================================
conv2d_1 (Conv2D)            (None, 32, 32, 32)        896       
_________________________________________________________________
conv2d_2 (Conv2D)            (None, 32, 32, 32)        9248      
_________________________________________________________________
max_pooling2d_1 (MaxPooling2 (None, 16, 16, 32)        0         
_________________________________________________________________
conv2d_3 (Conv2D)            (None, 16, 16, 64)        18496     
_________________________________________________________________
conv2d_4 (Conv2D)            (None, 16, 16, 128)       73856     
_________________________________________________________________
max_pooling2d_2 (MaxPooling2 (None, 8, 8, 128)         0         
_________________________________________________________________
conv2d_5 (Conv2D)            (None, 8, 8, 128)         147584    
_________________________________________________________________
conv2d_6 (Conv2D)            (None, 8, 8, 128)         147584    
_________________________________________________________________
max_pooling2d_3 (MaxPooling2 (None, 4, 4, 128)         0         
_________________________________________________________________
flatten_1 (Flatten)          (None, 2048)              0         
_________________________________________________________________
dense_1 (Dense)              (None, 10)                20490     
=================================================================
Total params: 418,154
Trainable params: 418,154
Non-trainable params: 0
_________________________________________________________________

2018-04-25 07:32:04.515291AM --- Model took seconds to train 385.66967821121216
2018-04-25 07:32:04.667003AM --- Accuracy on test data is: 77.64999999999999
2018-04-25 07:32:04.713865AM --- starting process for: (((conv*1)vazio)*3)fc*1
2018-04-25 07:32:05.419214AM
_________________________________________________________________
Layer (type)                 Output Shape              Param #   
=================================================================
conv2d_1 (Conv2D)            (None, 32, 32, 32)        896       
_________________________________________________________________
conv2d_2 (Conv2D)            (None, 32, 32, 32)        9248      
_________________________________________________________________
conv2d_3 (Conv2D)            (None, 32, 32, 64)        18496     
_________________________________________________________________
flatten_1 (Flatten)          (None, 65536)             0         
_________________________________________________________________
dense_1 (Dense)              (None, 128)               8388736   
_________________________________________________________________
activation_1 (Activation)    (None, 128)               0         
_________________________________________________________________
dense_2 (Dense)              (None, 10)                1290      
=================================================================
Total params: 8,418,666
Trainable params: 8,418,666
Non-trainable params: 0
_________________________________________________________________

2018-04-25 07:39:06.371034AM --- Model took seconds to train 420.93711972236633
2018-04-25 07:39:06.831117AM --- Accuracy on test data is: 63.05
2018-04-25 07:39:06.867367AM --- starting process for: (((conv*1)pool)*2)fc*1
2018-04-25 07:39:07.573536AM
_________________________________________________________________
Layer (type)                 Output Shape              Param #   
=================================================================
conv2d_1 (Conv2D)            (None, 32, 32, 32)        896       
_________________________________________________________________
max_pooling2d_1 (MaxPooling2 (None, 16, 16, 32)        0         
_________________________________________________________________
conv2d_2 (Conv2D)            (None, 16, 16, 32)        9248      
_________________________________________________________________
max_pooling2d_2 (MaxPooling2 (None, 8, 8, 32)          0         
_________________________________________________________________
flatten_1 (Flatten)          (None, 2048)              0         
_________________________________________________________________
dense_1 (Dense)              (None, 128)               262272    
_________________________________________________________________
activation_1 (Activation)    (None, 128)               0         
_________________________________________________________________
dense_2 (Dense)              (None, 10)                1290      
=================================================================
Total params: 273,706
Trainable params: 273,706
Non-trainable params: 0
_________________________________________________________________

2018-04-25 07:41:58.493699AM --- Model took seconds to train 170.90519523620605
2018-04-25 07:41:58.608077AM --- Accuracy on test data is: 67.2
2018-04-25 07:41:58.652604AM --- starting process for: (((conv*2)pool)*2)fc*0
2018-04-25 07:41:59.362120AM
_________________________________________________________________
Layer (type)                 Output Shape              Param #   
=================================================================
conv2d_1 (Conv2D)            (None, 32, 32, 32)        896       
_________________________________________________________________
conv2d_2 (Conv2D)            (None, 32, 32, 32)        9248      
_________________________________________________________________
max_pooling2d_1 (MaxPooling2 (None, 16, 16, 32)        0         
…
dense_2 (Dense)              (None, 128)               16512     
_________________________________________________________________
activation_2 (Activation)    (None, 128)               0         
_________________________________________________________________
dense_3 (Dense)              (None, 10)                1290      
=================================================================
Total params: 1,169,002
Trainable params: 1,169,002
Non-trainable params: 0
_________________________________________________________________

2018-04-25 21:08:21.526660PM --- Model took seconds to train 347.3514256477356
2018-04-25 21:08:21.714094PM --- Accuracy on test data is: 73.5
2018-04-25 21:08:21.761309PM --- starting process for: (((conv*2)pool)*2)fc*2
2018-04-25 21:08:22.481112PM
_________________________________________________________________
Layer (type)                 Output Shape              Param #   
=================================================================
conv2d_1 (Conv2D)            (None, 32, 32, 32)        896       
_________________________________________________________________
conv2d_2 (Conv2D)            (None, 32, 32, 32)        9248      
_________________________________________________________________
max_pooling2d_1 (MaxPooling2 (None, 16, 16, 32)        0         
_________________________________________________________________
conv2d_3 (Conv2D)            (None, 16, 16, 64)        18496     
_________________________________________________________________
conv2d_4 (Conv2D)            (None, 16, 16, 128)       73856     
_________________________________________________________________
max_pooling2d_2 (MaxPooling2 (None, 8, 8, 128)         0         
_________________________________________________________________
flatten_1 (Flatten)          (None, 8192)              0         
_________________________________________________________________
dense_1 (Dense)              (None, 128)               1048704   
_________________________________________________________________
activation_1 (Activation)    (None, 128)               0         
_________________________________________________________________
dense_2 (Dense)              (None, 128)               16512     
_________________________________________________________________
activation_2 (Activation)    (None, 128)               0         
_________________________________________________________________
dense_3 (Dense)              (None, 10)                1290      
=================================================================
Total params: 1,169,002
Trainable params: 1,169,002
Non-trainable params: 0
_________________________________________________________________

2018-04-25 21:14:17.190563PM --- Model took seconds to train 354.69407892227173
2018-04-25 21:14:17.365052PM --- Accuracy on test data is: 72.75
2018-04-25 21:14:17.406371PM --- starting process for: (((conv*1)vazio)*1)fc*1
2018-04-25 21:14:18.165831PM
_________________________________________________________________
Layer (type)                 Output Shape              Param #   
=================================================================
conv2d_1 (Conv2D)            (None, 32, 32, 32)        896       
_________________________________________________________________
flatten_1 (Flatten)          (None, 32768)             0         
_________________________________________________________________
dense_1 (Dense)              (None, 128)               4194432   
_________________________________________________________________
activation_1 (Activation)    (None, 128)               0         
_________________________________________________________________
dense_2 (Dense)              (None, 10)                1290      
=================================================================
Total params: 4,196,618
Trainable params: 4,196,618
Non-trainable params: 0
_________________________________________________________________

2018-04-25 21:17:23.297953PM --- Model took seconds to train 185.11689805984497
2018-04-25 21:17:23.557303PM --- Accuracy on test data is: 59.099999999999994
2018-04-25 21:17:23.594291PM --- starting process for: (((conv*2)pool)*3)fc*1
2018-04-25 21:17:24.317159PM
_________________________________________________________________
Layer (type)                 Output Shape              Param #   
=================================================================
conv2d_1 (Conv2D)            (None, 32, 32, 32)        896       
_________________________________________________________________
conv2d_2 (Conv2D)            (None, 32, 32, 32)        9248      
_________________________________________________________________
max_pooling2d_1 (MaxPooling2 (None, 16, 16, 32)        0         
_________________________________________________________________
conv2d_3 (Conv2D)            (None, 16, 16, 64)        18496     
_________________________________________________________________
conv2d_4 (Conv2D)            (None, 16, 16, 128)       73856     
_________________________________________________________________
max_pooling2d_2 (MaxPooling2 (None, 8, 8, 128)         0         
_________________________________________________________________
conv2d_5 (Conv2D)            (None, 8, 8, 128)         147584    
_________________________________________________________________
conv2d_6 (Conv2D)            (None, 8, 8, 128)         147584    
_________________________________________________________________
max_pooling2d_3 (MaxPooling2 (None, 4, 4, 128)         0         
_________________________________________________________________
flatten_1 (Flatten)          (None, 2048)              0         
_________________________________________________________________
dense_1 (Dense)              (None, 128)               262272    
_________________________________________________________________
activation_1 (Activation)    (None, 128)               0         
_________________________________________________________________
dense_2 (Dense)              (None, 10)                1290      
=================================================================
Total params: 661,226
Trainable params: 661,226
Non-trainable params: 0
_________________________________________________________________

2018-04-25 21:23:59.332787PM --- Model took seconds to train 395.0004506111145
2018-04-25 21:23:59.479938PM --- Accuracy on test data is: 77.7
2018-04-25 21:23:59.523642PM --- starting process for: (((conv*1)vazio)*3)fc*1
2018-04-25 21:24:00.287885PM
_________________________________________________________________
Layer (type)                 Output Shape              Param #   
=================================================================
conv2d_1 (Conv2D)            (None, 32, 32, 32)        896       
_________________________________________________________________
conv2d_2 (Conv2D)            (None, 32, 32, 32)        9248      
_________________________________________________________________
conv2d_3 (Conv2D)            (None, 32, 32, 64)        18496     
_________________________________________________________________
flatten_1 (Flatten)          (None, 65536)             0         
_________________________________________________________________
dense_1 (Dense)              (None, 128)               8388736   
_________________________________________________________________
activation_1 (Activation)    (None, 128)               0         
_________________________________________________________________
dense_2 (Dense)              (None, 10)                1290      
=================================================================
Total params: 8,418,666
Trainable params: 8,418,666
Non-trainable params: 0
_________________________________________________________________

2018-04-25 21:31:07.200136PM --- Model took seconds to train 426.897096157074
2018-04-25 21:31:07.684062PM --- Accuracy on test data is: 62.9
2018-04-25 21:31:07.720384PM --- starting process for: (((conv*1)pool)*2)fc*1
2018-04-25 21:31:08.424517PM
_________________________________________________________________
Layer (type)                 Output Shape              Param #   
=================================================================
conv2d_1 (Conv2D)            (None, 32, 32, 32)        896       
_________________________________________________________________
max_pooling2d_1 (MaxPooling2 (None, 16, 16, 32)        0         
_________________________________________________________________
conv2d_2 (Conv2D)            (None, 16, 16, 32)        9248      
_________________________________________________________________
max_pooling2d_2 (MaxPooling2 (None, 8, 8, 32)          0         
_________________________________________________________________
flatten_1 (Flatten)          (None, 2048)              0         
_________________________________________________________________
dense_1 (Dense)              (None, 128)               262272    
_________________________________________________________________
activation_1 (Activation)    (None, 128)               0         
_________________________________________________________________
dense_2 (Dense)              (None, 10)                1290      
=================================================================
Total params: 273,706
Trainable params: 273,706
Non-trainable params: 0
_________________________________________________________________

2018-04-25 21:33:58.842822PM --- Model took seconds to train 170.40329766273499
2018-04-25 21:33:58.937226PM --- Accuracy on test data is: 67.05
2018-04-25 21:33:58.980636PM --- starting process for: (((conv*2)pool)*2)fc*2
2018-04-25 21:33:59.696278PM
_________________________________________________________________
Layer (type)                 Output Shape              Param #   
=================================================================
conv2d_1 (Conv2D)            (None, 32, 32, 32)        896       
_________________________________________________________________
conv2d_2 (Conv2D)            (None, 32, 32, 32)        9248      
_________________________________________________________________
max_pooling2d_1 (MaxPooling2 (None, 16, 16, 32)        0         
_________________________________________________________________
conv2d_3 (Conv2D)            (None, 16, 16, 64)        18496     
_________________________________________________________________
conv2d_4 (Conv2D)            (None, 16, 16, 128)       73856     
_________________________________________________________________
max_pooling2d_2 (MaxPooling2 (None, 8, 8, 128)         0         
_________________________________________________________________
flatten_1 (Flatten)          (None, 8192)              0         
_________________________________________________________________
dense_1 (Dense)              (None, 128)               1048704   
_________________________________________________________________
activation_1 (Activation)    (None, 128)               0         
_________________________________________________________________
dense_2 (Dense)              (None, 128)               16512     
_________________________________________________________________
activation_2 (Activation)    (None, 128)               0         
_________________________________________________________________
dense_3 (Dense)              (None, 10)                1290      
=================================================================
Total params: 1,169,002
Trainable params: 1,169,002
Non-trainable params: 0
_________________________________________________________________

2018-04-25 21:39:53.271658PM --- Model took seconds to train 353.56004762649536
2018-04-25 21:39:53.446072PM --- Accuracy on test data is: 74.15
2018-04-25 21:39:53.487975PM --- starting process for: (((conv*2)pool)*2)fc*2
2018-04-25 21:39:54.208286PM
_________________________________________________________________
Layer (type)                 Output Shape              Param #   
=================================================================
conv2d_1 (Conv2D)            (None, 32, 32, 32)        896       
_________________________________________________________________
conv2d_2 (Conv2D)            (None, 32, 32, 32)        9248      
_________________________________________________________________
max_pooling2d_1 (MaxPooling2 (None, 16, 16, 32)        0         
_________________________________________________________________
conv2d_3 (Conv2D)            (None, 16, 16, 64)        18496     
_________________________________________________________________
conv2d_4 (Conv2D)            (None, 16, 16, 128)       73856     
_________________________________________________________________
max_pooling2d_2 (MaxPooling2 (None, 8, 8, 128)         0         
_________________________________________________________________
flatten_1 (Flatten)          (None, 8192)              0         
_________________________________________________________________
dense_1 (Dense)              (None, 128)               1048704   
_________________________________________________________________
activation_1 (Activation)    (None, 128)               0         
_________________________________________________________________
dense_2 (Dense)              (None, 128)               16512     
_________________________________________________________________
activation_2 (Activation)    (None, 128)               0         
_________________________________________________________________
dense_3 (Dense)              (None, 10)                1290      
=================================================================
Total params: 1,169,002
Trainable params: 1,169,002
Non-trainable params: 0
_________________________________________________________________

2018-04-25 21:45:47.644706PM --- Model took seconds to train 353.42064809799194
2018-04-25 21:45:47.817306PM --- Accuracy on test data is: 74.15
2018-04-25 21:45:47.865779PM --- starting process for: (((conv*2)pool)*1)fc*1
2018-04-25 21:45:48.567230PM
_________________________________________________________________
Layer (type)                 Output Shape              Param #   
=================================================================
conv2d_1 (Conv2D)            (None, 32, 32, 32)        896       
_________________________________________________________________
conv2d_2 (Conv2D)            (None, 32, 32, 32)        9248      
_________________________________________________________________
max_pooling2d_1 (MaxPooling2 (None, 16, 16, 32)        0         
_________________________________________________________________
flatten_1 (Flatten)          (None, 8192)              0         
_________________________________________________________________
dense_1 (Dense)              (None, 128)               1048704   
_________________________________________________________________
activation_1 (Activation)    (None, 128)               0         
_________________________________________________________________
dense_2 (Dense)              (None, 10)                1290      
=================================================================
Total params: 1,060,138
Trainable params: 1,060,138
Non-trainable params: 0
_________________________________________________________________

2018-04-25 21:49:44.916525PM --- Model took seconds to train 236.27079796791077
2018-04-25 21:49:45.079105PM --- Accuracy on test data is: 65.5
2018-04-25 21:49:45.122163PM --- starting process for: (((conv*2)vazio)*2)fc*2
2018-04-25 21:49:45.837222PM
_________________________________________________________________
Layer (type)                 Output Shape              Param #   
=================================================================
conv2d_1 (Conv2D)            (None, 32, 32, 32)        896       
_________________________________________________________________
conv2d_2 (Conv2D)            (None, 32, 32, 32)        9248      
_________________________________________________________________
conv2d_3 (Conv2D)            (None, 32, 32, 64)        18496     
_________________________________________________________________
conv2d_4 (Conv2D)            (None, 32, 32, 128)       73856     
_________________________________________________________________
flatten_1 (Flatten)          (None, 131072)            0         
_________________________________________________________________
dense_1 (Dense)              (None, 128)               16777344  
_________________________________________________________________
activation_1 (Activation)    (None, 128)               0         
_________________________________________________________________
dense_2 (Dense)              (None, 128)               16512     
_________________________________________________________________
activation_2 (Activation)    (None, 128)               0         
_________________________________________________________________
dense_3 (Dense)              (None, 10)                1290      
=================================================================
Total params: 16,897,642
Trainable params: 16,897,642
Non-trainable params: 0
_________________________________________________________________

2018-04-25 22:01:26.237987PM --- Model took seconds to train 700.3856871128082
2018-04-25 22:01:27.124690PM --- Accuracy on test data is: 64.1
2018-04-25 22:01:27.162020PM --- starting process for: (((conv*2)pool)*3)fc*0
2018-04-25 22:01:27.879924PM
_________________________________________________________________
Layer (type)                 Output Shape              Param #   
=================================================================
conv2d_1 (Conv2D)            (None, 32, 32, 32)        896       
_________________________________________________________________
conv2d_2 (Conv2D)            (None, 32, 32, 32)        9248      
_________________________________________________________________
max_pooling2d_1 (MaxPooling2 (None, 16, 16, 32)        0         
_________________________________________________________________
conv2d_3 (Conv2D)            (None, 16, 16, 64)        18496     
_________________________________________________________________
conv2d_4 (Conv2D)            (None, 16, 16, 128)       73856     
_________________________________________________________________
max_pooling2d_2 (MaxPooling2 (None, 8, 8, 128)         0         
_________________________________________________________________
conv2d_5 (Conv2D)            (None, 8, 8, 128)         147584    
_________________________________________________________________
conv2d_6 (Conv2D)            (None, 8, 8, 128)         147584    
_________________________________________________________________
max_pooling2d_3 (MaxPooling2 (None, 4, 4, 128)         0         
_________________________________________________________________
flatten_1 (Flatten)          (None, 2048)              0         
_________________________________________________________________
dense_1 (Dense)              (None, 10)                20490     
=================================================================
Total params: 418,154
Trainable params: 418,154
Non-trainable params: 0
_________________________________________________________________

2018-04-25 22:07:58.948163PM --- Model took seconds to train 390.9939615726471
2018-04-25 22:07:59.092481PM --- Accuracy on test data is: 76.5
2018-04-25 22:07:59.137385PM --- starting process for: (((conv*2)pool)*3)fc*0
2018-04-25 22:07:59.857957PM
_________________________________________________________________
Layer (type)                 Output Shape              Param #   
=================================================================
conv2d_1 (Conv2D)            (None, 32, 32, 32)        896       
_________________________________________________________________
conv2d_2 (Conv2D)            (None, 32, 32, 32)        9248      
_________________________________________________________________
max_pooling2d_1 (MaxPooling2 (None, 16, 16, 32)        0         
_________________________________________________________________
conv2d_3 (Conv2D)            (None, 16, 16, 64)        18496     
_________________________________________________________________
conv2d_4 (Conv2D)            (None, 16, 16, 128)       73856     
_________________________________________________________________
max_pooling2d_2 (MaxPooling2 (None, 8, 8, 128)         0         
_________________________________________________________________
conv2d_5 (Conv2D)            (None, 8, 8, 128)         147584    
_________________________________________________________________
conv2d_6 (Conv2D)            (None, 8, 8, 128)         147584    
_________________________________________________________________
max_pooling2d_3 (MaxPooling2 (None, 4, 4, 128)         0         
_________________________________________________________________
flatten_1 (Flatten)          (None, 2048)              0         
_________________________________________________________________
dense_1 (Dense)              (None, 10)                20490     
=================================================================
Total params: 418,154
Trainable params: 418,154
Non-trainable params: 0
_________________________________________________________________

2018-04-25 22:14:28.835687PM --- Model took seconds to train 388.9624991416931
2018-04-25 22:14:28.987921PM --- Accuracy on test data is: 76.2
2018-04-25 22:14:29.029544PM --- starting process for: (((conv*2)pool)*2)fc*2
2018-04-25 22:14:29.747498PM
_________________________________________________________________
Layer (type)                 Output Shape              Param #   
=================================================================
conv2d_1 (Conv2D)            (None, 32, 32, 32)        896       
_________________________________________________________________
conv2d_2 (Conv2D)            (None, 32, 32, 32)        9248      
_________________________________________________________________
max_pooling2d_1 (MaxPooling2 (None, 16, 16, 32)        0         
_________________________________________________________________
conv2d_3 (Conv2D)            (None, 16, 16, 64)        18496     
_________________________________________________________________
conv2d_4 (Conv2D)            (None, 16, 16, 128)       73856     
_________________________________________________________________
max_pooling2d_2 (MaxPooling2 (None, 8, 8, 128)         0         
_________________________________________________________________
flatten_1 (Flatten)          (None, 8192)              0         
_________________________________________________________________
dense_1 (Dense)              (None, 128)               1048704   
_________________________________________________________________
activation_1 (Activation)    (None, 128)               0         
_________________________________________________________________
dense_2 (Dense)              (None, 128)               16512     
_________________________________________________________________
activation_2 (Activation)    (None, 128)               0         
_________________________________________________________________
dense_3 (Dense)              (None, 10)                1290      
=================================================================
Total params: 1,169,002
Trainable params: 1,169,002
Non-trainable params: 0
_________________________________________________________________

2018-04-25 22:20:18.094745PM --- Model took seconds to train 348.3318920135498
2018-04-25 22:20:18.273788PM --- Accuracy on test data is: 74.5
2018-04-25 22:20:18.318006PM --- starting process for: (((conv*2)pool)*3)fc*0
2018-04-25 22:20:19.039835PM
_________________________________________________________________
Layer (type)                 Output Shape              Param #   
=================================================================
conv2d_1 (Conv2D)            (None, 32, 32, 32)        896       
_________________________________________________________________
conv2d_2 (Conv2D)            (None, 32, 32, 32)        9248      
_________________________________________________________________
max_pooling2d_1 (MaxPooling2 (None, 16, 16, 32)        0         
_________________________________________________________________
conv2d_3 (Conv2D)            (None, 16, 16, 64)        18496     
_________________________________________________________________
conv2d_4 (Conv2D)            (None, 16, 16, 128)       73856     
_________________________________________________________________
max_pooling2d_2 (MaxPooling2 (None, 8, 8, 128)         0         
_________________________________________________________________
conv2d_5 (Conv2D)            (None, 8, 8, 128)         147584    
_________________________________________________________________
conv2d_6 (Conv2D)            (None, 8, 8, 128)         147584    
_________________________________________________________________
max_pooling2d_3 (MaxPooling2 (None, 4, 4, 128)         0         
_________________________________________________________________
flatten_1 (Flatten)          (None, 2048)              0         
_________________________________________________________________
dense_1 (Dense)              (None, 10)                20490     
=================================================================
Total params: 418,154
Trainable params: 418,154
Non-trainable params: 0
_________________________________________________________________

2018-04-25 22:26:48.219262PM --- Model took seconds to train 389.163489818573
2018-04-25 22:26:48.363313PM --- Accuracy on test data is: 76.64999999999999
2018-04-25 22:26:48.401431PM --- starting process for: (((conv*1)vazio)*3)fc*1
2018-04-25 22:26:49.115244PM
_________________________________________________________________
Layer (type)                 Output Shape              Param #   
=================================================================
conv2d_1 (Conv2D)            (None, 32, 32, 32)        896       
_________________________________________________________________
conv2d_2 (Conv2D)            (None, 32, 32, 32)        9248      
_________________________________________________________________
conv2d_3 (Conv2D)            (None, 32, 32, 64)        18496     
_________________________________________________________________
flatten_1 (Flatten)          (None, 65536)             0         
_________________________________________________________________
dense_1 (Dense)              (None, 128)               8388736   
_________________________________________________________________
activation_1 (Activation)    (None, 128)               0         
_________________________________________________________________
dense_2 (Dense)              (None, 10)                1290      
=================================================================
Total params: 8,418,666
Trainable params: 8,418,666
Non-trainable params: 0
_________________________________________________________________

2018-04-25 22:33:49.920209PM --- Model took seconds to train 420.78977036476135
2018-04-25 22:33:50.414146PM --- Accuracy on test data is: 63.800000000000004
2018-04-25 22:33:50.450832PM --- starting process for: (((conv*2)pool)*3)fc*0
2018-04-25 22:33:51.167033PM
_________________________________________________________________
Layer (type)                 Output Shape              Param #   
=================================================================
conv2d_1 (Conv2D)            (None, 32, 32, 32)        896       
_________________________________________________________________
conv2d_2 (Conv2D)            (None, 32, 32, 32)        9248      
_________________________________________________________________
max_pooling2d_1 (MaxPooling2 (None, 16, 16, 32)        0         
_________________________________________________________________
conv2d_3 (Conv2D)            (None, 16, 16, 64)        18496     
_________________________________________________________________
conv2d_4 (Conv2D)            (None, 16, 16, 128)       73856     
_________________________________________________________________
max_pooling2d_2 (MaxPooling2 (None, 8, 8, 128)         0         
_________________________________________________________________
conv2d_5 (Conv2D)            (None, 8, 8, 128)         147584    
_________________________________________________________________
conv2d_6 (Conv2D)            (None, 8, 8, 128)         147584    
_________________________________________________________________
max_pooling2d_3 (MaxPooling2 (None, 4, 4, 128)         0         
_________________________________________________________________
flatten_1 (Flatten)          (None, 2048)              0         
_________________________________________________________________
dense_1 (Dense)              (None, 10)                20490     
=================================================================
Total params: 418,154
Trainable params: 418,154
Non-trainable params: 0
_________________________________________________________________

2018-04-25 22:40:19.936464PM --- Model took seconds to train 388.7541301250458
2018-04-25 22:40:20.081833PM --- Accuracy on test data is: 76.4
2018-04-25 22:40:20.122376PM --- starting process for: (((conv*2)pool)*3)fc*1
2018-04-25 22:40:20.849629PM
_________________________________________________________________
Layer (type)                 Output Shape              Param #   
=================================================================
conv2d_1 (Conv2D)            (None, 32, 32, 32)        896       
_________________________________________________________________
conv2d_2 (Conv2D)            (None, 32, 32, 32)        9248      
_________________________________________________________________
max_pooling2d_1 (MaxPooling2 (None, 16, 16, 32)        0         
_________________________________________________________________
conv2d_3 (Conv2D)            (None, 16, 16, 64)        18496     
_________________________________________________________________
conv2d_4 (Conv2D)            (None, 16, 16, 128)       73856     
_________________________________________________________________
max_pooling2d_2 (MaxPooling2 (None, 8, 8, 128)         0         
_________________________________________________________________
conv2d_5 (Conv2D)            (None, 8, 8, 128)         147584    
_________________________________________________________________
conv2d_6 (Conv2D)            (None, 8, 8, 128)         147584    
_________________________________________________________________
max_pooling2d_3 (MaxPooling2 (None, 4, 4, 128)         0         
_________________________________________________________________
flatten_1 (Flatten)          (None, 2048)              0         
_________________________________________________________________
dense_1 (Dense)              (None, 128)               262272    
_________________________________________________________________
activation_1 (Activation)    (None, 128)               0         
_________________________________________________________________
dense_2 (Dense)              (None, 10)                1290      
=================================================================
Total params: 661,226
Trainable params: 661,226
Non-trainable params: 0
_________________________________________________________________

2018-04-25 22:46:53.296114PM --- Model took seconds to train 392.4305922985077
2018-04-25 22:46:53.448691PM --- Accuracy on test data is: 78.55
2018-04-25 22:46:53.489974PM --- starting process for: (((conv*2)pool)*1)fc*2
2018-04-25 22:46:54.194682PM
_________________________________________________________________
Layer (type)                 Output Shape              Param #   
=================================================================
conv2d_1 (Conv2D)            (None, 32, 32, 32)        896       
_________________________________________________________________
conv2d_2 (Conv2D)            (None, 32, 32, 32)        9248      
_________________________________________________________________
max_pooling2d_1 (MaxPooling2 (None, 16, 16, 32)        0         
_________________________________________________________________
flatten_1 (Flatten)          (None, 8192)              0         
_________________________________________________________________
dense_1 (Dense)              (None, 128)               1048704   
_________________________________________________________________
activation_1 (Activation)    (None, 128)               0         
_________________________________________________________________
dense_2 (Dense)              (None, 128)               16512     
_________________________________________________________________
activation_2 (Activation)    (None, 128)               0         
_________________________________________________________________
dense_3 (Dense)              (None, 10)                1290      
=================================================================
Total params: 1,076,650
Trainable params: 1,076,650
Non-trainable params: 0
_________________________________________________________________

2018-04-25 22:50:57.599226PM --- Model took seconds to train 243.3892707824707
2018-04-25 22:50:57.755216PM --- Accuracy on test data is: 67.0
2018-04-25 22:50:57.800283PM --- starting process for: (((conv*2)pool)*3)fc*2
2018-04-25 22:50:58.531642PM
_________________________________________________________________
Layer (type)                 Output Shape              Param #   
=================================================================
conv2d_1 (Conv2D)            (None, 32, 32, 32)        896       
_________________________________________________________________
conv2d_2 (Conv2D)            (None, 32, 32, 32)        9248      
_________________________________________________________________
max_pooling2d_1 (MaxPooling2 (None, 16, 16, 32)        0         
_________________________________________________________________
conv2d_3 (Conv2D)            (None, 16, 16, 64)        18496     
_________________________________________________________________
conv2d_4 (Conv2D)            (None, 16, 16, 128)       73856     
_________________________________________________________________
max_pooling2d_2 (MaxPooling2 (None, 8, 8, 128)         0         
_________________________________________________________________
conv2d_5 (Conv2D)            (None, 8, 8, 128)         147584    
_________________________________________________________________
conv2d_6 (Conv2D)            (None, 8, 8, 128)         147584    
_________________________________________________________________
max_pooling2d_3 (MaxPooling2 (None, 4, 4, 128)         0         
_________________________________________________________________
flatten_1 (Flatten)          (None, 2048)              0         
_________________________________________________________________
dense_1 (Dense)              (None, 128)               262272    
_________________________________________________________________
activation_1 (Activation)    (None, 128)               0         
_________________________________________________________________
dense_2 (Dense)              (None, 128)               16512     
_________________________________________________________________
activation_2 (Activation)    (None, 128)               0         
_________________________________________________________________
dense_3 (Dense)              (None, 10)                1290      
=================================================================
Total params: 677,738
Trainable params: 677,738
Non-trainable params: 0
_________________________________________________________________

2018-04-25 22:57:37.803461PM --- Model took seconds to train 399.2559189796448
2018-04-25 22:57:37.958259PM --- Accuracy on test data is: 79.3
2018-04-25 22:57:38.003071PM --- starting process for: (((conv*1)pool)*3)fc*1
2018-04-25 22:57:38.715292PM
_________________________________________________________________
Layer (type)                 Output Shape              Param #   
=================================================================
conv2d_1 (Conv2D)            (None, 32, 32, 32)        896       
_________________________________________________________________
max_pooling2d_1 (MaxPooling2 (None, 16, 16, 32)        0         
_________________________________________________________________
conv2d_2 (Conv2D)            (None, 16, 16, 32)        9248      
_________________________________________________________________
max_pooling2d_2 (MaxPooling2 (None, 8, 8, 32)          0         
_________________________________________________________________
conv2d_3 (Conv2D)            (None, 8, 8, 64)          18496     
_________________________________________________________________
max_pooling2d_3 (MaxPooling2 (None, 4, 4, 64)          0         
_________________________________________________________________
flatten_1 (Flatten)          (None, 1024)              0         
_________________________________________________________________
dense_1 (Dense)              (None, 128)               131200    
_________________________________________________________________
activation_1 (Activation)    (None, 128)               0         
_________________________________________________________________
dense_2 (Dense)              (None, 10)                1290      
=================================================================
Total params: 161,130
Trainable params: 161,130
Non-trainable params: 0
_________________________________________________________________

2018-04-25 23:00:50.874094PM --- Model took seconds to train 192.14336585998535
2018-04-25 23:00:50.974302PM --- Accuracy on test data is: 70.45
2018-04-25 23:00:51.020544PM --- starting process for: (((conv*2)vazio)*2)fc*0
2018-04-25 23:00:51.725661PM
_________________________________________________________________
Layer (type)                 Output Shape              Param #   
=================================================================
conv2d_1 (Conv2D)            (None, 32, 32, 32)        896       
_________________________________________________________________
conv2d_2 (Conv2D)            (None, 32, 32, 32)        9248      
_________________________________________________________________
conv2d_3 (Conv2D)            (None, 32, 32, 64)        18496     
_________________________________________________________________
conv2d_4 (Conv2D)            (None, 32, 32, 128)       73856     
_________________________________________________________________
flatten_1 (Flatten)          (None, 131072)            0         
_________________________________________________________________
dense_1 (Dense)              (None, 10)                1310730   
=================================================================
Total params: 1,413,226
Trainable params: 1,413,226
Non-trainable params: 0
_________________________________________________________________

2018-04-25 23:17:55.915406PM --- Model took seconds to train 1024.175002336502
2018-04-25 23:17:56.763966PM --- Accuracy on test data is: 64.45
2018-04-25 23:17:56.799932PM --- starting process for: (((conv*2)pool)*3)fc*2
2018-04-25 23:17:57.623030PM
_________________________________________________________________
Layer (type)                 Output Shape              Param #   
=================================================================
conv2d_1 (Conv2D)            (None, 32, 32, 32)        896       
_________________________________________________________________
conv2d_2 (Conv2D)            (None, 32, 32, 32)        9248      
_________________________________________________________________
max_pooling2d_1 (MaxPooling2 (None, 16, 16, 32)        0         
_________________________________________________________________
conv2d_3 (Conv2D)            (None, 16, 16, 64)        18496     
_________________________________________________________________
conv2d_4 (Conv2D)            (None, 16, 16, 128)       73856     
_________________________________________________________________
max_pooling2d_2 (MaxPooling2 (None, 8, 8, 128)         0         
_________________________________________________________________
conv2d_5 (Conv2D)            (None, 8, 8, 128)         147584    
_________________________________________________________________
conv2d_6 (Conv2D)            (None, 8, 8, 128)         147584    
_________________________________________________________________
max_pooling2d_3 (MaxPooling2 (None, 4, 4, 128)         0         
_________________________________________________________________
flatten_1 (Flatten)          (None, 2048)              0         
_________________________________________________________________
dense_1 (Dense)              (None, 128)               262272    
_________________________________________________________________
activation_1 (Activation)    (None, 128)               0         
_________________________________________________________________
dense_2 (Dense)              (None, 128)               16512     
_________________________________________________________________
activation_2 (Activation)    (None, 128)               0         
_________________________________________________________________
dense_3 (Dense)              (None, 10)                1290      
=================================================================
Total params: 677,738
Trainable params: 677,738
Non-trainable params: 0
_________________________________________________________________

2018-04-25 23:24:34.946143PM --- Model took seconds to train 397.3077914714813
2018-04-25 23:24:35.103941PM --- Accuracy on test data is: 77.2
2018-04-25 23:24:35.146906PM --- starting process for: (((conv*2)pool)*2)fc*2
2018-04-25 23:24:35.858402PM
_________________________________________________________________
Layer (type)                 Output Shape              Param #   
=================================================================
conv2d_1 (Conv2D)            (None, 32, 32, 32)        896       
_________________________________________________________________
conv2d_2 (Conv2D)            (None, 32, 32, 32)        9248      
_________________________________________________________________
max_pooling2d_1 (MaxPooling2 (None, 16, 16, 32)        0         
_________________________________________________________________
conv2d_3 (Conv2D)            (None, 16, 16, 64)        18496     
_________________________________________________________________
conv2d_4 (Conv2D)            (None, 16, 16, 128)       73856     
_________________________________________________________________
max_pooling2d_2 (MaxPooling2 (None, 8, 8, 128)         0         
_________________________________________________________________
flatten_1 (Flatten)          (None, 8192)              0         
_________________________________________________________________
dense_1 (Dense)              (None, 128)               1048704   
_________________________________________________________________
activation_1 (Activation)    (None, 128)               0         
_________________________________________________________________
dense_2 (Dense)              (None, 128)               16512     
_________________________________________________________________
activation_2 (Activation)    (None, 128)               0         
_________________________________________________________________
dense_3 (Dense)              (None, 10)                1290      
=================================================================
Total params: 1,169,002
Trainable params: 1,169,002
Non-trainable params: 0
_________________________________________________________________

2018-04-25 23:30:22.718190PM --- Model took seconds to train 346.8442795276642
2018-04-25 23:30:22.896242PM --- Accuracy on test data is: 74.3
2018-04-25 23:30:22.943596PM --- starting process for: (((conv*1)pool)*3)fc*2
2018-04-25 23:30:23.656200PM
_________________________________________________________________
Layer (type)                 Output Shape              Param #   
=================================================================
conv2d_1 (Conv2D)            (None, 32, 32, 32)        896       
_________________________________________________________________
max_pooling2d_1 (MaxPooling2 (None, 16, 16, 32)        0         
_________________________________________________________________
conv2d_2 (Conv2D)            (None, 16, 16, 32)        9248      
_________________________________________________________________
max_pooling2d_2 (MaxPooling2 (None, 8, 8, 32)          0         
_________________________________________________________________
conv2d_3 (Conv2D)            (None, 8, 8, 64)          18496     
_________________________________________________________________
max_pooling2d_3 (MaxPooling2 (None, 4, 4, 64)          0         
_________________________________________________________________
flatten_1 (Flatten)          (None, 1024)              0         
_________________________________________________________________
dense_1 (Dense)              (None, 128)               131200    
_________________________________________________________________
activation_1 (Activation)    (None, 128)               0         
_________________________________________________________________
dense_2 (Dense)              (None, 128)               16512     
_________________________________________________________________
activation_2 (Activation)    (None, 128)               0         
_________________________________________________________________
dense_3 (Dense)              (None, 10)                1290      
=================================================================
Total params: 177,642
Trainable params: 177,642
Non-trainable params: 0
_________________________________________________________________

2018-04-25 23:33:37.504073PM --- Model took seconds to train 193.83282947540283
2018-04-25 23:33:37.613863PM --- Accuracy on test data is: 71.89999999999999
2018-04-25 23:33:37.659214PM --- starting process for: (((conv*2)vazio)*3)fc*2
2018-04-25 23:33:38.385950PM
_________________________________________________________________
Layer (type)                 Output Shape              Param #   
=================================================================
conv2d_1 (Conv2D)            (None, 32, 32, 32)        896       
_________________________________________________________________
conv2d_2 (Conv2D)            (None, 32, 32, 32)        9248      
_________________________________________________________________
conv2d_3 (Conv2D)            (None, 32, 32, 64)        18496     
_________________________________________________________________
conv2d_4 (Conv2D)            (None, 32, 32, 128)       73856     
_________________________________________________________________
conv2d_5 (Conv2D)            (None, 32, 32, 128)       147584    
_________________________________________________________________
conv2d_6 (Conv2D)            (None, 32, 32, 128)       147584    
_________________________________________________________________
flatten_1 (Flatten)          (None, 131072)            0         
_________________________________________________________________
dense_1 (Dense)              (None, 128)               16777344  
_________________________________________________________________
activation_1 (Activation)    (None, 128)               0         
_________________________________________________________________
dense_2 (Dense)              (None, 128)               16512     
_________________________________________________________________
activation_2 (Activation)    (None, 128)               0         
_________________________________________________________________
dense_3 (Dense)              (None, 10)                1290      
=================================================================
Total params: 17,192,810
Trainable params: 17,192,810
Non-trainable params: 0
_________________________________________________________________

2018-04-25 23:54:39.640518PM --- Model took seconds to train 1261.2388508319855
2018-04-25 23:54:40.638072PM --- Accuracy on test data is: 64.5
2018-04-25 23:54:40.674887PM --- starting process for: (((conv*2)pool)*2)fc*1
2018-04-25 23:54:41.388805PM
_________________________________________________________________
Layer (type)                 Output Shape              Param #   
=================================================================
conv2d_1 (Conv2D)            (None, 32, 32, 32)        896       
_________________________________________________________________
conv2d_2 (Conv2D)            (None, 32, 32, 32)        9248      
_________________________________________________________________
max_pooling2d_1 (MaxPooling2 (None, 16, 16, 32)        0         
_________________________________________________________________
conv2d_3 (Conv2D)            (None, 16, 16, 64)        18496     
_________________________________________________________________
conv2d_4 (Conv2D)            (None, 16, 16, 128)       73856     
_________________________________________________________________
max_pooling2d_2 (MaxPooling2 (None, 8, 8, 128)         0         
_________________________________________________________________
flatten_1 (Flatten)          (None, 8192)              0         
_________________________________________________________________
dense_1 (Dense)              (None, 128)               1048704   
_________________________________________________________________
activation_1 (Activation)    (None, 128)               0         
_________________________________________________________________
dense_2 (Dense)              (None, 10)                1290      
=================================================================
Total params: 1,152,490
Trainable params: 1,152,490
Non-trainable params: 0
_________________________________________________________________
