
2018-04-30 00:06:49.353804AM --- Model took seconds to train 701.1829214096069
2018-04-30 00:06:50.242563AM --- Accuracy on test data is: 62.8
2018-04-30 00:06:50.283079AM --- starting process for: (((conv*2)pool)*3)fc*2
2018-04-30 00:06:51.019852AM
_________________________________________________________________
Layer (type)                 Output Shape              Param #   
=================================================================
conv2d_1 (Conv2D)            (None, 32, 32, 32)        896       
_________________________________________________________________
conv2d_2 (Conv2D)            (None, 32, 32, 32)        9248      
_________________________________________________________________
max_pooling2d_1 (MaxPooling2 (None, 16, 16, 32)        0         
_________________________________________________________________
conv2d_3 (Conv2D)            (None, 16, 16, 64)        18496     
_________________________________________________________________
conv2d_4 (Conv2D)            (None, 16, 16, 128)       73856     
_________________________________________________________________
max_pooling2d_2 (MaxPooling2 (None, 8, 8, 128)         0         
_________________________________________________________________
conv2d_5 (Conv2D)            (None, 8, 8, 128)         147584    
_________________________________________________________________
conv2d_6 (Conv2D)            (None, 8, 8, 128)         147584    
_________________________________________________________________
max_pooling2d_3 (MaxPooling2 (None, 4, 4, 128)         0         
_________________________________________________________________
flatten_1 (Flatten)          (None, 2048)              0         
_________________________________________________________________
dense_1 (Dense)              (None, 128)               262272    
_________________________________________________________________
activation_1 (Activation)    (None, 128)               0         
_________________________________________________________________
dense_2 (Dense)              (None, 128)               16512     
_________________________________________________________________
activation_2 (Activation)    (None, 128)               0         
_________________________________________________________________
dense_3 (Dense)              (None, 10)                1290      
=================================================================
Total params: 677,738
Trainable params: 677,738
Non-trainable params: 0
_________________________________________________________________

2018-04-30 00:13:06.810134AM --- Model took seconds to train 375.77490282058716
2018-04-30 00:13:06.968431AM --- Accuracy on test data is: 78.4
2018-04-30 00:13:07.017107AM --- starting process for: (((conv*2)vazio)*3)fc*2
2018-04-30 00:13:07.751677AM
_________________________________________________________________
Layer (type)                 Output Shape              Param #   
=================================================================
conv2d_1 (Conv2D)            (None, 32, 32, 32)        896       
_________________________________________________________________
conv2d_2 (Conv2D)            (None, 32, 32, 32)        9248      
_________________________________________________________________
conv2d_3 (Conv2D)            (None, 32, 32, 64)        18496     
_________________________________________________________________
conv2d_4 (Conv2D)            (None, 32, 32, 128)       73856     
_________________________________________________________________
conv2d_5 (Conv2D)            (None, 32, 32, 128)       147584    
_________________________________________________________________
conv2d_6 (Conv2D)            (None, 32, 32, 128)       147584    
_________________________________________________________________
flatten_1 (Flatten)          (None, 131072)            0         
_________________________________________________________________
dense_1 (Dense)              (None, 128)               16777344  
_________________________________________________________________
activation_1 (Activation)    (None, 128)               0         
_________________________________________________________________
dense_2 (Dense)              (None, 128)               16512     
_________________________________________________________________
activation_2 (Activation)    (None, 128)               0         
_________________________________________________________________
dense_3 (Dense)              (None, 10)                1290      
=================================================================
Total params: 17,192,810
Trainable params: 17,192,810
Non-trainable params: 0
_________________________________________________________________

2018-04-30 00:34:14.322388AM --- Model took seconds to train 1266.5552852153778
2018-04-30 00:34:15.325329AM --- Accuracy on test data is: 66.10000000000001
2018-04-30 00:34:15.366391AM --- starting process for: (((conv*2)pool)*1)fc*2
2018-04-30 00:34:16.080272AM
_________________________________________________________________
Layer (type)                 Output Shape              Param #   
=================================================================
conv2d_1 (Conv2D)            (None, 32, 32, 32)        896       
_________________________________________________________________
conv2d_2 (Conv2D)            (None, 32, 32, 32)        9248      
_________________________________________________________________
max_pooling2d_1 (MaxPooling2 (None, 16, 16, 32)        0         
_________________________________________________________________
flatten_1 (Flatten)          (None, 8192)              0         
_________________________________________________________________
dense_1 (Dense)              (None, 128)               1048704   
_________________________________________________________________
activation_1 (Activation)    (None, 128)               0         
_________________________________________________________________
dense_2 (Dense)              (None, 128)               16512     
_________________________________________________________________
activation_2 (Activation)    (None, 128)               0         
_________________________________________________________________
dense_3 (Dense)              (None, 10)                1290      
=================================================================
Total params: 1,076,650
Trainable params: 1,076,650
Non-trainable params: 0
_________________________________________________________________

2018-04-30 00:37:52.036947AM --- Model took seconds to train 215.87039017677307
2018-04-30 00:37:52.166354AM --- Accuracy on test data is: 66.64999999999999
2018-04-30 00:37:52.211811AM --- starting process for: (((conv*2)pool)*2)fc*1
2018-04-30 00:37:52.932084AM
_________________________________________________________________
Layer (type)                 Output Shape              Param #   
=================================================================
conv2d_1 (Conv2D)            (None, 32, 32, 32)        896       
_________________________________________________________________
conv2d_2 (Conv2D)            (None, 32, 32, 32)        9248      
_________________________________________________________________
max_pooling2d_1 (MaxPooling2 (None, 16, 16, 32)        0         
_________________________________________________________________
conv2d_3 (Conv2D)            (None, 16, 16, 64)        18496     
_________________________________________________________________
conv2d_4 (Conv2D)            (None, 16, 16, 128)       73856     
_________________________________________________________________
max_pooling2d_2 (MaxPooling2 (None, 8, 8, 128)         0         
_________________________________________________________________
flatten_1 (Flatten)          (None, 8192)              0         
_________________________________________________________________
dense_1 (Dense)              (None, 128)               1048704   
_________________________________________________________________
activation_1 (Activation)    (None, 128)               0         
_________________________________________________________________
dense_2 (Dense)              (None, 10)                1290      
=================================================================
Total params: 1,152,490
Trainable params: 1,152,490
Non-trainable params: 0
_________________________________________________________________

2018-04-30 00:43:11.563449AM --- Model took seconds to train 318.61512660980225
2018-04-30 00:43:11.731550AM --- Accuracy on test data is: 73.3
2018-04-30 00:43:11.776960AM --- starting process for: (((conv*2)pool)*3)fc*2
2018-04-30 00:43:12.510308AM
_________________________________________________________________
Layer (type)                 Output Shape              Param #   
=================================================================
conv2d_1 (Conv2D)            (None, 32, 32, 32)        896       
_________________________________________________________________
conv2d_2 (Conv2D)            (None, 32, 32, 32)        9248      
_________________________________________________________________
max_pooling2d_1 (MaxPooling2 (None, 16, 16, 32)        0         
_________________________________________________________________
conv2d_3 (Conv2D)            (None, 16, 16, 64)        18496     
_________________________________________________________________
conv2d_4 (Conv2D)            (None, 16, 16, 128)       73856     
_________________________________________________________________
max_pooling2d_2 (MaxPooling2 (None, 8, 8, 128)         0         
_________________________________________________________________
conv2d_5 (Conv2D)            (None, 8, 8, 128)         147584    
_________________________________________________________________
conv2d_6 (Conv2D)            (None, 8, 8, 128)         147584    
_________________________________________________________________
max_pooling2d_3 (MaxPooling2 (None, 4, 4, 128)         0         
_________________________________________________________________
flatten_1 (Flatten)          (None, 2048)              0         
_________________________________________________________________
dense_1 (Dense)              (None, 128)               262272    
_________________________________________________________________
activation_1 (Activation)    (None, 128)               0         
_________________________________________________________________
dense_2 (Dense)              (None, 128)               16512     
_________________________________________________________________
activation_2 (Activation)    (None, 128)               0         
_________________________________________________________________
dense_3 (Dense)              (None, 10)                1290      
=================================================================
Total params: 677,738
Trainable params: 677,738
Non-trainable params: 0
_________________________________________________________________

2018-04-30 00:49:27.621601AM --- Model took seconds to train 375.03423738479614
2018-04-30 00:49:27.770724AM --- Accuracy on test data is: 78.55
2018-04-30 00:49:27.811576AM --- starting process for: (((conv*2)vazio)*1)fc*1
2018-04-30 00:49:28.524329AM
_________________________________________________________________
Layer (type)                 Output Shape              Param #   
=================================================================
conv2d_1 (Conv2D)            (None, 32, 32, 32)        896       
_________________________________________________________________
conv2d_2 (Conv2D)            (None, 32, 32, 32)        9248      
_________________________________________________________________
flatten_1 (Flatten)          (None, 32768)             0         
_________________________________________________________________
dense_1 (Dense)              (None, 128)               4194432   
_________________________________________________________________
activation_1 (Activation)    (None, 128)               0         
_________________________________________________________________
dense_2 (Dense)              (None, 10)                1290      
=================================================================
Total params: 4,205,866
Trainable params: 4,205,866
Non-trainable params: 0
_________________________________________________________________

2018-04-30 00:53:37.583158AM --- Model took seconds to train 249.04377794265747
2018-04-30 00:53:37.860912AM --- Accuracy on test data is: 61.5
2018-04-30 00:53:37.902745AM --- starting process for: (((conv*2)vazio)*1)fc*1
2018-04-30 00:53:38.668549AM
_________________________________________________________________
Layer (type)                 Output Shape              Param #   
=================================================================
conv2d_1 (Conv2D)            (None, 32, 32, 32)        896       
_________________________________________________________________
conv2d_2 (Conv2D)            (None, 32, 32, 32)        9248      
_________________________________________________________________
flatten_1 (Flatten)          (None, 32768)             0         
_________________________________________________________________
dense_1 (Dense)              (None, 128)               4194432   
_________________________________________________________________
activation_1 (Activation)    (None, 128)               0         
_________________________________________________________________
dense_2 (Dense)              (None, 10)                1290      
=================================================================
Total params: 4,205,866
Trainable params: 4,205,866
Non-trainable params: 0
_________________________________________________________________

2018-04-30 00:57:46.144941AM --- Model took seconds to train 247.46125388145447
2018-04-30 00:57:46.432245AM --- Accuracy on test data is: 61.9
2018-04-30 00:57:46.478205AM --- starting process for: (((conv*2)pool)*3)fc*1
2018-04-30 00:57:47.208801AM
_________________________________________________________________
Layer (type)                 Output Shape              Param #   
=================================================================
conv2d_1 (Conv2D)            (None, 32, 32, 32)        896       
_________________________________________________________________
conv2d_2 (Conv2D)            (None, 32, 32, 32)        9248      
_________________________________________________________________
max_pooling2d_1 (MaxPooling2 (None, 16, 16, 32)        0         
_________________________________________________________________
conv2d_3 (Conv2D)            (None, 16, 16, 64)        18496     
_________________________________________________________________
conv2d_4 (Conv2D)            (None, 16, 16, 128)       73856     
_________________________________________________________________
max_pooling2d_2 (MaxPooling2 (None, 8, 8, 128)         0         
_________________________________________________________________
conv2d_5 (Conv2D)            (None, 8, 8, 128)         147584    
_________________________________________________________________
conv2d_6 (Conv2D)            (None, 8, 8, 128)         147584    
_________________________________________________________________
max_pooling2d_3 (MaxPooling2 (None, 4, 4, 128)         0         
_________________________________________________________________
flatten_1 (Flatten)          (None, 2048)              0         
_________________________________________________________________
dense_1 (Dense)              (None, 128)               262272    
_________________________________________________________________
activation_1 (Activation)    (None, 128)               0         
_________________________________________________________________
dense_2 (Dense)              (None, 10)                1290      
=================================================================
Total params: 661,226
Trainable params: 661,226
Non-trainable params: 0
_________________________________________________________________

2018-04-30 01:03:58.166961AM --- Model took seconds to train 370.94270944595337
2018-04-30 01:03:58.311922AM --- Accuracy on test data is: 76.25
2018-04-30 01:03:58.353267AM --- starting process for: (((conv*2)pool)*1)fc*0
2018-04-30 01:03:59.057202AM
_________________________________________________________________
Layer (type)                 Output Shape              Param #   
=================================================================
conv2d_1 (Conv2D)            (None, 32, 32, 32)        896       
_________________________________________________________________
conv2d_2 (Conv2D)            (None, 32, 32, 32)        9248      
_________________________________________________________________
max_pooling2d_1 (MaxPooling2 (None, 16, 16, 32)        0         
_________________________________________________________________
flatten_1 (Flatten)          (None, 8192)              0         
_________________________________________________________________
dense_1 (Dense)              (None, 10)                81930     
=================================================================
Total params: 92,074
Trainable params: 92,074
Non-trainable params: 0
_________________________________________________________________

2018-04-30 01:07:52.240598AM --- Model took seconds to train 233.1683430671692
2018-04-30 01:07:52.415865AM --- Accuracy on test data is: 60.6
2018-04-30 01:07:52.473965AM --- starting process for: (((conv*2)pool)*2)fc*1
2018-04-30 01:07:53.186696AM
_________________________________________________________________
Layer (type)                 Output Shape              Param #   
=================================================================
conv2d_1 (Conv2D)            (None, 32, 32, 32)        896       
_________________________________________________________________
conv2d_2 (Conv2D)            (None, 32, 32, 32)        9248      
_________________________________________________________________
max_pooling2d_1 (MaxPooling2 (None, 16, 16, 32)        0         
_________________________________________________________________
conv2d_3 (Conv2D)            (None, 16, 16, 64)        18496     
_________________________________________________________________
conv2d_4 (Conv2D)            (None, 16, 16, 128)       73856     
_________________________________________________________________
max_pooling2d_2 (MaxPooling2 (None, 8, 8, 128)         0         
_________________________________________________________________
flatten_1 (Flatten)          (None, 8192)              0         
_________________________________________________________________
dense_1 (Dense)              (None, 128)               1048704   
_________________________________________________________________
activation_1 (Activation)    (None, 128)               0         
_________________________________________________________________
dense_2 (Dense)              (None, 10)                1290      
=================================================================
Total params: 1,152,490
Trainable params: 1,152,490
Non-trainable params: 0
_________________________________________________________________

2018-04-30 01:13:10.599982AM --- Model took seconds to train 317.3977825641632
2018-04-30 01:13:10.781795AM --- Accuracy on test data is: 73.95
2018-04-30 01:13:10.829213AM --- starting process for: (((conv*1)pool)*1)fc*2
2018-04-30 01:13:11.534474AM
_________________________________________________________________
Layer (type)                 Output Shape              Param #   
=================================================================
conv2d_1 (Conv2D)            (None, 32, 32, 32)        896       
_________________________________________________________________
max_pooling2d_1 (MaxPooling2 (None, 16, 16, 32)        0         
_________________________________________________________________
flatten_1 (Flatten)          (None, 8192)              0         
_________________________________________________________________
dense_1 (Dense)              (None, 128)               1048704   
_________________________________________________________________
activation_1 (Activation)    (None, 128)               0         
_________________________________________________________________
dense_2 (Dense)              (None, 128)               16512     
_________________________________________________________________
activation_2 (Activation)    (None, 128)               0         
_________________________________________________________________
dense_3 (Dense)              (None, 10)                1290      
=================================================================
Total params: 1,067,402
Trainable params: 1,067,402
Non-trainable params: 0
_________________________________________________________________

2018-04-30 01:15:32.129912AM --- Model took seconds to train 140.5798099040985
2018-04-30 01:15:32.258045AM --- Accuracy on test data is: 62.25000000000001
2018-04-30 01:15:32.303742AM --- starting process for: (((conv*1)vazio)*3)fc*1
2018-04-30 01:15:33.018224AM
_________________________________________________________________
Layer (type)                 Output Shape              Param #   
=================================================================
conv2d_1 (Conv2D)            (None, 32, 32, 32)        896       
_________________________________________________________________
conv2d_2 (Conv2D)            (None, 32, 32, 32)        9248      
_________________________________________________________________
conv2d_3 (Conv2D)            (None, 32, 32, 64)        18496     
_________________________________________________________________
flatten_1 (Flatten)          (None, 65536)             0         
_________________________________________________________________
dense_1 (Dense)              (None, 128)               8388736   
_________________________________________________________________
activation_1 (Activation)    (None, 128)               0         
_________________________________________________________________
dense_2 (Dense)              (None, 10)                1290      
=================================================================
Total params: 8,418,666
Trainable params: 8,418,666
Non-trainable params: 0
_________________________________________________________________

2018-04-30 01:22:15.468812AM --- Model took seconds to train 402.4356324672699
2018-04-30 01:22:15.951960AM --- Accuracy on test data is: 62.35000000000001
2018-04-30 01:22:15.993612AM --- starting process for: (((conv*2)vazio)*1)fc*1
2018-04-30 01:22:16.704679AM
_________________________________________________________________
Layer (type)                 Output Shape              Param #   
=================================================================
conv2d_1 (Conv2D)            (None, 32, 32, 32)        896       
_________________________________________________________________
conv2d_2 (Conv2D)            (None, 32, 32, 32)        9248      
_________________________________________________________________
flatten_1 (Flatten)          (None, 32768)             0         
_________________________________________________________________
dense_1 (Dense)              (None, 128)               4194432   
_________________________________________________________________
activation_1 (Activation)    (None, 128)               0         
_________________________________________________________________
dense_2 (Dense)              (None, 10)                1290      
=================================================================
Total params: 4,205,866
Trainable params: 4,205,866
Non-trainable params: 0
_________________________________________________________________

2018-04-30 01:26:21.272380AM --- Model took seconds to train 244.55206441879272
2018-04-30 01:26:21.552706AM --- Accuracy on test data is: 63.0
2018-04-30 01:26:21.595809AM --- starting process for: (((conv*2)pool)*2)fc*2
2018-04-30 01:26:22.318931AM
_________________________________________________________________
Layer (type)                 Output Shape              Param #   
=================================================================
conv2d_1 (Conv2D)            (None, 32, 32, 32)        896       
_________________________________________________________________
conv2d_2 (Conv2D)            (None, 32, 32, 32)        9248      
_________________________________________________________________
max_pooling2d_1 (MaxPooling2 (None, 16, 16, 32)        0         
_________________________________________________________________
conv2d_3 (Conv2D)            (None, 16, 16, 64)        18496     
_________________________________________________________________
conv2d_4 (Conv2D)            (None, 16, 16, 128)       73856     
_________________________________________________________________
max_pooling2d_2 (MaxPooling2 (None, 8, 8, 128)         0         
_________________________________________________________________
flatten_1 (Flatten)          (None, 8192)              0         
_________________________________________________________________
dense_1 (Dense)              (None, 128)               1048704   
_________________________________________________________________
activation_1 (Activation)    (None, 128)               0         
_________________________________________________________________
dense_2 (Dense)              (None, 128)               16512     
_________________________________________________________________
activation_2 (Activation)    (None, 128)               0         
_________________________________________________________________
dense_3 (Dense)              (None, 10)                1290      
=================================================================
Total params: 1,169,002
Trainable params: 1,169,002
Non-trainable params: 0
_________________________________________________________________

2018-04-30 01:31:47.006874AM --- Model took seconds to train 324.6725912094116
2018-04-30 01:31:47.177522AM --- Accuracy on test data is: 74.5
2018-04-30 01:31:47.226720AM --- 0 - Individual: (((conv*2)pool)*3)fc*2; 79.3
…
2018-04-30 01:31:47.229904AM --- 47 - Individual: (((conv*2)vazio)*1)fc*1; 61.9
2018-04-30 01:31:47.229966AM --- 48 - Individual: (((conv*2)vazio)*1)fc*1; 61.5
2018-04-30 01:31:47.230025AM --- 49 - Individual: (((conv*1)pool)*1)fc*0; 60.8
2018-04-30 01:31:47.230079AM --- Generation: 26
2018-04-30 01:31:47.232623AM --- starting process for: (((conv*1)vazio)*1)fc*0
2018-04-30 01:31:47.928114AM
_________________________________________________________________
Layer (type)                 Output Shape              Param #   
=================================================================
conv2d_1 (Conv2D)            (None, 32, 32, 32)        896       
_________________________________________________________________
flatten_1 (Flatten)          (None, 32768)             0         
_________________________________________________________________
dense_1 (Dense)              (None, 10)                327690    
=================================================================
Total params: 328,586
Trainable params: 328,586
Non-trainable params: 0
_________________________________________________________________

2018-04-30 01:36:30.159168AM --- Model took seconds to train 282.2159469127655
2018-04-30 01:36:30.454407AM --- Accuracy on test data is: 57.3
2018-04-30 01:36:30.508219AM --- starting process for: (((conv*2)pool)*3)fc*0
2018-04-30 01:36:31.226097AM
_________________________________________________________________
Layer (type)                 Output Shape              Param #   
=================================================================
conv2d_1 (Conv2D)            (None, 32, 32, 32)        896       
_________________________________________________________________
conv2d_2 (Conv2D)            (None, 32, 32, 32)        9248      
_________________________________________________________________
max_pooling2d_1 (MaxPooling2 (None, 16, 16, 32)        0         
_________________________________________________________________
conv2d_3 (Conv2D)            (None, 16, 16, 64)        18496     
_________________________________________________________________
conv2d_4 (Conv2D)            (None, 16, 16, 128)       73856     
_________________________________________________________________
max_pooling2d_2 (MaxPooling2 (None, 8, 8, 128)         0         
_________________________________________________________________
conv2d_5 (Conv2D)            (None, 8, 8, 128)         147584    
_________________________________________________________________
conv2d_6 (Conv2D)            (None, 8, 8, 128)         147584    
_________________________________________________________________
max_pooling2d_3 (MaxPooling2 (None, 4, 4, 128)         0         
_________________________________________________________________
flatten_1 (Flatten)          (None, 2048)              0         
_________________________________________________________________
dense_1 (Dense)              (None, 10)                20490     
=================================================================
Total params: 418,154
Trainable params: 418,154
Non-trainable params: 0
_________________________________________________________________

2018-04-30 01:42:41.495218AM --- Model took seconds to train 370.25384998321533
2018-04-30 01:42:41.645363AM --- Accuracy on test data is: 76.95
2018-04-30 01:42:41.690044AM --- starting process for: (((conv*2)pool)*3)fc*1
2018-04-30 01:42:42.423190AM
_________________________________________________________________
Layer (type)                 Output Shape              Param #   
=================================================================
conv2d_1 (Conv2D)            (None, 32, 32, 32)        896       
_________________________________________________________________
conv2d_2 (Conv2D)            (None, 32, 32, 32)        9248      
_________________________________________________________________
max_pooling2d_1 (MaxPooling2 (None, 16, 16, 32)        0         
_________________________________________________________________
conv2d_3 (Conv2D)            (None, 16, 16, 64)        18496     
_________________________________________________________________
conv2d_4 (Conv2D)            (None, 16, 16, 128)       73856     
_________________________________________________________________
max_pooling2d_2 (MaxPooling2 (None, 8, 8, 128)         0         
_________________________________________________________________
conv2d_5 (Conv2D)            (None, 8, 8, 128)         147584    
_________________________________________________________________
conv2d_6 (Conv2D)            (None, 8, 8, 128)         147584    
_________________________________________________________________
max_pooling2d_3 (MaxPooling2 (None, 4, 4, 128)         0         
_________________________________________________________________
flatten_1 (Flatten)          (None, 2048)              0         
_________________________________________________________________
dense_1 (Dense)              (None, 128)               262272    
_________________________________________________________________
activation_1 (Activation)    (None, 128)               0         
_________________________________________________________________
dense_2 (Dense)              (None, 10)                1290      
=================================================================
Total params: 661,226
Trainable params: 661,226
Non-trainable params: 0
_________________________________________________________________

2018-04-30 01:48:53.598372AM --- Model took seconds to train 371.1598551273346
2018-04-30 01:48:53.746396AM --- Accuracy on test data is: 75.8
2018-04-30 01:48:53.795254AM --- starting process for: (((conv*2)pool)*3)fc*2
2018-04-30 01:48:54.530672AM
_________________________________________________________________
Layer (type)                 Output Shape              Param #   
=================================================================
conv2d_1 (Conv2D)            (None, 32, 32, 32)        896       
_________________________________________________________________
conv2d_2 (Conv2D)            (None, 32, 32, 32)        9248      
_________________________________________________________________
max_pooling2d_1 (MaxPooling2 (None, 16, 16, 32)        0         
_________________________________________________________________
conv2d_3 (Conv2D)            (None, 16, 16, 64)        18496     
_________________________________________________________________
conv2d_4 (Conv2D)            (None, 16, 16, 128)       73856     
_________________________________________________________________
max_pooling2d_2 (MaxPooling2 (None, 8, 8, 128)         0         
_________________________________________________________________
conv2d_5 (Conv2D)            (None, 8, 8, 128)         147584    
_________________________________________________________________
conv2d_6 (Conv2D)            (None, 8, 8, 128)         147584    
_________________________________________________________________
max_pooling2d_3 (MaxPooling2 (None, 4, 4, 128)         0         
_________________________________________________________________
flatten_1 (Flatten)          (None, 2048)              0         
_________________________________________________________________
dense_1 (Dense)              (None, 128)               262272    
_________________________________________________________________
activation_1 (Activation)    (None, 128)               0         
_________________________________________________________________
dense_2 (Dense)              (None, 128)               16512     
_________________________________________________________________
activation_2 (Activation)    (None, 128)               0         
_________________________________________________________________
dense_3 (Dense)              (None, 10)                1290      
=================================================================
Total params: 677,738
Trainable params: 677,738
Non-trainable params: 0
_________________________________________________________________

2018-04-30 01:55:11.926252AM --- Model took seconds to train 377.37985587120056
2018-04-30 01:55:12.076557AM --- Accuracy on test data is: 77.8
2018-04-30 01:55:12.121086AM --- starting process for: (((conv*2)pool)*3)fc*0
2018-04-30 01:55:12.846529AM
_________________________________________________________________
Layer (type)                 Output Shape              Param #   
=================================================================
conv2d_1 (Conv2D)            (None, 32, 32, 32)        896       
_________________________________________________________________
conv2d_2 (Conv2D)            (None, 32, 32, 32)        9248      
_________________________________________________________________
max_pooling2d_1 (MaxPooling2 (None, 16, 16, 32)        0         
_________________________________________________________________
conv2d_3 (Conv2D)            (None, 16, 16, 64)        18496     
_________________________________________________________________
conv2d_4 (Conv2D)            (None, 16, 16, 128)       73856     
_________________________________________________________________
max_pooling2d_2 (MaxPooling2 (None, 8, 8, 128)         0         
_________________________________________________________________
conv2d_5 (Conv2D)            (None, 8, 8, 128)         147584    
_________________________________________________________________
conv2d_6 (Conv2D)            (None, 8, 8, 128)         147584    
_________________________________________________________________
max_pooling2d_3 (MaxPooling2 (None, 4, 4, 128)         0         
_________________________________________________________________
flatten_1 (Flatten)          (None, 2048)              0         
_________________________________________________________________
dense_1 (Dense)              (None, 10)                20490     
=================================================================
Total params: 418,154
Trainable params: 418,154
Non-trainable params: 0
_________________________________________________________________

2018-04-30 02:01:21.129114AM --- Model took seconds to train 368.2668070793152
2018-04-30 02:01:21.289118AM --- Accuracy on test data is: 77.4
2018-04-30 02:01:21.336083AM --- starting process for: (((conv*2)vazio)*1)fc*0
2018-04-30 02:01:22.043949AM
_________________________________________________________________
Layer (type)                 Output Shape              Param #   
=================================================================
conv2d_1 (Conv2D)            (None, 32, 32, 32)        896       
_________________________________________________________________
conv2d_2 (Conv2D)            (None, 32, 32, 32)        9248      
_________________________________________________________________
flatten_1 (Flatten)          (None, 32768)             0         
_________________________________________________________________
dense_1 (Dense)              (None, 10)                327690    
=================================================================
Total params: 337,834
Trainable params: 337,834
Non-trainable params: 0
_________________________________________________________________

2018-04-30 02:07:13.019362AM --- Model took seconds to train 350.95944714546204
2018-04-30 02:07:13.327629AM --- Accuracy on test data is: 60.150000000000006
2018-04-30 02:07:13.369388AM --- starting process for: (((conv*2)vazio)*2)fc*1
2018-04-30 02:07:14.089788AM
_________________________________________________________________
Layer (type)                 Output Shape              Param #   
=================================================================
conv2d_1 (Conv2D)            (None, 32, 32, 32)        896       
_________________________________________________________________
conv2d_2 (Conv2D)            (None, 32, 32, 32)        9248      
_________________________________________________________________
conv2d_3 (Conv2D)            (None, 32, 32, 64)        18496     
_________________________________________________________________
conv2d_4 (Conv2D)            (None, 32, 32, 128)       73856     
_________________________________________________________________
flatten_1 (Flatten)          (None, 131072)            0         
_________________________________________________________________
dense_1 (Dense)              (None, 128)               16777344  
_________________________________________________________________
activation_1 (Activation)    (None, 128)               0         
_________________________________________________________________
dense_2 (Dense)              (None, 10)                1290      
=================================================================
Total params: 16,881,130
Trainable params: 16,881,130
Non-trainable params: 0
_________________________________________________________________

2018-04-30 02:18:47.372508AM --- Model took seconds to train 693.2676334381104
2018-04-30 02:18:48.304428AM --- Accuracy on test data is: 61.1
2018-04-30 02:18:48.344800AM --- starting process for: (((conv*2)pool)*2)fc*1
2018-04-30 02:18:49.066466AM
_________________________________________________________________
Layer (type)                 Output Shape              Param #   
=================================================================
conv2d_1 (Conv2D)            (None, 32, 32, 32)        896       
_________________________________________________________________
conv2d_2 (Conv2D)            (None, 32, 32, 32)        9248      
_________________________________________________________________
max_pooling2d_1 (MaxPooling2 (None, 16, 16, 32)        0         
_________________________________________________________________
conv2d_3 (Conv2D)            (None, 16, 16, 64)        18496     
_________________________________________________________________
conv2d_4 (Conv2D)            (None, 16, 16, 128)       73856     
_________________________________________________________________
max_pooling2d_2 (MaxPooling2 (None, 8, 8, 128)         0         
_________________________________________________________________
flatten_1 (Flatten)          (None, 8192)              0         
_________________________________________________________________
dense_1 (Dense)              (None, 128)               1048704   
_________________________________________________________________
activation_1 (Activation)    (None, 128)               0         
_________________________________________________________________
dense_2 (Dense)              (None, 10)                1290      
=================================================================
Total params: 1,152,490
Trainable params: 1,152,490
Non-trainable params: 0
_________________________________________________________________

2018-04-30 02:24:07.440398AM --- Model took seconds to train 318.3589494228363
2018-04-30 02:24:07.592768AM --- Accuracy on test data is: 72.0
2018-04-30 02:24:07.645891AM --- starting process for: (((conv*1)pool)*1)fc*0
2018-04-30 02:24:08.345358AM
_________________________________________________________________
Layer (type)                 Output Shape              Param #   
=================================================================
conv2d_1 (Conv2D)            (None, 32, 32, 32)        896       
_________________________________________________________________
max_pooling2d_1 (MaxPooling2 (None, 16, 16, 32)        0         
_________________________________________________________________
flatten_1 (Flatten)          (None, 8192)              0         
_________________________________________________________________
dense_1 (Dense)              (None, 10)                81930     
=================================================================
Total params: 82,826
Trainable params: 82,826
Non-trainable params: 0
_________________________________________________________________

2018-04-30 02:26:41.228980AM --- Model took seconds to train 152.86863732337952
2018-04-30 02:26:41.346715AM --- Accuracy on test data is: 63.3
2018-04-30 02:26:41.392478AM --- starting process for: (((conv*2)pool)*2)fc*2
2018-04-30 02:26:42.113815AM
_________________________________________________________________
Layer (type)                 Output Shape              Param #   
=================================================================
conv2d_1 (Conv2D)            (None, 32, 32, 32)        896       
_________________________________________________________________
conv2d_2 (Conv2D)            (None, 32, 32, 32)        9248      
_________________________________________________________________
max_pooling2d_1 (MaxPooling2 (None, 16, 16, 32)        0         
_________________________________________________________________
conv2d_3 (Conv2D)            (None, 16, 16, 64)        18496     
_________________________________________________________________
conv2d_4 (Conv2D)            (None, 16, 16, 128)       73856     
_________________________________________________________________
max_pooling2d_2 (MaxPooling2 (None, 8, 8, 128)         0         
_________________________________________________________________
flatten_1 (Flatten)          (None, 8192)              0         
_________________________________________________________________
dense_1 (Dense)              (None, 128)               1048704   
_________________________________________________________________
activation_1 (Activation)    (None, 128)               0         
_________________________________________________________________
dense_2 (Dense)              (None, 128)               16512     
_________________________________________________________________
activation_2 (Activation)    (None, 128)               0         
_________________________________________________________________
dense_3 (Dense)              (None, 10)                1290      
=================================================================
Total params: 1,169,002
Trainable params: 1,169,002
Non-trainable params: 0
_________________________________________________________________

2018-04-30 02:32:08.137181AM --- Model took seconds to train 326.00753927230835
2018-04-30 02:32:08.309832AM --- Accuracy on test data is: 74.8
2018-04-30 02:32:08.351836AM --- starting process for: (((conv*2)pool)*2)fc*0
2018-04-30 02:32:09.070739AM
_________________________________________________________________
Layer (type)                 Output Shape              Param #   
=================================================================
conv2d_1 (Conv2D)            (None, 32, 32, 32)        896       
_________________________________________________________________
conv2d_2 (Conv2D)            (None, 32, 32, 32)        9248      
_________________________________________________________________
max_pooling2d_1 (MaxPooling2 (None, 16, 16, 32)        0         
_________________________________________________________________
conv2d_3 (Conv2D)            (None, 16, 16, 64)        18496     
_________________________________________________________________
conv2d_4 (Conv2D)            (None, 16, 16, 128)       73856     
_________________________________________________________________
max_pooling2d_2 (MaxPooling2 (None, 8, 8, 128)         0         
_________________________________________________________________
flatten_1 (Flatten)          (None, 8192)              0         
_________________________________________________________________
dense_1 (Dense)              (None, 10)                81930     
=================================================================
Total params: 184,426
Trainable params: 184,426
Non-trainable params: 0
_________________________________________________________________

2018-04-30 02:37:43.945699AM --- Model took seconds to train 334.85961055755615
2018-04-30 02:37:44.128142AM --- Accuracy on test data is: 73.1
2018-04-30 02:37:44.180834AM --- starting process for: (((conv*2)pool)*1)fc*1
2018-04-30 02:37:44.887894AM
_________________________________________________________________
Layer (type)                 Output Shape              Param #   
=================================================================
conv2d_1 (Conv2D)            (None, 32, 32, 32)        896       
_________________________________________________________________
conv2d_2 (Conv2D)            (None, 32, 32, 32)        9248      
_________________________________________________________________
max_pooling2d_1 (MaxPooling2 (None, 16, 16, 32)        0         
_________________________________________________________________
flatten_1 (Flatten)          (None, 8192)              0         
_________________________________________________________________
dense_1 (Dense)              (None, 128)               1048704   
_________________________________________________________________
activation_1 (Activation)    (None, 128)               0         
_________________________________________________________________
dense_2 (Dense)              (None, 10)                1290      
=================================================================
Total params: 1,060,138
Trainable params: 1,060,138
Non-trainable params: 0
_________________________________________________________________

2018-04-30 02:41:14.850693AM --- Model took seconds to train 209.94705057144165
2018-04-30 02:41:15.012185AM --- Accuracy on test data is: 66.05
2018-04-30 02:41:15.062988AM --- starting process for: (((conv*2)pool)*3)fc*2
2018-04-30 02:41:15.794063AM
_________________________________________________________________
Layer (type)                 Output Shape              Param #   
=================================================================
conv2d_1 (Conv2D)            (None, 32, 32, 32)        896       
_________________________________________________________________
conv2d_2 (Conv2D)            (None, 32, 32, 32)        9248      
_________________________________________________________________
max_pooling2d_1 (MaxPooling2 (None, 16, 16, 32)        0         
_________________________________________________________________
conv2d_3 (Conv2D)            (None, 16, 16, 64)        18496     
_________________________________________________________________
conv2d_4 (Conv2D)            (None, 16, 16, 128)       73856     
_________________________________________________________________
max_pooling2d_2 (MaxPooling2 (None, 8, 8, 128)         0         
_________________________________________________________________
conv2d_5 (Conv2D)            (None, 8, 8, 128)         147584    
_________________________________________________________________
conv2d_6 (Conv2D)            (None, 8, 8, 128)         147584    
_________________________________________________________________
max_pooling2d_3 (MaxPooling2 (None, 4, 4, 128)         0         
_________________________________________________________________
flatten_1 (Flatten)          (None, 2048)              0         
_________________________________________________________________
dense_1 (Dense)              (None, 128)               262272    
_________________________________________________________________
activation_1 (Activation)    (None, 128)               0         
_________________________________________________________________
dense_2 (Dense)              (None, 128)               16512     
_________________________________________________________________
activation_2 (Activation)    (None, 128)               0         
_________________________________________________________________
dense_3 (Dense)              (None, 10)                1290      
=================================================================
Total params: 677,738
Trainable params: 677,738
Non-trainable params: 0
_________________________________________________________________

2018-04-30 02:47:30.141555AM --- Model took seconds to train 374.3322684764862
2018-04-30 02:47:30.340902AM --- Accuracy on test data is: 76.1
2018-04-30 02:47:30.382142AM --- starting process for: (((conv*2)pool)*3)fc*2
2018-04-30 02:47:31.118376AM
_________________________________________________________________
Layer (type)                 Output Shape              Param #   
=================================================================
conv2d_1 (Conv2D)            (None, 32, 32, 32)        896       
_________________________________________________________________
conv2d_2 (Conv2D)            (None, 32, 32, 32)        9248      
_________________________________________________________________
max_pooling2d_1 (MaxPooling2 (None, 16, 16, 32)        0         
_________________________________________________________________
conv2d_3 (Conv2D)            (None, 16, 16, 64)        18496     
_________________________________________________________________
conv2d_4 (Conv2D)            (None, 16, 16, 128)       73856     
_________________________________________________________________
max_pooling2d_2 (MaxPooling2 (None, 8, 8, 128)         0         
_________________________________________________________________
conv2d_5 (Conv2D)            (None, 8, 8, 128)         147584    
_________________________________________________________________
conv2d_6 (Conv2D)            (None, 8, 8, 128)         147584    
_________________________________________________________________
max_pooling2d_3 (MaxPooling2 (None, 4, 4, 128)         0         
_________________________________________________________________
flatten_1 (Flatten)          (None, 2048)              0         
_________________________________________________________________
dense_1 (Dense)              (None, 128)               262272    
_________________________________________________________________
activation_1 (Activation)    (None, 128)               0         
_________________________________________________________________
dense_2 (Dense)              (None, 128)               16512     
_________________________________________________________________
activation_2 (Activation)    (None, 128)               0         
_________________________________________________________________
dense_3 (Dense)              (None, 10)                1290      
=================================================================
Total params: 677,738
Trainable params: 677,738
Non-trainable params: 0
_________________________________________________________________

2018-04-30 02:53:46.559613AM --- Model took seconds to train 375.42612981796265
2018-04-30 02:53:46.717973AM --- Accuracy on test data is: 77.55
2018-04-30 02:53:46.761957AM --- starting process for: (((conv*1)pool)*2)fc*2
2018-04-30 02:53:47.476484AM
_________________________________________________________________
Layer (type)                 Output Shape              Param #   
=================================================================
conv2d_1 (Conv2D)            (None, 32, 32, 32)        896       
_________________________________________________________________
max_pooling2d_1 (MaxPooling2 (None, 16, 16, 32)        0         
_________________________________________________________________
conv2d_2 (Conv2D)            (None, 16, 16, 32)        9248      
_________________________________________________________________
max_pooling2d_2 (MaxPooling2 (None, 8, 8, 32)          0         
_________________________________________________________________
flatten_1 (Flatten)          (None, 2048)              0         
_________________________________________________________________
dense_1 (Dense)              (None, 128)               262272    
_________________________________________________________________
activation_1 (Activation)    (None, 128)               0         
_________________________________________________________________
dense_2 (Dense)              (None, 128)               16512     
_________________________________________________________________
activation_2 (Activation)    (None, 128)               0         
_________________________________________________________________
dense_3 (Dense)              (None, 10)                1290      
=================================================================
Total params: 290,218
Trainable params: 290,218
Non-trainable params: 0
_________________________________________________________________

2018-04-30 02:56:23.671252AM --- Model took seconds to train 156.17934346199036
2018-04-30 02:56:23.756069AM --- Accuracy on test data is: 65.95
2018-04-30 02:56:23.798326AM --- starting process for: (((conv*2)pool)*3)fc*2
2018-04-30 02:56:24.518343AM
_________________________________________________________________
Layer (type)                 Output Shape              Param #   
=================================================================
conv2d_1 (Conv2D)            (None, 32, 32, 32)        896       
_________________________________________________________________
conv2d_2 (Conv2D)            (None, 32, 32, 32)        9248      
_________________________________________________________________
max_pooling2d_1 (MaxPooling2 (None, 16, 16, 32)        0         
_________________________________________________________________
conv2d_3 (Conv2D)            (None, 16, 16, 64)        18496     
_________________________________________________________________
conv2d_4 (Conv2D)            (None, 16, 16, 128)       73856     
_________________________________________________________________
max_pooling2d_2 (MaxPooling2 (None, 8, 8, 128)         0         
_________________________________________________________________
conv2d_5 (Conv2D)            (None, 8, 8, 128)         147584    
_________________________________________________________________
conv2d_6 (Conv2D)            (None, 8, 8, 128)         147584    
_________________________________________________________________
max_pooling2d_3 (MaxPooling2 (None, 4, 4, 128)         0         
_________________________________________________________________
flatten_1 (Flatten)          (None, 2048)              0         
_________________________________________________________________
dense_1 (Dense)              (None, 128)               262272    
_________________________________________________________________
activation_1 (Activation)    (None, 128)               0         
_________________________________________________________________
dense_2 (Dense)              (None, 128)               16512     
_________________________________________________________________
activation_2 (Activation)    (None, 128)               0         
_________________________________________________________________
dense_3 (Dense)              (None, 10)                1290      
=================================================================
Total params: 677,738
Trainable params: 677,738
Non-trainable params: 0
_________________________________________________________________

2018-04-30 03:02:38.605327AM --- Model took seconds to train 374.0715560913086
2018-04-30 03:02:38.748100AM --- Accuracy on test data is: 75.75
2018-04-30 03:02:38.793614AM --- starting process for: (((conv*2)pool)*2)fc*1
2018-04-30 03:02:39.578653AM
_________________________________________________________________
Layer (type)                 Output Shape              Param #   
=================================================================
conv2d_1 (Conv2D)            (None, 32, 32, 32)        896       
_________________________________________________________________
conv2d_2 (Conv2D)            (None, 32, 32, 32)        9248      
_________________________________________________________________
max_pooling2d_1 (MaxPooling2 (None, 16, 16, 32)        0         
_________________________________________________________________
conv2d_3 (Conv2D)            (None, 16, 16, 64)        18496     
_________________________________________________________________
conv2d_4 (Conv2D)            (None, 16, 16, 128)       73856     
_________________________________________________________________
max_pooling2d_2 (MaxPooling2 (None, 8, 8, 128)         0         
_________________________________________________________________
flatten_1 (Flatten)          (None, 8192)              0         
_________________________________________________________________
dense_1 (Dense)              (None, 128)               1048704   
_________________________________________________________________
activation_1 (Activation)    (None, 128)               0         
_________________________________________________________________
dense_2 (Dense)              (None, 10)                1290      
=================================================================
Total params: 1,152,490
Trainable params: 1,152,490
Non-trainable params: 0
_________________________________________________________________

2018-04-30 03:08:00.029015AM --- Model took seconds to train 320.4351270198822
2018-04-30 03:08:00.202870AM --- Accuracy on test data is: 73.2
2018-04-30 03:08:00.246120AM --- starting process for: (((conv*2)pool)*1)fc*1
2018-04-30 03:08:00.955354AM
_________________________________________________________________
Layer (type)                 Output Shape              Param #   
=================================================================
conv2d_1 (Conv2D)            (None, 32, 32, 32)        896       
_________________________________________________________________
conv2d_2 (Conv2D)            (None, 32, 32, 32)        9248      
_________________________________________________________________
max_pooling2d_1 (MaxPooling2 (None, 16, 16, 32)        0         
_________________________________________________________________
flatten_1 (Flatten)          (None, 8192)              0         
_________________________________________________________________
dense_1 (Dense)              (None, 128)               1048704   
_________________________________________________________________
activation_1 (Activation)    (None, 128)               0         
_________________________________________________________________
dense_2 (Dense)              (None, 10)                1290      
=================================================================
Total params: 1,060,138
Trainable params: 1,060,138
Non-trainable params: 0
_________________________________________________________________

2018-04-30 03:11:30.925909AM --- Model took seconds to train 209.95543265342712
2018-04-30 03:11:31.096559AM --- Accuracy on test data is: 64.35
2018-04-30 03:11:31.147463AM --- starting process for: (((conv*1)pool)*3)fc*0
2018-04-30 03:11:31.856508AM
_________________________________________________________________
Layer (type)                 Output Shape              Param #   
=================================================================
conv2d_1 (Conv2D)            (None, 32, 32, 32)        896       
_________________________________________________________________
max_pooling2d_1 (MaxPooling2 (None, 16, 16, 32)        0         
_________________________________________________________________
conv2d_2 (Conv2D)            (None, 16, 16, 32)        9248      
_________________________________________________________________
max_pooling2d_2 (MaxPooling2 (None, 8, 8, 32)          0         
_________________________________________________________________
conv2d_3 (Conv2D)            (None, 8, 8, 64)          18496     
_________________________________________________________________
max_pooling2d_3 (MaxPooling2 (None, 4, 4, 64)          0         
_________________________________________________________________
flatten_1 (Flatten)          (None, 1024)              0         
_________________________________________________________________
dense_1 (Dense)              (None, 10)                10250     
=================================================================
Total params: 38,890
Trainable params: 38,890
Non-trainable params: 0
_________________________________________________________________

2018-04-30 03:14:17.406628AM --- Model took seconds to train 165.53479647636414
2018-04-30 03:14:17.508301AM --- Accuracy on test data is: 70.85000000000001
2018-04-30 03:14:17.556750AM --- starting process for: (((conv*2)pool)*2)fc*0
2018-04-30 03:14:18.267223AM
_________________________________________________________________
Layer (type)                 Output Shape              Param #   
=================================================================
conv2d_1 (Conv2D)            (None, 32, 32, 32)        896       
_________________________________________________________________
conv2d_2 (Conv2D)            (None, 32, 32, 32)        9248      
_________________________________________________________________
max_pooling2d_1 (MaxPooling2 (None, 16, 16, 32)        0         
_________________________________________________________________
conv2d_3 (Conv2D)            (None, 16, 16, 64)        18496     
_________________________________________________________________
conv2d_4 (Conv2D)            (None, 16, 16, 128)       73856     
_________________________________________________________________
max_pooling2d_2 (MaxPooling2 (None, 8, 8, 128)         0         
_________________________________________________________________
flatten_1 (Flatten)          (None, 8192)              0         
_________________________________________________________________
dense_1 (Dense)              (None, 10)                81930     
=================================================================
Total params: 184,426
Trainable params: 184,426
Non-trainable params: 0
_________________________________________________________________

2018-04-30 03:19:52.445584AM --- Model took seconds to train 334.1627950668335
2018-04-30 03:19:52.620919AM --- Accuracy on test data is: 74.8
2018-04-30 03:19:52.669071AM --- starting process for: (((conv*2)pool)*2)fc*2
2018-04-30 03:19:53.387678AM
_________________________________________________________________
Layer (type)                 Output Shape              Param #   
=================================================================
conv2d_1 (Conv2D)            (None, 32, 32, 32)        896       
_________________________________________________________________
conv2d_2 (Conv2D)            (None, 32, 32, 32)        9248      
_________________________________________________________________
max_pooling2d_1 (MaxPooling2 (None, 16, 16, 32)        0         
_________________________________________________________________
conv2d_3 (Conv2D)            (None, 16, 16, 64)        18496     
_________________________________________________________________
conv2d_4 (Conv2D)            (None, 16, 16, 128)       73856     
_________________________________________________________________
max_pooling2d_2 (MaxPooling2 (None, 8, 8, 128)         0         
_________________________________________________________________
flatten_1 (Flatten)          (None, 8192)              0         
_________________________________________________________________
dense_1 (Dense)              (None, 128)               1048704   
_________________________________________________________________
activation_1 (Activation)    (None, 128)               0         
_________________________________________________________________
dense_2 (Dense)              (None, 128)               16512     
_________________________________________________________________
activation_2 (Activation)    (None, 128)               0         
_________________________________________________________________
dense_3 (Dense)              (None, 10)                1290      
=================================================================
Total params: 1,169,002
Trainable params: 1,169,002
Non-trainable params: 0
_________________________________________________________________

2018-04-30 03:25:16.899038AM --- Model took seconds to train 323.4956409931183
2018-04-30 03:25:17.081432AM --- Accuracy on test data is: 74.95
2018-04-30 03:25:17.131407AM --- starting process for: (((conv*2)pool)*3)fc*2
2018-04-30 03:25:17.865614AM
_________________________________________________________________
Layer (type)                 Output Shape              Param #   
=================================================================
conv2d_1 (Conv2D)            (None, 32, 32, 32)        896       
_________________________________________________________________
conv2d_2 (Conv2D)            (None, 32, 32, 32)        9248      
_________________________________________________________________
max_pooling2d_1 (MaxPooling2 (None, 16, 16, 32)        0         
_________________________________________________________________
conv2d_3 (Conv2D)            (None, 16, 16, 64)        18496     
_________________________________________________________________
conv2d_4 (Conv2D)            (None, 16, 16, 128)       73856     
_________________________________________________________________
max_pooling2d_2 (MaxPooling2 (None, 8, 8, 128)         0         
_________________________________________________________________
conv2d_5 (Conv2D)            (None, 8, 8, 128)         147584    
_________________________________________________________________
conv2d_6 (Conv2D)            (None, 8, 8, 128)         147584    
_________________________________________________________________
max_pooling2d_3 (MaxPooling2 (None, 4, 4, 128)         0         
_________________________________________________________________
flatten_1 (Flatten)          (None, 2048)              0         
_________________________________________________________________
dense_1 (Dense)              (None, 128)               262272    
_________________________________________________________________
activation_1 (Activation)    (None, 128)               0         
_________________________________________________________________
dense_2 (Dense)              (None, 128)               16512     
_________________________________________________________________
activation_2 (Activation)    (None, 128)               0         
_________________________________________________________________
dense_3 (Dense)              (None, 10)                1290      
=================================================================
Total params: 677,738
Trainable params: 677,738
Non-trainable params: 0
_________________________________________________________________

2018-04-30 03:31:33.958675AM --- Model took seconds to train 376.0775227546692
2018-04-30 03:31:34.111556AM --- Accuracy on test data is: 76.05
2018-04-30 03:31:34.155041AM --- starting process for: (((conv*1)pool)*3)fc*0
2018-04-30 03:31:34.867001AM
_________________________________________________________________
Layer (type)                 Output Shape              Param #   
=================================================================
conv2d_1 (Conv2D)            (None, 32, 32, 32)        896       
_________________________________________________________________
max_pooling2d_1 (MaxPooling2 (None, 16, 16, 32)        0         
_________________________________________________________________
conv2d_2 (Conv2D)            (None, 16, 16, 32)        9248      
_________________________________________________________________
max_pooling2d_2 (MaxPooling2 (None, 8, 8, 32)          0         
_________________________________________________________________
conv2d_3 (Conv2D)            (None, 8, 8, 64)          18496     
_________________________________________________________________
max_pooling2d_3 (MaxPooling2 (None, 4, 4, 64)          0         
_________________________________________________________________
flatten_1 (Flatten)          (None, 1024)              0         
_________________________________________________________________
dense_1 (Dense)              (None, 10)                10250     
=================================================================
Total params: 38,890
Trainable params: 38,890
Non-trainable params: 0
_________________________________________________________________

2018-04-30 03:34:20.463614AM --- Model took seconds to train 165.580952167511
2018-04-30 03:34:20.562437AM --- Accuracy on test data is: 72.25
2018-04-30 03:34:20.608090AM --- starting process for: (((conv*2)pool)*3)fc*2
2018-04-30 03:34:21.339440AM
_________________________________________________________________
Layer (type)                 Output Shape              Param #   
=================================================================
conv2d_1 (Conv2D)            (None, 32, 32, 32)        896       
_________________________________________________________________
conv2d_2 (Conv2D)            (None, 32, 32, 32)        9248      
_________________________________________________________________
max_pooling2d_1 (MaxPooling2 (None, 16, 16, 32)        0         
_________________________________________________________________
conv2d_3 (Conv2D)            (None, 16, 16, 64)        18496     
_________________________________________________________________
conv2d_4 (Conv2D)            (None, 16, 16, 128)       73856     
_________________________________________________________________
max_pooling2d_2 (MaxPooling2 (None, 8, 8, 128)         0         
_________________________________________________________________
conv2d_5 (Conv2D)            (None, 8, 8, 128)         147584    
_________________________________________________________________
conv2d_6 (Conv2D)            (None, 8, 8, 128)         147584    
_________________________________________________________________
max_pooling2d_3 (MaxPooling2 (None, 4, 4, 128)         0         
_________________________________________________________________
flatten_1 (Flatten)          (None, 2048)              0         
_________________________________________________________________
dense_1 (Dense)              (None, 128)               262272    
_________________________________________________________________
activation_1 (Activation)    (None, 128)               0         
_________________________________________________________________
dense_2 (Dense)              (None, 128)               16512     
_________________________________________________________________
activation_2 (Activation)    (None, 128)               0         
_________________________________________________________________
dense_3 (Dense)              (None, 10)                1290      
=================================================================
Total params: 677,738
Trainable params: 677,738
Non-trainable params: 0
_________________________________________________________________

2018-04-30 03:40:36.942503AM --- Model took seconds to train 375.58796286582947
2018-04-30 03:40:37.096657AM --- Accuracy on test data is: 78.2
2018-04-30 03:40:37.140071AM --- starting process for: (((conv*1)vazio)*1)fc*0
2018-04-30 03:40:37.840603AM
_________________________________________________________________
Layer (type)                 Output Shape              Param #   
=================================================================
conv2d_1 (Conv2D)            (None, 32, 32, 32)        896       
_________________________________________________________________
flatten_1 (Flatten)          (None, 32768)             0         
_________________________________________________________________
dense_1 (Dense)              (None, 10)                327690    
=================================================================
Total params: 328,586
Trainable params: 328,586
Non-trainable params: 0
_________________________________________________________________

2018-04-30 03:45:18.107280AM --- Model took seconds to train 280.2514703273773
2018-04-30 03:45:18.360050AM --- Accuracy on test data is: 57.95
2018-04-30 03:45:18.402753AM --- starting process for: (((conv*1)pool)*2)fc*2
2018-04-30 03:45:19.115052AM
_________________________________________________________________
Layer (type)                 Output Shape              Param #   
=================================================================
conv2d_1 (Conv2D)            (None, 32, 32, 32)        896       
_________________________________________________________________
max_pooling2d_1 (MaxPooling2 (None, 16, 16, 32)        0         
_________________________________________________________________
conv2d_2 (Conv2D)            (None, 16, 16, 32)        9248      
_________________________________________________________________
max_pooling2d_2 (MaxPooling2 (None, 8, 8, 32)          0         
_________________________________________________________________
flatten_1 (Flatten)          (None, 2048)              0         
_________________________________________________________________
dense_1 (Dense)              (None, 128)               262272    
_________________________________________________________________
activation_1 (Activation)    (None, 128)               0         
_________________________________________________________________
dense_2 (Dense)              (None, 128)               16512     
_________________________________________________________________
activation_2 (Activation)    (None, 128)               0         
_________________________________________________________________
dense_3 (Dense)              (None, 10)                1290      
=================================================================
Total params: 290,218
Trainable params: 290,218
Non-trainable params: 0
_________________________________________________________________

2018-04-30 03:47:56.160732AM --- Model took seconds to train 157.03071308135986
2018-04-30 03:47:56.285859AM --- Accuracy on test data is: 67.2
2018-04-30 03:47:56.339411AM --- starting process for: (((conv*2)vazio)*3)fc*1
2018-04-30 03:47:57.063484AM
_________________________________________________________________
Layer (type)                 Output Shape              Param #   
=================================================================
conv2d_1 (Conv2D)            (None, 32, 32, 32)        896       
_________________________________________________________________
conv2d_2 (Conv2D)            (None, 32, 32, 32)        9248      
_________________________________________________________________
conv2d_3 (Conv2D)            (None, 32, 32, 64)        18496     
_________________________________________________________________
conv2d_4 (Conv2D)            (None, 32, 32, 128)       73856     
_________________________________________________________________
conv2d_5 (Conv2D)            (None, 32, 32, 128)       147584    
_________________________________________________________________
conv2d_6 (Conv2D)            (None, 32, 32, 128)       147584    
_________________________________________________________________
flatten_1 (Flatten)          (None, 131072)            0         
_________________________________________________________________
dense_1 (Dense)              (None, 128)               16777344  
_________________________________________________________________
activation_1 (Activation)    (None, 128)               0         
_________________________________________________________________
dense_2 (Dense)              (None, 10)                1290      
=================================================================
Total params: 17,176,298
Trainable params: 17,176,298
Non-trainable params: 0
_________________________________________________________________

2018-04-30 04:08:56.783896AM --- Model took seconds to train 1259.7046871185303
2018-04-30 04:08:57.806877AM --- Accuracy on test data is: 65.10000000000001
2018-04-30 04:08:57.847533AM --- starting process for: (((conv*2)vazio)*3)fc*0
2018-04-30 04:08:58.574276AM
_________________________________________________________________
Layer (type)                 Output Shape              Param #   
=================================================================
conv2d_1 (Conv2D)            (None, 32, 32, 32)        896       
_________________________________________________________________
conv2d_2 (Conv2D)            (None, 32, 32, 32)        9248      
_________________________________________________________________
conv2d_3 (Conv2D)            (None, 32, 32, 64)        18496     
_________________________________________________________________
conv2d_4 (Conv2D)            (None, 32, 32, 128)       73856     
_________________________________________________________________
conv2d_5 (Conv2D)            (None, 32, 32, 128)       147584    
_________________________________________________________________
conv2d_6 (Conv2D)            (None, 32, 32, 128)       147584    
_________________________________________________________________
flatten_1 (Flatten)          (None, 131072)            0         
_________________________________________________________________
dense_1 (Dense)              (None, 10)                1310730   
=================================================================
Total params: 1,708,394
Trainable params: 1,708,394
Non-trainable params: 0
_________________________________________________________________

2018-04-30 04:33:41.319504AM --- Model took seconds to train 1482.7295453548431
2018-04-30 04:33:42.277444AM --- Accuracy on test data is: 64.4
2018-04-30 04:33:42.319716AM --- starting process for: (((conv*1)vazio)*3)fc*0
2018-04-30 04:33:43.031329AM
_________________________________________________________________
Layer (type)                 Output Shape              Param #   
=================================================================
conv2d_1 (Conv2D)            (None, 32, 32, 32)        896       
_________________________________________________________________
conv2d_2 (Conv2D)            (None, 32, 32, 32)        9248      
_________________________________________________________________
conv2d_3 (Conv2D)            (None, 32, 32, 64)        18496     
_________________________________________________________________
flatten_1 (Flatten)          (None, 65536)             0         
_________________________________________________________________
dense_1 (Dense)              (None, 10)                655370    
=================================================================
Total params: 684,010
Trainable params: 684,010
Non-trainable params: 0
_________________________________________________________________

2018-04-30 04:43:39.506499AM --- Model took seconds to train 596.4600846767426
2018-04-30 04:43:39.953170AM --- Accuracy on test data is: 60.95
2018-04-30 04:43:39.994574AM --- starting process for: (((conv*2)pool)*3)fc*0
2018-04-30 04:43:40.720257AM
_________________________________________________________________
Layer (type)                 Output Shape              Param #   
=================================================================
conv2d_1 (Conv2D)            (None, 32, 32, 32)        896       
_________________________________________________________________
conv2d_2 (Conv2D)            (None, 32, 32, 32)        9248      
_________________________________________________________________
max_pooling2d_1 (MaxPooling2 (None, 16, 16, 32)        0         
_________________________________________________________________
conv2d_3 (Conv2D)            (None, 16, 16, 64)        18496     
_________________________________________________________________
conv2d_4 (Conv2D)            (None, 16, 16, 128)       73856     
_________________________________________________________________
max_pooling2d_2 (MaxPooling2 (None, 8, 8, 128)         0         
_________________________________________________________________
conv2d_5 (Conv2D)            (None, 8, 8, 128)         147584    
_________________________________________________________________
conv2d_6 (Conv2D)            (None, 8, 8, 128)         147584    
_________________________________________________________________
max_pooling2d_3 (MaxPooling2 (None, 4, 4, 128)         0         
_________________________________________________________________
flatten_1 (Flatten)          (None, 2048)              0         
_________________________________________________________________
dense_1 (Dense)              (None, 10)                20490     
=================================================================
Total params: 418,154
Trainable params: 418,154
Non-trainable params: 0
_________________________________________________________________

2018-04-30 04:49:51.013042AM --- Model took seconds to train 370.2775855064392
2018-04-30 04:49:51.148770AM --- Accuracy on test data is: 74.95
2018-04-30 04:49:51.189513AM --- starting process for: (((conv*2)pool)*1)fc*2
2018-04-30 04:49:51.900872AM
_________________________________________________________________
Layer (type)                 Output Shape              Param #   
=================================================================
conv2d_1 (Conv2D)            (None, 32, 32, 32)        896       
_________________________________________________________________
conv2d_2 (Conv2D)            (None, 32, 32, 32)        9248      
_________________________________________________________________
max_pooling2d_1 (MaxPooling2 (None, 16, 16, 32)        0         
_________________________________________________________________
flatten_1 (Flatten)          (None, 8192)              0         
_________________________________________________________________
dense_1 (Dense)              (None, 128)               1048704   
_________________________________________________________________
activation_1 (Activation)    (None, 128)               0         
_________________________________________________________________
dense_2 (Dense)              (None, 128)               16512     
_________________________________________________________________
activation_2 (Activation)    (None, 128)               0         
_________________________________________________________________
dense_3 (Dense)              (None, 10)                1290      
=================================================================
Total params: 1,076,650
Trainable params: 1,076,650
Non-trainable params: 0
_________________________________________________________________

2018-04-30 04:53:26.846496AM --- Model took seconds to train 214.93050527572632
2018-04-30 04:53:27.003733AM --- Accuracy on test data is: 65.95
2018-04-30 04:53:27.053874AM --- starting process for: (((conv*2)pool)*3)fc*1
2018-04-30 04:53:27.783979AM
_________________________________________________________________
Layer (type)                 Output Shape              Param #   
=================================================================
conv2d_1 (Conv2D)            (None, 32, 32, 32)        896       
_________________________________________________________________
conv2d_2 (Conv2D)            (None, 32, 32, 32)        9248      
_________________________________________________________________
max_pooling2d_1 (MaxPooling2 (None, 16, 16, 32)        0         
_________________________________________________________________
conv2d_3 (Conv2D)            (None, 16, 16, 64)        18496     
_________________________________________________________________
conv2d_4 (Conv2D)            (None, 16, 16, 128)       73856     
_________________________________________________________________
max_pooling2d_2 (MaxPooling2 (None, 8, 8, 128)         0         
_________________________________________________________________
conv2d_5 (Conv2D)            (None, 8, 8, 128)         147584    
_________________________________________________________________
conv2d_6 (Conv2D)            (None, 8, 8, 128)         147584    
_________________________________________________________________
max_pooling2d_3 (MaxPooling2 (None, 4, 4, 128)         0         
_________________________________________________________________
flatten_1 (Flatten)          (None, 2048)              0         
_________________________________________________________________
dense_1 (Dense)              (None, 128)               262272    
_________________________________________________________________
activation_1 (Activation)    (None, 128)               0         
_________________________________________________________________
dense_2 (Dense)              (None, 10)                1290      
=================================================================
Total params: 661,226
Trainable params: 661,226
Non-trainable params: 0
_________________________________________________________________

2018-04-30 04:59:38.931253AM --- Model took seconds to train 371.1311070919037
2018-04-30 04:59:39.086341AM --- Accuracy on test data is: 77.10000000000001
2018-04-30 04:59:39.126756AM --- starting process for: (((conv*2)pool)*3)fc*2
2018-04-30 04:59:39.861257AM
_________________________________________________________________
Layer (type)                 Output Shape              Param #   
=================================================================
conv2d_1 (Conv2D)            (None, 32, 32, 32)        896       
_________________________________________________________________
conv2d_2 (Conv2D)            (None, 32, 32, 32)        9248      
_________________________________________________________________
max_pooling2d_1 (MaxPooling2 (None, 16, 16, 32)        0         
_________________________________________________________________
conv2d_3 (Conv2D)            (None, 16, 16, 64)        18496     
_________________________________________________________________
conv2d_4 (Conv2D)            (None, 16, 16, 128)       73856     
_________________________________________________________________
max_pooling2d_2 (MaxPooling2 (None, 8, 8, 128)         0         
_________________________________________________________________
conv2d_5 (Conv2D)            (None, 8, 8, 128)         147584    
_________________________________________________________________
conv2d_6 (Conv2D)            (None, 8, 8, 128)         147584    
_________________________________________________________________
max_pooling2d_3 (MaxPooling2 (None, 4, 4, 128)         0         
_________________________________________________________________
flatten_1 (Flatten)          (None, 2048)              0         
_________________________________________________________________
dense_1 (Dense)              (None, 128)               262272    
_________________________________________________________________
activation_1 (Activation)    (None, 128)               0         
_________________________________________________________________
dense_2 (Dense)              (None, 128)               16512     
_________________________________________________________________
activation_2 (Activation)    (None, 128)               0         
_________________________________________________________________
dense_3 (Dense)              (None, 10)                1290      
=================================================================
Total params: 677,738
Trainable params: 677,738
Non-trainable params: 0
_________________________________________________________________

2018-04-30 05:05:55.105450AM --- Model took seconds to train 375.2289412021637
2018-04-30 05:05:55.259712AM --- Accuracy on test data is: 77.25
2018-04-30 05:05:55.301303AM --- starting process for: (((conv*1)pool)*3)fc*2
2018-04-30 05:05:56.021490AM
_________________________________________________________________
Layer (type)                 Output Shape              Param #   
=================================================================
conv2d_1 (Conv2D)            (None, 32, 32, 32)        896       
_________________________________________________________________
max_pooling2d_1 (MaxPooling2 (None, 16, 16, 32)        0         
_________________________________________________________________
conv2d_2 (Conv2D)            (None, 16, 16, 32)        9248      
_________________________________________________________________
max_pooling2d_2 (MaxPooling2 (None, 8, 8, 32)          0         
_________________________________________________________________
conv2d_3 (Conv2D)            (None, 8, 8, 64)          18496     
_________________________________________________________________
max_pooling2d_3 (MaxPooling2 (None, 4, 4, 64)          0         
_________________________________________________________________
flatten_1 (Flatten)          (None, 1024)              0         
_________________________________________________________________
dense_1 (Dense)              (None, 128)               131200    
_________________________________________________________________
activation_1 (Activation)    (None, 128)               0         
_________________________________________________________________
dense_2 (Dense)              (None, 128)               16512     
_________________________________________________________________
activation_2 (Activation)    (None, 128)               0         
_________________________________________________________________
dense_3 (Dense)              (None, 10)                1290      
=================================================================
Total params: 177,642
Trainable params: 177,642
Non-trainable params: 0
_________________________________________________________________

2018-04-30 05:08:48.296327AM --- Model took seconds to train 172.25940942764282
2018-04-30 05:08:48.392773AM --- Accuracy on test data is: 69.35
2018-04-30 05:08:48.436766AM --- starting process for: (((conv*2)pool)*3)fc*2
2018-04-30 05:08:49.174341AM
_________________________________________________________________
Layer (type)                 Output Shape              Param #   
=================================================================
conv2d_1 (Conv2D)            (None, 32, 32, 32)        896       
_________________________________________________________________
conv2d_2 (Conv2D)            (None, 32, 32, 32)        9248      
_________________________________________________________________
max_pooling2d_1 (MaxPooling2 (None, 16, 16, 32)        0         
_________________________________________________________________
conv2d_3 (Conv2D)            (None, 16, 16, 64)        18496     
_________________________________________________________________
conv2d_4 (Conv2D)            (None, 16, 16, 128)       73856     
_________________________________________________________________
max_pooling2d_2 (MaxPooling2 (None, 8, 8, 128)         0         
_________________________________________________________________
conv2d_5 (Conv2D)            (None, 8, 8, 128)         147584    
_________________________________________________________________
conv2d_6 (Conv2D)            (None, 8, 8, 128)         147584    
_________________________________________________________________
max_pooling2d_3 (MaxPooling2 (None, 4, 4, 128)         0         
_________________________________________________________________
flatten_1 (Flatten)          (None, 2048)              0         
_________________________________________________________________
dense_1 (Dense)              (None, 128)               262272    
_________________________________________________________________
activation_1 (Activation)    (None, 128)               0         
_________________________________________________________________
dense_2 (Dense)              (None, 128)               16512     
_________________________________________________________________
activation_2 (Activation)    (None, 128)               0         
_________________________________________________________________
dense_3 (Dense)              (None, 10)                1290      
=================================================================
Total params: 677,738
Trainable params: 677,738
Non-trainable params: 0
_________________________________________________________________

2018-04-30 05:15:03.612641AM --- Model took seconds to train 374.42289447784424
2018-04-30 05:15:03.774953AM --- Accuracy on test data is: 77.8
2018-04-30 05:15:03.823013AM --- starting process for: (((conv*2)pool)*3)fc*2
2018-04-30 05:15:04.562603AM
_________________________________________________________________
Layer (type)                 Output Shape              Param #   
=================================================================
conv2d_1 (Conv2D)            (None, 32, 32, 32)        896       
_________________________________________________________________
conv2d_2 (Conv2D)            (None, 32, 32, 32)        9248      
_________________________________________________________________
max_pooling2d_1 (MaxPooling2 (None, 16, 16, 32)        0         
_________________________________________________________________
conv2d_3 (Conv2D)            (None, 16, 16, 64)        18496     
_________________________________________________________________
conv2d_4 (Conv2D)            (None, 16, 16, 128)       73856     
_________________________________________________________________
max_pooling2d_2 (MaxPooling2 (None, 8, 8, 128)         0         
_________________________________________________________________
conv2d_5 (Conv2D)            (None, 8, 8, 128)         147584    
_________________________________________________________________
conv2d_6 (Conv2D)            (None, 8, 8, 128)         147584    
_________________________________________________________________
max_pooling2d_3 (MaxPooling2 (None, 4, 4, 128)         0         
_________________________________________________________________
flatten_1 (Flatten)          (None, 2048)              0         
_________________________________________________________________
dense_1 (Dense)              (None, 128)               262272    
_________________________________________________________________
activation_1 (Activation)    (None, 128)               0         
_________________________________________________________________
dense_2 (Dense)              (None, 128)               16512     
_________________________________________________________________
activation_2 (Activation)    (None, 128)               0         
_________________________________________________________________
dense_3 (Dense)              (None, 10)                1290      
=================================================================
Total params: 677,738
Trainable params: 677,738
Non-trainable params: 0
_________________________________________________________________

2018-04-30 05:21:20.154245AM --- Model took seconds to train 375.5759449005127
2018-04-30 05:21:20.310468AM --- Accuracy on test data is: 77.60000000000001
2018-04-30 05:21:20.361026AM --- starting process for: (((conv*1)pool)*3)fc*2
2018-04-30 05:21:21.082419AM
_________________________________________________________________
Layer (type)                 Output Shape              Param #   
=================================================================
conv2d_1 (Conv2D)            (None, 32, 32, 32)        896       
_________________________________________________________________
max_pooling2d_1 (MaxPooling2 (None, 16, 16, 32)        0         
_________________________________________________________________
conv2d_2 (Conv2D)            (None, 16, 16, 32)        9248      
_________________________________________________________________
max_pooling2d_2 (MaxPooling2 (None, 8, 8, 32)          0         
_________________________________________________________________
conv2d_3 (Conv2D)            (None, 8, 8, 64)          18496     
_________________________________________________________________
max_pooling2d_3 (MaxPooling2 (None, 4, 4, 64)          0         
_________________________________________________________________
flatten_1 (Flatten)          (None, 1024)              0         
_________________________________________________________________
dense_1 (Dense)              (None, 128)               131200    
_________________________________________________________________
activation_1 (Activation)    (None, 128)               0         
_________________________________________________________________
dense_2 (Dense)              (None, 128)               16512     
_________________________________________________________________
activation_2 (Activation)    (None, 128)               0         
_________________________________________________________________
dense_3 (Dense)              (None, 10)                1290      
=================================================================
Total params: 177,642
Trainable params: 177,642
Non-trainable params: 0
_________________________________________________________________

2018-04-30 05:24:15.426437AM --- Model took seconds to train 174.32810926437378
2018-04-30 05:24:15.526729AM --- Accuracy on test data is: 71.75
2018-04-30 05:24:15.570643AM --- starting process for: (((conv*1)pool)*2)fc*0
2018-04-30 05:24:16.269855AM
_________________________________________________________________
Layer (type)                 Output Shape              Param #   
=================================================================
conv2d_1 (Conv2D)            (None, 32, 32, 32)        896       
_________________________________________________________________
max_pooling2d_1 (MaxPooling2 (None, 16, 16, 32)        0         
_________________________________________________________________
conv2d_2 (Conv2D)            (None, 16, 16, 32)        9248      
_________________________________________________________________
max_pooling2d_2 (MaxPooling2 (None, 8, 8, 32)          0         
_________________________________________________________________
flatten_1 (Flatten)          (None, 2048)              0         
_________________________________________________________________
dense_1 (Dense)              (None, 10)                20490     
=================================================================
Total params: 30,634
Trainable params: 30,634
Non-trainable params: 0
_________________________________________________________________

2018-04-30 05:26:46.753360AM --- Model took seconds to train 150.46846652030945
2018-04-30 05:26:46.866220AM --- Accuracy on test data is: 69.8
2018-04-30 05:26:46.915430AM --- starting process for: (((conv*2)pool)*2)fc*2
2018-04-30 05:26:47.637625AM
_________________________________________________________________
Layer (type)                 Output Shape              Param #   
=================================================================
conv2d_1 (Conv2D)            (None, 32, 32, 32)        896       
_________________________________________________________________
conv2d_2 (Conv2D)            (None, 32, 32, 32)        9248      
_________________________________________________________________
max_pooling2d_1 (MaxPooling2 (None, 16, 16, 32)        0         
_________________________________________________________________
conv2d_3 (Conv2D)            (None, 16, 16, 64)        18496     
_________________________________________________________________
conv2d_4 (Conv2D)            (None, 16, 16, 128)       73856     
_________________________________________________________________
max_pooling2d_2 (MaxPooling2 (None, 8, 8, 128)         0         
_________________________________________________________________
flatten_1 (Flatten)          (None, 8192)              0         
_________________________________________________________________
dense_1 (Dense)              (None, 128)               1048704   
_________________________________________________________________
activation_1 (Activation)    (None, 128)               0         
_________________________________________________________________
dense_2 (Dense)              (None, 128)               16512     
_________________________________________________________________
activation_2 (Activation)    (None, 128)               0         
_________________________________________________________________
dense_3 (Dense)              (None, 10)                1290      
=================================================================
Total params: 1,169,002
Trainable params: 1,169,002
Non-trainable params: 0
_________________________________________________________________

2018-04-30 05:32:14.884709AM --- Model took seconds to train 327.23183727264404
2018-04-30 05:32:15.083536AM --- Accuracy on test data is: 73.6
2018-04-30 05:32:15.126215AM --- starting process for: (((conv*2)pool)*2)fc*2
2018-04-30 05:32:15.853435AM
_________________________________________________________________
Layer (type)                 Output Shape              Param #   
=================================================================
conv2d_1 (Conv2D)            (None, 32, 32, 32)        896       
_________________________________________________________________
conv2d_2 (Conv2D)            (None, 32, 32, 32)        9248      
_________________________________________________________________
max_pooling2d_1 (MaxPooling2 (None, 16, 16, 32)        0         
_________________________________________________________________
conv2d_3 (Conv2D)            (None, 16, 16, 64)        18496     
_________________________________________________________________
conv2d_4 (Conv2D)            (None, 16, 16, 128)       73856     
_________________________________________________________________
max_pooling2d_2 (MaxPooling2 (None, 8, 8, 128)         0         
_________________________________________________________________
flatten_1 (Flatten)          (None, 8192)              0         
_________________________________________________________________
dense_1 (Dense)              (None, 128)               1048704   
_________________________________________________________________
activation_1 (Activation)    (None, 128)               0         
_________________________________________________________________
dense_2 (Dense)              (None, 128)               16512     
_________________________________________________________________
activation_2 (Activation)    (None, 128)               0         
_________________________________________________________________
dense_3 (Dense)              (None, 10)                1290      
=================================================================
Total params: 1,169,002
Trainable params: 1,169,002
Non-trainable params: 0
_________________________________________________________________

2018-04-30 05:37:39.692148AM --- Model took seconds to train 323.8234167098999
2018-04-30 05:37:39.895510AM --- Accuracy on test data is: 73.95
2018-04-30 05:37:39.946167AM --- starting process for: (((conv*1)pool)*1)fc*1
2018-04-30 05:37:40.648348AM
_________________________________________________________________
Layer (type)                 Output Shape              Param #   
=================================================================
conv2d_1 (Conv2D)            (None, 32, 32, 32)        896       
_________________________________________________________________
max_pooling2d_1 (MaxPooling2 (None, 16, 16, 32)        0         
_________________________________________________________________
flatten_1 (Flatten)          (None, 8192)              0         
_________________________________________________________________
dense_1 (Dense)              (None, 128)               1048704   
_________________________________________________________________
activation_1 (Activation)    (None, 128)               0         
_________________________________________________________________
dense_2 (Dense)              (None, 10)                1290      
=================================================================
Total params: 1,050,890
Trainable params: 1,050,890
Non-trainable params: 0
_________________________________________________________________

2018-04-30 05:39:59.435605AM --- Model took seconds to train 138.77246499061584
2018-04-30 05:39:59.554181AM --- Accuracy on test data is: 65.85
2018-04-30 05:39:59.598691AM --- starting process for: (((conv*2)pool)*3)fc*1
2018-04-30 05:40:00.328533AM
_________________________________________________________________
Layer (type)                 Output Shape              Param #   
=================================================================
conv2d_1 (Conv2D)            (None, 32, 32, 32)        896       
_________________________________________________________________
conv2d_2 (Conv2D)            (None, 32, 32, 32)        9248      
_________________________________________________________________
max_pooling2d_1 (MaxPooling2 (None, 16, 16, 32)        0         
_________________________________________________________________
conv2d_3 (Conv2D)            (None, 16, 16, 64)        18496     
_________________________________________________________________
conv2d_4 (Conv2D)            (None, 16, 16, 128)       73856     
_________________________________________________________________
max_pooling2d_2 (MaxPooling2 (None, 8, 8, 128)         0         
_________________________________________________________________
conv2d_5 (Conv2D)            (None, 8, 8, 128)         147584    
_________________________________________________________________
conv2d_6 (Conv2D)            (None, 8, 8, 128)         147584    
_________________________________________________________________
max_pooling2d_3 (MaxPooling2 (None, 4, 4, 128)         0         
_________________________________________________________________
flatten_1 (Flatten)          (None, 2048)              0         
_________________________________________________________________
dense_1 (Dense)              (None, 128)               262272    
_________________________________________________________________
activation_1 (Activation)    (None, 128)               0         
_________________________________________________________________
dense_2 (Dense)              (None, 10)                1290      
=================================================================
Total params: 661,226
Trainable params: 661,226
Non-trainable params: 0
_________________________________________________________________

2018-04-30 05:46:09.634856AM --- Model took seconds to train 369.29090881347656
2018-04-30 05:46:09.786427AM --- Accuracy on test data is: 77.95
2018-04-30 05:46:09.827967AM --- starting process for: (((conv*2)pool)*3)fc*0
2018-04-30 05:46:10.553258AM
_________________________________________________________________
Layer (type)                 Output Shape              Param #   
=================================================================
conv2d_1 (Conv2D)            (None, 32, 32, 32)        896       
_________________________________________________________________
conv2d_2 (Conv2D)            (None, 32, 32, 32)        9248      
_________________________________________________________________
max_pooling2d_1 (MaxPooling2 (None, 16, 16, 32)        0         
_________________________________________________________________
conv2d_3 (Conv2D)            (None, 16, 16, 64)        18496     
_________________________________________________________________
conv2d_4 (Conv2D)            (None, 16, 16, 128)       73856     
_________________________________________________________________
max_pooling2d_2 (MaxPooling2 (None, 8, 8, 128)         0         
_________________________________________________________________
conv2d_5 (Conv2D)            (None, 8, 8, 128)         147584    
_________________________________________________________________
conv2d_6 (Conv2D)            (None, 8, 8, 128)         147584    
_________________________________________________________________
max_pooling2d_3 (MaxPooling2 (None, 4, 4, 128)         0         
_________________________________________________________________
flatten_1 (Flatten)          (None, 2048)              0         
_________________________________________________________________
dense_1 (Dense)              (None, 10)                20490     
=================================================================
Total params: 418,154
Trainable params: 418,154
Non-trainable params: 0
_________________________________________________________________

2018-04-30 05:52:20.544567AM --- Model took seconds to train 369.9759101867676
2018-04-30 05:52:20.689627AM --- Accuracy on test data is: 77.0
2018-04-30 05:52:20.734640AM --- starting process for: (((conv*2)pool)*3)fc*2
2018-04-30 05:52:21.470343AM
_________________________________________________________________
Layer (type)                 Output Shape              Param #   
=================================================================
conv2d_1 (Conv2D)            (None, 32, 32, 32)        896       
_________________________________________________________________
conv2d_2 (Conv2D)            (None, 32, 32, 32)        9248      
_________________________________________________________________
max_pooling2d_1 (MaxPooling2 (None, 16, 16, 32)        0         
_________________________________________________________________
conv2d_3 (Conv2D)            (None, 16, 16, 64)        18496     
_________________________________________________________________
conv2d_4 (Conv2D)            (None, 16, 16, 128)       73856     
_________________________________________________________________
max_pooling2d_2 (MaxPooling2 (None, 8, 8, 128)         0         
_________________________________________________________________
conv2d_5 (Conv2D)            (None, 8, 8, 128)         147584    
_________________________________________________________________
conv2d_6 (Conv2D)            (None, 8, 8, 128)         147584    
_________________________________________________________________
max_pooling2d_3 (MaxPooling2 (None, 4, 4, 128)         0         
_________________________________________________________________
flatten_1 (Flatten)          (None, 2048)              0         
_________________________________________________________________
dense_1 (Dense)              (None, 128)               262272    
_________________________________________________________________
activation_1 (Activation)    (None, 128)               0         
_________________________________________________________________
dense_2 (Dense)              (None, 128)               16512     
_________________________________________________________________
activation_2 (Activation)    (None, 128)               0         
_________________________________________________________________
dense_3 (Dense)              (None, 10)                1290      
=================================================================
Total params: 677,738
Trainable params: 677,738
Non-trainable params: 0
_________________________________________________________________

2018-04-30 05:58:37.368245AM --- Model took seconds to train 375.88222908973694
2018-04-30 05:58:37.521670AM --- Accuracy on test data is: 76.8
2018-04-30 05:58:37.562807AM --- starting process for: (((conv*1)pool)*2)fc*0
2018-04-30 05:58:38.335419AM
_________________________________________________________________
Layer (type)                 Output Shape              Param #   
=================================================================
conv2d_1 (Conv2D)            (None, 32, 32, 32)        896       
_________________________________________________________________
max_pooling2d_1 (MaxPooling2 (None, 16, 16, 32)        0         
_________________________________________________________________
conv2d_2 (Conv2D)            (None, 16, 16, 32)        9248      
_________________________________________________________________
max_pooling2d_2 (MaxPooling2 (None, 8, 8, 32)          0         
_________________________________________________________________
flatten_1 (Flatten)          (None, 2048)              0         
_________________________________________________________________
dense_1 (Dense)              (None, 10)                20490     
=================================================================
Total params: 30,634
Trainable params: 30,634
Non-trainable params: 0
_________________________________________________________________

2018-04-30 06:01:07.231238AM --- Model took seconds to train 148.88109064102173
2018-04-30 06:01:07.316557AM --- Accuracy on test data is: 70.39999999999999
2018-04-30 06:01:07.359129AM --- starting process for: (((conv*1)pool)*1)fc*0
2018-04-30 06:01:08.057285AM
_________________________________________________________________
Layer (type)                 Output Shape              Param #   
=================================================================
conv2d_1 (Conv2D)            (None, 32, 32, 32)        896       
_________________________________________________________________
max_pooling2d_1 (MaxPooling2 (None, 16, 16, 32)        0         
_________________________________________________________________
flatten_1 (Flatten)          (None, 8192)              0         
_________________________________________________________________
dense_1 (Dense)              (None, 10)                81930     
=================================================================
Total params: 82,826
Trainable params: 82,826
Non-trainable params: 0
_________________________________________________________________

2018-04-30 06:03:39.698491AM --- Model took seconds to train 151.62566661834717
2018-04-30 06:03:39.832267AM --- Accuracy on test data is: 62.9
2018-04-30 06:03:39.883371AM --- starting process for: (((conv*1)pool)*3)fc*0
2018-04-30 06:03:40.592282AM
_________________________________________________________________
Layer (type)                 Output Shape              Param #   
=================================================================
conv2d_1 (Conv2D)            (None, 32, 32, 32)        896       
_________________________________________________________________
max_pooling2d_1 (MaxPooling2 (None, 16, 16, 32)        0         
_________________________________________________________________
conv2d_2 (Conv2D)            (None, 16, 16, 32)        9248      
_________________________________________________________________
max_pooling2d_2 (MaxPooling2 (None, 8, 8, 32)          0         
_________________________________________________________________
conv2d_3 (Conv2D)            (None, 8, 8, 64)          18496     
_________________________________________________________________
max_pooling2d_3 (MaxPooling2 (None, 4, 4, 64)          0         
_________________________________________________________________
flatten_1 (Flatten)          (None, 1024)              0         
_________________________________________________________________
dense_1 (Dense)              (None, 10)                10250     
=================================================================
Total params: 38,890
Trainable params: 38,890
Non-trainable params: 0
_________________________________________________________________

2018-04-30 06:06:25.933061AM --- Model took seconds to train 165.32549452781677
2018-04-30 06:06:26.002453AM --- Accuracy on test data is: 71.7
2018-04-30 06:06:26.043484AM --- starting process for: (((conv*2)pool)*3)fc*0
2018-04-30 06:06:26.825612AM
_________________________________________________________________
Layer (type)                 Output Shape              Param #   
=================================================================
conv2d_1 (Conv2D)            (None, 32, 32, 32)        896       
_________________________________________________________________
conv2d_2 (Conv2D)            (None, 32, 32, 32)        9248      
_________________________________________________________________
max_pooling2d_1 (MaxPooling2 (None, 16, 16, 32)        0         
_________________________________________________________________
conv2d_3 (Conv2D)            (None, 16, 16, 64)        18496     
_________________________________________________________________
conv2d_4 (Conv2D)            (None, 16, 16, 128)       73856     
_________________________________________________________________
max_pooling2d_2 (MaxPooling2 (None, 8, 8, 128)         0         
_________________________________________________________________
conv2d_5 (Conv2D)            (None, 8, 8, 128)         147584    
_________________________________________________________________
conv2d_6 (Conv2D)            (None, 8, 8, 128)         147584    
_________________________________________________________________
max_pooling2d_3 (MaxPooling2 (None, 4, 4, 128)         0         
_________________________________________________________________
flatten_1 (Flatten)          (None, 2048)              0         
_________________________________________________________________
dense_1 (Dense)              (None, 10)                20490     
=================================================================
Total params: 418,154
Trainable params: 418,154
Non-trainable params: 0
_________________________________________________________________

2018-04-30 06:12:36.260529AM --- Model took seconds to train 369.41976141929626
2018-04-30 06:12:36.401785AM --- Accuracy on test data is: 76.14999999999999
2018-04-30 06:12:36.454327AM --- 0 - Individual: (((conv*2)pool)*3)fc*2; 79.3
…
2018-04-30 06:12:36.457813AM --- 47 - Individual: (((conv*1)vazio)*3)fc*0; 60.95
2018-04-30 06:12:36.457890AM --- 48 - Individual: (((conv*2)vazio)*1)fc*0; 60.150000000000006
2018-04-30 06:12:36.457966AM --- 49 - Individual: (((conv*1)vazio)*1)fc*0; 57.95
2018-04-30 06:12:36.458013AM --- Generation: 27
2018-04-30 06:12:36.460776AM --- starting process for: (((conv*2)pool)*3)fc*1
2018-04-30 06:12:37.194850AM
_________________________________________________________________
Layer (type)                 Output Shape              Param #   
=================================================================
conv2d_1 (Conv2D)            (None, 32, 32, 32)        896       
_________________________________________________________________
conv2d_2 (Conv2D)            (None, 32, 32, 32)        9248      
_________________________________________________________________
max_pooling2d_1 (MaxPooling2 (None, 16, 16, 32)        0         
_________________________________________________________________
conv2d_3 (Conv2D)            (None, 16, 16, 64)        18496     
_________________________________________________________________
conv2d_4 (Conv2D)            (None, 16, 16, 128)       73856     
_________________________________________________________________
max_pooling2d_2 (MaxPooling2 (None, 8, 8, 128)         0         
_________________________________________________________________
conv2d_5 (Conv2D)            (None, 8, 8, 128)         147584    
_________________________________________________________________
conv2d_6 (Conv2D)            (None, 8, 8, 128)         147584    
_________________________________________________________________
max_pooling2d_3 (MaxPooling2 (None, 4, 4, 128)         0         
_________________________________________________________________
flatten_1 (Flatten)          (None, 2048)              0         
_________________________________________________________________
dense_1 (Dense)              (None, 128)               262272    
_________________________________________________________________
activation_1 (Activation)    (None, 128)               0         
_________________________________________________________________
dense_2 (Dense)              (None, 10)                1290      
=================================================================
Total params: 661,226
Trainable params: 661,226
Non-trainable params: 0
_________________________________________________________________

2018-04-30 06:18:48.627704AM --- Model took seconds to train 371.4167478084564
2018-04-30 06:18:48.775142AM --- Accuracy on test data is: 77.64999999999999
2018-04-30 06:18:48.816916AM --- starting process for: (((conv*2)pool)*3)fc*0
2018-04-30 06:18:49.545292AM
_________________________________________________________________
Layer (type)                 Output Shape              Param #   
=================================================================
conv2d_1 (Conv2D)            (None, 32, 32, 32)        896       
_________________________________________________________________
conv2d_2 (Conv2D)            (None, 32, 32, 32)        9248      
_________________________________________________________________
max_pooling2d_1 (MaxPooling2 (None, 16, 16, 32)        0         
_________________________________________________________________
conv2d_3 (Conv2D)            (None, 16, 16, 64)        18496     
_________________________________________________________________
conv2d_4 (Conv2D)            (None, 16, 16, 128)       73856     
_________________________________________________________________
max_pooling2d_2 (MaxPooling2 (None, 8, 8, 128)         0         
_________________________________________________________________
conv2d_5 (Conv2D)            (None, 8, 8, 128)         147584    
_________________________________________________________________
conv2d_6 (Conv2D)            (None, 8, 8, 128)         147584    
_________________________________________________________________
max_pooling2d_3 (MaxPooling2 (None, 4, 4, 128)         0         
_________________________________________________________________
flatten_1 (Flatten)          (None, 2048)              0         
_________________________________________________________________
dense_1 (Dense)              (None, 10)                20490     
=================================================================
Total params: 418,154
Trainable params: 418,154
Non-trainable params: 0
_________________________________________________________________

2018-04-30 06:24:58.431475AM --- Model took seconds to train 368.8710033893585
2018-04-30 06:24:58.571876AM --- Accuracy on test data is: 76.95
2018-04-30 06:24:58.615952AM --- starting process for: (((conv*2)pool)*2)fc*1
2018-04-30 06:24:59.344063AM
_________________________________________________________________
Layer (type)                 Output Shape              Param #   
=================================================================
conv2d_1 (Conv2D)            (None, 32, 32, 32)        896       
_________________________________________________________________
conv2d_2 (Conv2D)            (None, 32, 32, 32)        9248      
_________________________________________________________________
max_pooling2d_1 (MaxPooling2 (None, 16, 16, 32)        0         
_________________________________________________________________
conv2d_3 (Conv2D)            (None, 16, 16, 64)        18496     
_________________________________________________________________
conv2d_4 (Conv2D)            (None, 16, 16, 128)       73856     
_________________________________________________________________
max_pooling2d_2 (MaxPooling2 (None, 8, 8, 128)         0         
_________________________________________________________________
flatten_1 (Flatten)          (None, 8192)              0         
_________________________________________________________________
dense_1 (Dense)              (None, 128)               1048704   
_________________________________________________________________
activation_1 (Activation)    (None, 128)               0         
_________________________________________________________________
dense_2 (Dense)              (None, 10)                1290      
=================================================================
Total params: 1,152,490
Trainable params: 1,152,490
Non-trainable params: 0
_________________________________________________________________

2018-04-30 06:30:16.955581AM --- Model took seconds to train 317.5957782268524
2018-04-30 06:30:17.119252AM --- Accuracy on test data is: 75.44999999999999
2018-04-30 06:30:17.161261AM --- starting process for: (((conv*2)pool)*3)fc*2
2018-04-30 06:30:17.899206AM
_________________________________________________________________
Layer (type)                 Output Shape              Param #   
=================================================================
conv2d_1 (Conv2D)            (None, 32, 32, 32)        896       
_________________________________________________________________
conv2d_2 (Conv2D)            (None, 32, 32, 32)        9248      
_________________________________________________________________
max_pooling2d_1 (MaxPooling2 (None, 16, 16, 32)        0         
_________________________________________________________________
conv2d_3 (Conv2D)            (None, 16, 16, 64)        18496     
_________________________________________________________________
conv2d_4 (Conv2D)            (None, 16, 16, 128)       73856     
_________________________________________________________________
max_pooling2d_2 (MaxPooling2 (None, 8, 8, 128)         0         
_________________________________________________________________
conv2d_5 (Conv2D)            (None, 8, 8, 128)         147584    
_________________________________________________________________
conv2d_6 (Conv2D)            (None, 8, 8, 128)         147584    
_________________________________________________________________
max_pooling2d_3 (MaxPooling2 (None, 4, 4, 128)         0         
_________________________________________________________________
flatten_1 (Flatten)          (None, 2048)              0         
_________________________________________________________________
dense_1 (Dense)              (None, 128)               262272    
_________________________________________________________________
activation_1 (Activation)    (None, 128)               0         
_________________________________________________________________
dense_2 (Dense)              (None, 128)               16512     
_________________________________________________________________
activation_2 (Activation)    (None, 128)               0         
_________________________________________________________________
dense_3 (Dense)              (None, 10)                1290      
=================================================================
Total params: 677,738
Trainable params: 677,738
Non-trainable params: 0
_________________________________________________________________

2018-04-30 06:36:28.577828AM --- Model took seconds to train 370.6634204387665
2018-04-30 06:36:28.712493AM --- Accuracy on test data is: 77.10000000000001
2018-04-30 06:36:28.760458AM --- starting process for: (((conv*2)vazio)*3)fc*1
2018-04-30 06:36:29.496926AM
_________________________________________________________________
Layer (type)                 Output Shape              Param #   
=================================================================
conv2d_1 (Conv2D)            (None, 32, 32, 32)        896       
_________________________________________________________________
conv2d_2 (Conv2D)            (None, 32, 32, 32)        9248      
_________________________________________________________________
conv2d_3 (Conv2D)            (None, 32, 32, 64)        18496     
_________________________________________________________________
conv2d_4 (Conv2D)            (None, 32, 32, 128)       73856     
_________________________________________________________________
conv2d_5 (Conv2D)            (None, 32, 32, 128)       147584    
_________________________________________________________________
conv2d_6 (Conv2D)            (None, 32, 32, 128)       147584    
_________________________________________________________________
flatten_1 (Flatten)          (None, 131072)            0         
_________________________________________________________________
dense_1 (Dense)              (None, 128)               16777344  
_________________________________________________________________
activation_1 (Activation)    (None, 128)               0         
_________________________________________________________________
dense_2 (Dense)              (None, 10)                1290      
=================================================================
Total params: 17,176,298
Trainable params: 17,176,298
Non-trainable params: 0
_________________________________________________________________

2018-04-30 06:57:27.918049AM --- Model took seconds to train 1258.4058198928833
2018-04-30 06:57:28.955532AM --- Accuracy on test data is: 65.35
2018-04-30 06:57:28.997478AM --- starting process for: (((conv*2)vazio)*3)fc*0
2018-04-30 06:57:29.724733AM
_________________________________________________________________
Layer (type)                 Output Shape              Param #   
=================================================================
conv2d_1 (Conv2D)            (None, 32, 32, 32)        896       
_________________________________________________________________
conv2d_2 (Conv2D)            (None, 32, 32, 32)        9248      
_________________________________________________________________
conv2d_3 (Conv2D)            (None, 32, 32, 64)        18496     
_________________________________________________________________
conv2d_4 (Conv2D)            (None, 32, 32, 128)       73856     
_________________________________________________________________
conv2d_5 (Conv2D)            (None, 32, 32, 128)       147584    
_________________________________________________________________
conv2d_6 (Conv2D)            (None, 32, 32, 128)       147584    
_________________________________________________________________
flatten_1 (Flatten)          (None, 131072)            0         
_________________________________________________________________
dense_1 (Dense)              (None, 10)                1310730   
=================================================================
Total params: 1,708,394
Trainable params: 1,708,394
Non-trainable params: 0
_________________________________________________________________

2018-04-30 07:22:15.911732AM --- Model took seconds to train 1486.1715683937073
2018-04-30 07:22:16.902595AM --- Accuracy on test data is: 66.45
2018-04-30 07:22:16.943508AM --- starting process for: (((conv*1)pool)*3)fc*2
2018-04-30 07:22:17.652698AM
_________________________________________________________________
Layer (type)                 Output Shape              Param #   
=================================================================
conv2d_1 (Conv2D)            (None, 32, 32, 32)        896       
_________________________________________________________________
max_pooling2d_1 (MaxPooling2 (None, 16, 16, 32)        0         
_________________________________________________________________
conv2d_2 (Conv2D)            (None, 16, 16, 32)        9248      
_________________________________________________________________
max_pooling2d_2 (MaxPooling2 (None, 8, 8, 32)          0         
_________________________________________________________________
conv2d_3 (Conv2D)            (None, 8, 8, 64)          18496     
_________________________________________________________________
max_pooling2d_3 (MaxPooling2 (None, 4, 4, 64)          0         
_________________________________________________________________
flatten_1 (Flatten)          (None, 1024)              0         
_________________________________________________________________
dense_1 (Dense)              (None, 128)               131200    
_________________________________________________________________
activation_1 (Activation)    (None, 128)               0         
_________________________________________________________________
dense_2 (Dense)              (None, 128)               16512     
_________________________________________________________________
activation_2 (Activation)    (None, 128)               0         
_________________________________________________________________
dense_3 (Dense)              (None, 10)                1290      
=================================================================
Total params: 177,642
Trainable params: 177,642
Non-trainable params: 0
_________________________________________________________________

2018-04-30 07:25:10.269376AM --- Model took seconds to train 172.60129690170288
2018-04-30 07:25:10.375526AM --- Accuracy on test data is: 70.65
2018-04-30 07:25:10.421874AM --- starting process for: (((conv*1)pool)*3)fc*2
2018-04-30 07:25:11.141669AM
_________________________________________________________________
Layer (type)                 Output Shape              Param #   
=================================================================
conv2d_1 (Conv2D)            (None, 32, 32, 32)        896       
_________________________________________________________________
max_pooling2d_1 (MaxPooling2 (None, 16, 16, 32)        0         
_________________________________________________________________
conv2d_2 (Conv2D)            (None, 16, 16, 32)        9248      
_________________________________________________________________
max_pooling2d_2 (MaxPooling2 (None, 8, 8, 32)          0         
_________________________________________________________________
conv2d_3 (Conv2D)            (None, 8, 8, 64)          18496     
_________________________________________________________________
max_pooling2d_3 (MaxPooling2 (None, 4, 4, 64)          0         
_________________________________________________________________
flatten_1 (Flatten)          (None, 1024)              0         
_________________________________________________________________
dense_1 (Dense)              (None, 128)               131200    
_________________________________________________________________
activation_1 (Activation)    (None, 128)               0         
_________________________________________________________________
dense_2 (Dense)              (None, 128)               16512     
_________________________________________________________________
activation_2 (Activation)    (None, 128)               0         
_________________________________________________________________
dense_3 (Dense)              (None, 10)                1290      
=================================================================
Total params: 177,642
Trainable params: 177,642
Non-trainable params: 0
_________________________________________________________________

2018-04-30 07:28:03.001070AM --- Model took seconds to train 171.84403705596924
2018-04-30 07:28:03.111229AM --- Accuracy on test data is: 72.35000000000001
2018-04-30 07:28:03.157920AM --- starting process for: (((conv*2)pool)*3)fc*2
2018-04-30 07:28:03.889335AM
_________________________________________________________________
Layer (type)                 Output Shape              Param #   
=================================================================
conv2d_1 (Conv2D)            (None, 32, 32, 32)        896       
_________________________________________________________________
conv2d_2 (Conv2D)            (None, 32, 32, 32)        9248      
_________________________________________________________________
max_pooling2d_1 (MaxPooling2 (None, 16, 16, 32)        0         
_________________________________________________________________
conv2d_3 (Conv2D)            (None, 16, 16, 64)        18496     
_________________________________________________________________
conv2d_4 (Conv2D)            (None, 16, 16, 128)       73856     
_________________________________________________________________
max_pooling2d_2 (MaxPooling2 (None, 8, 8, 128)         0         
_________________________________________________________________
conv2d_5 (Conv2D)            (None, 8, 8, 128)         147584    
_________________________________________________________________
conv2d_6 (Conv2D)            (None, 8, 8, 128)         147584    
_________________________________________________________________
max_pooling2d_3 (MaxPooling2 (None, 4, 4, 128)         0         
_________________________________________________________________
flatten_1 (Flatten)          (None, 2048)              0         
_________________________________________________________________
dense_1 (Dense)              (None, 128)               262272    
_________________________________________________________________
activation_1 (Activation)    (None, 128)               0         
_________________________________________________________________
dense_2 (Dense)              (None, 128)               16512     
_________________________________________________________________
activation_2 (Activation)    (None, 128)               0         
_________________________________________________________________
dense_3 (Dense)              (None, 10)                1290      
=================================================================
Total params: 677,738
Trainable params: 677,738
Non-trainable params: 0
_________________________________________________________________

2018-04-30 07:34:18.065868AM --- Model took seconds to train 374.16092562675476
2018-04-30 07:34:18.229435AM --- Accuracy on test data is: 75.6
2018-04-30 07:34:18.274771AM --- starting process for: (((conv*2)pool)*2)fc*2
2018-04-30 07:34:19.068569AM
_________________________________________________________________
Layer (type)                 Output Shape              Param #   
=================================================================
conv2d_1 (Conv2D)            (None, 32, 32, 32)        896       
_________________________________________________________________
conv2d_2 (Conv2D)            (None, 32, 32, 32)        9248      
_________________________________________________________________
max_pooling2d_1 (MaxPooling2 (None, 16, 16, 32)        0         
_________________________________________________________________
conv2d_3 (Conv2D)            (None, 16, 16, 64)        18496     
_________________________________________________________________
conv2d_4 (Conv2D)            (None, 16, 16, 128)       73856     
_________________________________________________________________
max_pooling2d_2 (MaxPooling2 (None, 8, 8, 128)         0         
_________________________________________________________________
flatten_1 (Flatten)          (None, 8192)              0         
_________________________________________________________________
dense_1 (Dense)              (None, 128)               1048704   
_________________________________________________________________
activation_1 (Activation)    (None, 128)               0         
_________________________________________________________________
dense_2 (Dense)              (None, 128)               16512     
_________________________________________________________________
activation_2 (Activation)    (None, 128)               0         
_________________________________________________________________
dense_3 (Dense)              (None, 10)                1290      
=================================================================
Total params: 1,169,002
Trainable params: 1,169,002
Non-trainable params: 0
_________________________________________________________________

2018-04-30 07:39:40.430512AM --- Model took seconds to train 321.346715927124
2018-04-30 07:39:40.589971AM --- Accuracy on test data is: 75.14999999999999
2018-04-30 07:39:40.632552AM --- starting process for: (((conv*1)pool)*3)fc*0
2018-04-30 07:39:41.345240AM
_________________________________________________________________
Layer (type)                 Output Shape              Param #   
=================================================================
conv2d_1 (Conv2D)            (None, 32, 32, 32)        896       
_________________________________________________________________
max_pooling2d_1 (MaxPooling2 (None, 16, 16, 32)        0         
_________________________________________________________________
conv2d_2 (Conv2D)            (None, 16, 16, 32)        9248      
_________________________________________________________________
max_pooling2d_2 (MaxPooling2 (None, 8, 8, 32)          0         
_________________________________________________________________
conv2d_3 (Conv2D)            (None, 8, 8, 64)          18496     
_________________________________________________________________
max_pooling2d_3 (MaxPooling2 (None, 4, 4, 64)          0         
_________________________________________________________________
flatten_1 (Flatten)          (None, 1024)              0         
_________________________________________________________________
dense_1 (Dense)              (None, 10)                10250     
=================================================================
Total params: 38,890
Trainable params: 38,890
Non-trainable params: 0
_________________________________________________________________

2018-04-30 07:42:26.831503AM --- Model took seconds to train 165.47048020362854
2018-04-30 07:42:26.934023AM --- Accuracy on test data is: 70.5
2018-04-30 07:42:26.984870AM --- starting process for: (((conv*1)vazio)*2)fc*1
2018-04-30 07:42:27.690587AM
_________________________________________________________________
Layer (type)                 Output Shape              Param #   
=================================================================
conv2d_1 (Conv2D)            (None, 32, 32, 32)        896       
_________________________________________________________________
conv2d_2 (Conv2D)            (None, 32, 32, 32)        9248      
_________________________________________________________________
flatten_1 (Flatten)          (None, 32768)             0         
_________________________________________________________________
dense_1 (Dense)              (None, 128)               4194432   
_________________________________________________________________
activation_1 (Activation)    (None, 128)               0         
_________________________________________________________________
dense_2 (Dense)              (None, 10)                1290      
=================================================================
Total params: 4,205,866
Trainable params: 4,205,866
Non-trainable params: 0
_________________________________________________________________

2018-04-30 07:46:32.585761AM --- Model took seconds to train 244.81977152824402
2018-04-30 07:46:32.862523AM --- Accuracy on test data is: 61.5
2018-04-30 07:46:32.902218AM --- starting process for: (((conv*1)vazio)*3)fc*0
2018-04-30 07:46:33.610762AM
_________________________________________________________________
Layer (type)                 Output Shape              Param #   
=================================================================
conv2d_1 (Conv2D)            (None, 32, 32, 32)        896       
_________________________________________________________________
conv2d_2 (Conv2D)            (None, 32, 32, 32)        9248      
_________________________________________________________________
conv2d_3 (Conv2D)            (None, 32, 32, 64)        18496     
_________________________________________________________________
flatten_1 (Flatten)          (None, 65536)             0         
_________________________________________________________________
dense_1 (Dense)              (None, 10)                655370    
=================================================================
Total params: 684,010
Trainable params: 684,010
Non-trainable params: 0
_________________________________________________________________

2018-04-30 07:56:31.317217AM --- Model took seconds to train 597.6914961338043
2018-04-30 07:56:31.790270AM --- Accuracy on test data is: 60.9
2018-04-30 07:56:31.831292AM --- starting process for: (((conv*2)pool)*2)fc*0
2018-04-30 07:56:32.543438AM
_________________________________________________________________
Layer (type)                 Output Shape              Param #   
=================================================================
conv2d_1 (Conv2D)            (None, 32, 32, 32)        896       
_________________________________________________________________
conv2d_2 (Conv2D)            (None, 32, 32, 32)        9248      
_________________________________________________________________
max_pooling2d_1 (MaxPooling2 (None, 16, 16, 32)        0         
_________________________________________________________________
conv2d_3 (Conv2D)            (None, 16, 16, 64)        18496     
_________________________________________________________________
conv2d_4 (Conv2D)            (None, 16, 16, 128)       73856     
_________________________________________________________________
max_pooling2d_2 (MaxPooling2 (None, 8, 8, 128)         0         
_________________________________________________________________
flatten_1 (Flatten)          (None, 8192)              0         
_________________________________________________________________
dense_1 (Dense)              (None, 10)                81930     
=================================================================
Total params: 184,426
Trainable params: 184,426
Non-trainable params: 0
_________________________________________________________________

2018-04-30 08:02:11.466509AM --- Model took seconds to train 338.9079098701477
2018-04-30 08:02:11.625893AM --- Accuracy on test data is: 71.89999999999999
2018-04-30 08:02:11.666436AM --- starting process for: (((conv*2)pool)*3)fc*0
2018-04-30 08:02:12.387767AM
_________________________________________________________________
Layer (type)                 Output Shape              Param #   
=================================================================
conv2d_1 (Conv2D)            (None, 32, 32, 32)        896       
_________________________________________________________________
conv2d_2 (Conv2D)            (None, 32, 32, 32)        9248      
_________________________________________________________________
max_pooling2d_1 (MaxPooling2 (None, 16, 16, 32)        0         
_________________________________________________________________
conv2d_3 (Conv2D)            (None, 16, 16, 64)        18496     
_________________________________________________________________
conv2d_4 (Conv2D)            (None, 16, 16, 128)       73856     
_________________________________________________________________
max_pooling2d_2 (MaxPooling2 (None, 8, 8, 128)         0         
_________________________________________________________________
conv2d_5 (Conv2D)            (None, 8, 8, 128)         147584    
_________________________________________________________________
conv2d_6 (Conv2D)            (None, 8, 8, 128)         147584    
_________________________________________________________________
max_pooling2d_3 (MaxPooling2 (None, 4, 4, 128)         0         
_________________________________________________________________
flatten_1 (Flatten)          (None, 2048)              0         
_________________________________________________________________
dense_1 (Dense)              (None, 10)                20490     
=================================================================
Total params: 418,154
Trainable params: 418,154
Non-trainable params: 0
_________________________________________________________________

2018-04-30 08:08:19.561680AM --- Model took seconds to train 367.15801215171814
2018-04-30 08:08:19.708372AM --- Accuracy on test data is: 76.85
2018-04-30 08:08:19.749025AM --- starting process for: (((conv*2)pool)*3)fc*1
2018-04-30 08:08:20.473345AM
_________________________________________________________________
Layer (type)                 Output Shape              Param #   
=================================================================
conv2d_1 (Conv2D)            (None, 32, 32, 32)        896       
_________________________________________________________________
conv2d_2 (Conv2D)            (None, 32, 32, 32)        9248      
_________________________________________________________________
max_pooling2d_1 (MaxPooling2 (None, 16, 16, 32)        0         
_________________________________________________________________
conv2d_3 (Conv2D)            (None, 16, 16, 64)        18496     
_________________________________________________________________
conv2d_4 (Conv2D)            (None, 16, 16, 128)       73856     
_________________________________________________________________
max_pooling2d_2 (MaxPooling2 (None, 8, 8, 128)         0         
…
conv2d_5 (Conv2D)            (None, 8, 8, 128)         147584    
_________________________________________________________________
conv2d_6 (Conv2D)            (None, 8, 8, 128)         147584    
_________________________________________________________________
max_pooling2d_3 (MaxPooling2 (None, 4, 4, 128)         0         
_________________________________________________________________
flatten_1 (Flatten)          (None, 2048)              0         
_________________________________________________________________
dense_1 (Dense)              (None, 128)               262272    
_________________________________________________________________
activation_1 (Activation)    (None, 128)               0         
_________________________________________________________________
dense_2 (Dense)              (None, 10)                1290      
=================================================================
Total params: 661,226
Trainable params: 661,226
Non-trainable params: 0
_________________________________________________________________

2018-04-30 21:24:19.234556PM --- Model took seconds to train 389.28433895111084
2018-04-30 21:24:19.388285PM --- Accuracy on test data is: 76.2
2018-04-30 21:24:19.436663PM --- starting process for: (((conv*2)pool)*3)fc*1
2018-04-30 21:24:20.173857PM
_________________________________________________________________
Layer (type)                 Output Shape              Param #   
=================================================================
conv2d_1 (Conv2D)            (None, 32, 32, 32)        896       
_________________________________________________________________
conv2d_2 (Conv2D)            (None, 32, 32, 32)        9248      
_________________________________________________________________
max_pooling2d_1 (MaxPooling2 (None, 16, 16, 32)        0         
_________________________________________________________________
conv2d_3 (Conv2D)            (None, 16, 16, 64)        18496     
_________________________________________________________________
conv2d_4 (Conv2D)            (None, 16, 16, 128)       73856     
_________________________________________________________________
max_pooling2d_2 (MaxPooling2 (None, 8, 8, 128)         0         
_________________________________________________________________
conv2d_5 (Conv2D)            (None, 8, 8, 128)         147584    
_________________________________________________________________
conv2d_6 (Conv2D)            (None, 8, 8, 128)         147584    
_________________________________________________________________
max_pooling2d_3 (MaxPooling2 (None, 4, 4, 128)         0         
_________________________________________________________________
flatten_1 (Flatten)          (None, 2048)              0         
_________________________________________________________________
dense_1 (Dense)              (None, 128)               262272    
_________________________________________________________________
activation_1 (Activation)    (None, 128)               0         
_________________________________________________________________
dense_2 (Dense)              (None, 10)                1290      
=================================================================
Total params: 661,226
Trainable params: 661,226
Non-trainable params: 0
_________________________________________________________________

2018-04-30 21:30:51.929796PM --- Model took seconds to train 391.74031138420105
2018-04-30 21:30:52.088944PM --- Accuracy on test data is: 77.2
2018-04-30 21:30:52.135181PM --- starting process for: (((conv*1)vazio)*2)fc*2
2018-04-30 21:30:52.852954PM
_________________________________________________________________
Layer (type)                 Output Shape              Param #   
=================================================================
conv2d_1 (Conv2D)            (None, 32, 32, 32)        896       
_________________________________________________________________
conv2d_2 (Conv2D)            (None, 32, 32, 32)        9248      
_________________________________________________________________
flatten_1 (Flatten)          (None, 32768)             0         
_________________________________________________________________
dense_1 (Dense)              (None, 128)               4194432   
_________________________________________________________________
activation_1 (Activation)    (None, 128)               0         
_________________________________________________________________
dense_2 (Dense)              (None, 128)               16512     
_________________________________________________________________
activation_2 (Activation)    (None, 128)               0         
_________________________________________________________________
dense_3 (Dense)              (None, 10)                1290      
=================================================================
Total params: 4,222,378
Trainable params: 4,222,378
Non-trainable params: 0
_________________________________________________________________

2018-04-30 21:35:14.916759PM --- Model took seconds to train 262.04875445365906
2018-04-30 21:35:15.211486PM --- Accuracy on test data is: 61.8
2018-04-30 21:35:15.254288PM --- starting process for: (((conv*1)vazio)*1)fc*2
2018-04-30 21:35:15.956718PM
_________________________________________________________________
Layer (type)                 Output Shape              Param #   
=================================================================
conv2d_1 (Conv2D)            (None, 32, 32, 32)        896       
_________________________________________________________________
flatten_1 (Flatten)          (None, 32768)             0         
_________________________________________________________________
dense_1 (Dense)              (None, 128)               4194432   
_________________________________________________________________
activation_1 (Activation)    (None, 128)               0         
_________________________________________________________________
dense_2 (Dense)              (None, 128)               16512     
_________________________________________________________________
activation_2 (Activation)    (None, 128)               0         
_________________________________________________________________
dense_3 (Dense)              (None, 10)                1290      
=================================================================
Total params: 4,213,130
Trainable params: 4,213,130
Non-trainable params: 0
_________________________________________________________________

2018-04-30 21:38:22.161609PM --- Model took seconds to train 186.1891598701477
2018-04-30 21:38:22.422143PM --- Accuracy on test data is: 56.10000000000001
2018-04-30 21:38:22.467287PM --- starting process for: (((conv*1)pool)*3)fc*0
2018-04-30 21:38:23.174093PM
_________________________________________________________________
Layer (type)                 Output Shape              Param #   
=================================================================
conv2d_1 (Conv2D)            (None, 32, 32, 32)        896       
_________________________________________________________________
max_pooling2d_1 (MaxPooling2 (None, 16, 16, 32)        0         
_________________________________________________________________
conv2d_2 (Conv2D)            (None, 16, 16, 32)        9248      
_________________________________________________________________
max_pooling2d_2 (MaxPooling2 (None, 8, 8, 32)          0         
_________________________________________________________________
conv2d_3 (Conv2D)            (None, 8, 8, 64)          18496     
_________________________________________________________________
max_pooling2d_3 (MaxPooling2 (None, 4, 4, 64)          0         
_________________________________________________________________
flatten_1 (Flatten)          (None, 1024)              0         
_________________________________________________________________
dense_1 (Dense)              (None, 10)                10250     
=================================================================
Total params: 38,890
Trainable params: 38,890
Non-trainable params: 0
_________________________________________________________________

2018-04-30 21:41:23.398742PM --- Model took seconds to train 180.20972108840942
2018-04-30 21:41:23.516888PM --- Accuracy on test data is: 70.55
2018-04-30 21:41:23.571308PM --- starting process for: (((conv*2)pool)*2)fc*0
2018-04-30 21:41:24.358837PM
_________________________________________________________________
Layer (type)                 Output Shape              Param #   
=================================================================
conv2d_1 (Conv2D)            (None, 32, 32, 32)        896       
_________________________________________________________________
conv2d_2 (Conv2D)            (None, 32, 32, 32)        9248      
_________________________________________________________________
max_pooling2d_1 (MaxPooling2 (None, 16, 16, 32)        0         
_________________________________________________________________
conv2d_3 (Conv2D)            (None, 16, 16, 64)        18496     
_________________________________________________________________
conv2d_4 (Conv2D)            (None, 16, 16, 128)       73856     
_________________________________________________________________
max_pooling2d_2 (MaxPooling2 (None, 8, 8, 128)         0         
_________________________________________________________________
flatten_1 (Flatten)          (None, 8192)              0         
_________________________________________________________________
dense_1 (Dense)              (None, 10)                81930     
=================================================================
Total params: 184,426
Trainable params: 184,426
Non-trainable params: 0
_________________________________________________________________

2018-04-30 21:47:18.734072PM --- Model took seconds to train 354.3599228858948
2018-04-30 21:47:18.895127PM --- Accuracy on test data is: 73.95
2018-04-30 21:47:18.940073PM --- starting process for: (((conv*2)pool)*3)fc*1
2018-04-30 21:47:19.674871PM
_________________________________________________________________
Layer (type)                 Output Shape              Param #   
=================================================================
conv2d_1 (Conv2D)            (None, 32, 32, 32)        896       
_________________________________________________________________
conv2d_2 (Conv2D)            (None, 32, 32, 32)        9248      
_________________________________________________________________
max_pooling2d_1 (MaxPooling2 (None, 16, 16, 32)        0         
_________________________________________________________________
conv2d_3 (Conv2D)            (None, 16, 16, 64)        18496     
_________________________________________________________________
conv2d_4 (Conv2D)            (None, 16, 16, 128)       73856     
_________________________________________________________________
max_pooling2d_2 (MaxPooling2 (None, 8, 8, 128)         0         
_________________________________________________________________
conv2d_5 (Conv2D)            (None, 8, 8, 128)         147584    
_________________________________________________________________
conv2d_6 (Conv2D)            (None, 8, 8, 128)         147584    
_________________________________________________________________
max_pooling2d_3 (MaxPooling2 (None, 4, 4, 128)         0         
_________________________________________________________________
flatten_1 (Flatten)          (None, 2048)              0         
_________________________________________________________________
dense_1 (Dense)              (None, 128)               262272    
_________________________________________________________________
activation_1 (Activation)    (None, 128)               0         
_________________________________________________________________
dense_2 (Dense)              (None, 10)                1290      
=================================================================
Total params: 661,226
Trainable params: 661,226
Non-trainable params: 0
_________________________________________________________________

2018-04-30 21:53:48.441180PM --- Model took seconds to train 388.7505452632904
2018-04-30 21:53:48.593418PM --- Accuracy on test data is: 77.7
2018-04-30 21:53:48.646951PM --- starting process for: (((conv*1)vazio)*1)fc*0
2018-04-30 21:53:49.338096PM
_________________________________________________________________
Layer (type)                 Output Shape              Param #   
=================================================================
conv2d_1 (Conv2D)            (None, 32, 32, 32)        896       
_________________________________________________________________
flatten_1 (Flatten)          (None, 32768)             0         
_________________________________________________________________
dense_1 (Dense)              (None, 10)                327690    
=================================================================
Total params: 328,586
Trainable params: 328,586
Non-trainable params: 0
_________________________________________________________________

2018-04-30 21:58:41.620855PM --- Model took seconds to train 292.2679510116577
2018-04-30 21:58:41.881676PM --- Accuracy on test data is: 57.75
2018-04-30 21:58:41.926362PM --- starting process for: (((conv*2)vazio)*1)fc*0
2018-04-30 21:58:42.624193PM
_________________________________________________________________
Layer (type)                 Output Shape              Param #   
=================================================================
conv2d_1 (Conv2D)            (None, 32, 32, 32)        896       
_________________________________________________________________
conv2d_2 (Conv2D)            (None, 32, 32, 32)        9248      
_________________________________________________________________
flatten_1 (Flatten)          (None, 32768)             0         
_________________________________________________________________
dense_1 (Dense)              (None, 10)                327690    
=================================================================
Total params: 337,834
Trainable params: 337,834
Non-trainable params: 0
_________________________________________________________________

2018-04-30 22:04:38.404820PM --- Model took seconds to train 355.76468205451965
2018-04-30 22:04:38.684141PM --- Accuracy on test data is: 61.0
2018-04-30 22:04:38.733510PM --- starting process for: (((conv*2)pool)*3)fc*1
2018-04-30 22:04:39.464667PM
_________________________________________________________________
Layer (type)                 Output Shape              Param #   
=================================================================
conv2d_1 (Conv2D)            (None, 32, 32, 32)        896       
_________________________________________________________________
conv2d_2 (Conv2D)            (None, 32, 32, 32)        9248      
_________________________________________________________________
max_pooling2d_1 (MaxPooling2 (None, 16, 16, 32)        0         
_________________________________________________________________
conv2d_3 (Conv2D)            (None, 16, 16, 64)        18496     
_________________________________________________________________
conv2d_4 (Conv2D)            (None, 16, 16, 128)       73856     
_________________________________________________________________
max_pooling2d_2 (MaxPooling2 (None, 8, 8, 128)         0         
_________________________________________________________________
conv2d_5 (Conv2D)            (None, 8, 8, 128)         147584    
_________________________________________________________________
conv2d_6 (Conv2D)            (None, 8, 8, 128)         147584    
_________________________________________________________________
max_pooling2d_3 (MaxPooling2 (None, 4, 4, 128)         0         
_________________________________________________________________
flatten_1 (Flatten)          (None, 2048)              0         
_________________________________________________________________
dense_1 (Dense)              (None, 128)               262272    
_________________________________________________________________
activation_1 (Activation)    (None, 128)               0         
_________________________________________________________________
dense_2 (Dense)              (None, 10)                1290      
=================================================================
Total params: 661,226
Trainable params: 661,226
Non-trainable params: 0
_________________________________________________________________

2018-04-30 22:11:11.186040PM --- Model took seconds to train 391.7054355144501
2018-04-30 22:11:11.343311PM --- Accuracy on test data is: 75.9
2018-04-30 22:11:11.393108PM --- starting process for: (((conv*1)pool)*3)fc*1
2018-04-30 22:11:12.111567PM
_________________________________________________________________
Layer (type)                 Output Shape              Param #   
=================================================================
conv2d_1 (Conv2D)            (None, 32, 32, 32)        896       
_________________________________________________________________
max_pooling2d_1 (MaxPooling2 (None, 16, 16, 32)        0         
_________________________________________________________________
conv2d_2 (Conv2D)            (None, 16, 16, 32)        9248      
_________________________________________________________________
max_pooling2d_2 (MaxPooling2 (None, 8, 8, 32)          0         
_________________________________________________________________
conv2d_3 (Conv2D)            (None, 8, 8, 64)          18496     
_________________________________________________________________
max_pooling2d_3 (MaxPooling2 (None, 4, 4, 64)          0         
_________________________________________________________________
flatten_1 (Flatten)          (None, 1024)              0         
_________________________________________________________________
dense_1 (Dense)              (None, 128)               131200    
_________________________________________________________________
activation_1 (Activation)    (None, 128)               0         
_________________________________________________________________
dense_2 (Dense)              (None, 10)                1290      
=================================================================
Total params: 161,130
Trainable params: 161,130
Non-trainable params: 0
_________________________________________________________________

2018-04-30 22:14:09.656132PM --- Model took seconds to train 177.52922773361206
2018-04-30 22:14:09.766549PM --- Accuracy on test data is: 72.45
2018-04-30 22:14:09.821600PM --- 0 - Individual: (((conv*2)pool)*3)fc*2; 79.3
…
2018-04-30 22:14:09.825631PM --- 47 - Individual: (((conv*2)vazio)*1)fc*2; 59.25
2018-04-30 22:14:09.825716PM --- 48 - Individual: (((conv*1)vazio)*1)fc*0; 58.699999999999996
2018-04-30 22:14:09.825802PM --- 49 - Individual: (((conv*1)vazio)*1)fc*0; 57.75
2018-04-30 22:14:09.825897PM --- Generation: 30
2018-04-30 22:14:09.828686PM --- starting process for: (((conv*2)pool)*3)fc*2
2018-04-30 22:14:10.567372PM
_________________________________________________________________
Layer (type)                 Output Shape              Param #   
=================================================================
conv2d_1 (Conv2D)            (None, 32, 32, 32)        896       
_________________________________________________________________
conv2d_2 (Conv2D)            (None, 32, 32, 32)        9248      
_________________________________________________________________
max_pooling2d_1 (MaxPooling2 (None, 16, 16, 32)        0         
_________________________________________________________________
conv2d_3 (Conv2D)            (None, 16, 16, 64)        18496     
_________________________________________________________________
conv2d_4 (Conv2D)            (None, 16, 16, 128)       73856     
_________________________________________________________________
max_pooling2d_2 (MaxPooling2 (None, 8, 8, 128)         0         
_________________________________________________________________
conv2d_5 (Conv2D)            (None, 8, 8, 128)         147584    
_________________________________________________________________
conv2d_6 (Conv2D)            (None, 8, 8, 128)         147584    
_________________________________________________________________
max_pooling2d_3 (MaxPooling2 (None, 4, 4, 128)         0         
_________________________________________________________________
flatten_1 (Flatten)          (None, 2048)              0         
_________________________________________________________________
dense_1 (Dense)              (None, 128)               262272    
_________________________________________________________________
activation_1 (Activation)    (None, 128)               0         
_________________________________________________________________
dense_2 (Dense)              (None, 128)               16512     
_________________________________________________________________
activation_2 (Activation)    (None, 128)               0         
_________________________________________________________________
dense_3 (Dense)              (None, 10)                1290      
=================================================================
Total params: 677,738
Trainable params: 677,738
Non-trainable params: 0
_________________________________________________________________

2018-04-30 22:20:46.380355PM --- Model took seconds to train 395.79756236076355
2018-04-30 22:20:46.544326PM --- Accuracy on test data is: 77.75
2018-04-30 22:20:46.599942PM --- starting process for: (((conv*2)pool)*3)fc*2
2018-04-30 22:20:47.336027PM
_________________________________________________________________
Layer (type)                 Output Shape              Param #   
=================================================================
conv2d_1 (Conv2D)            (None, 32, 32, 32)        896       
_________________________________________________________________
conv2d_2 (Conv2D)            (None, 32, 32, 32)        9248      
_________________________________________________________________
max_pooling2d_1 (MaxPooling2 (None, 16, 16, 32)        0         
_________________________________________________________________
conv2d_3 (Conv2D)            (None, 16, 16, 64)        18496     
_________________________________________________________________
conv2d_4 (Conv2D)            (None, 16, 16, 128)       73856     
_________________________________________________________________
max_pooling2d_2 (MaxPooling2 (None, 8, 8, 128)         0         
_________________________________________________________________
conv2d_5 (Conv2D)            (None, 8, 8, 128)         147584    
_________________________________________________________________
conv2d_6 (Conv2D)            (None, 8, 8, 128)         147584    
_________________________________________________________________
max_pooling2d_3 (MaxPooling2 (None, 4, 4, 128)         0         
_________________________________________________________________
flatten_1 (Flatten)          (None, 2048)              0         
_________________________________________________________________
dense_1 (Dense)              (None, 128)               262272    
_________________________________________________________________
activation_1 (Activation)    (None, 128)               0         
_________________________________________________________________
dense_2 (Dense)              (None, 128)               16512     
_________________________________________________________________
activation_2 (Activation)    (None, 128)               0         
_________________________________________________________________
dense_3 (Dense)              (None, 10)                1290      
=================================================================
Total params: 677,738
Trainable params: 677,738
Non-trainable params: 0
_________________________________________________________________

2018-04-30 22:27:21.747575PM --- Model took seconds to train 394.39612460136414
2018-04-30 22:27:21.902922PM --- Accuracy on test data is: 76.5
2018-04-30 22:27:21.957553PM --- starting process for: (((conv*2)vazio)*1)fc*1
2018-04-30 22:27:22.677637PM
_________________________________________________________________
Layer (type)                 Output Shape              Param #   
=================================================================
conv2d_1 (Conv2D)            (None, 32, 32, 32)        896       
_________________________________________________________________
conv2d_2 (Conv2D)            (None, 32, 32, 32)        9248      
_________________________________________________________________
flatten_1 (Flatten)          (None, 32768)             0         
_________________________________________________________________
dense_1 (Dense)              (None, 128)               4194432   
_________________________________________________________________
activation_1 (Activation)    (None, 128)               0         
_________________________________________________________________
dense_2 (Dense)              (None, 10)                1290      
=================================================================
Total params: 4,205,866
Trainable params: 4,205,866
Non-trainable params: 0
_________________________________________________________________

2018-04-30 22:31:45.594980PM --- Model took seconds to train 262.9020986557007
2018-04-30 22:31:45.898582PM --- Accuracy on test data is: 61.199999999999996
2018-04-30 22:31:45.956470PM --- starting process for: (((conv*2)pool)*2)fc*0
2018-04-30 22:31:46.670971PM
_________________________________________________________________
Layer (type)                 Output Shape              Param #   
=================================================================
conv2d_1 (Conv2D)            (None, 32, 32, 32)        896       
_________________________________________________________________
conv2d_2 (Conv2D)            (None, 32, 32, 32)        9248      
_________________________________________________________________
max_pooling2d_1 (MaxPooling2 (None, 16, 16, 32)        0         
_________________________________________________________________
conv2d_3 (Conv2D)            (None, 16, 16, 64)        18496     
_________________________________________________________________
conv2d_4 (Conv2D)            (None, 16, 16, 128)       73856     
_________________________________________________________________
max_pooling2d_2 (MaxPooling2 (None, 8, 8, 128)         0         
_________________________________________________________________
flatten_1 (Flatten)          (None, 8192)              0         
_________________________________________________________________
dense_1 (Dense)              (None, 10)                81930     
=================================================================
Total params: 184,426
Trainable params: 184,426
Non-trainable params: 0
_________________________________________________________________

2018-04-30 22:37:36.217113PM --- Model took seconds to train 349.5303223133087
2018-04-30 22:37:36.395546PM --- Accuracy on test data is: 73.85000000000001
2018-04-30 22:37:36.448460PM --- starting process for: (((conv*2)pool)*3)fc*0
2018-04-30 22:37:37.249025PM
_________________________________________________________________
Layer (type)                 Output Shape              Param #   
=================================================================
conv2d_1 (Conv2D)            (None, 32, 32, 32)        896       
_________________________________________________________________
conv2d_2 (Conv2D)            (None, 32, 32, 32)        9248      
_________________________________________________________________
max_pooling2d_1 (MaxPooling2 (None, 16, 16, 32)        0         
_________________________________________________________________
conv2d_3 (Conv2D)            (None, 16, 16, 64)        18496     
_________________________________________________________________
conv2d_4 (Conv2D)            (None, 16, 16, 128)       73856     
_________________________________________________________________
max_pooling2d_2 (MaxPooling2 (None, 8, 8, 128)         0         
_________________________________________________________________
conv2d_5 (Conv2D)            (None, 8, 8, 128)         147584    
_________________________________________________________________
conv2d_6 (Conv2D)            (None, 8, 8, 128)         147584    
_________________________________________________________________
max_pooling2d_3 (MaxPooling2 (None, 4, 4, 128)         0         
_________________________________________________________________
flatten_1 (Flatten)          (None, 2048)              0         
_________________________________________________________________
dense_1 (Dense)              (None, 10)                20490     
=================================================================
Total params: 418,154
Trainable params: 418,154
Non-trainable params: 0
_________________________________________________________________

2018-04-30 22:44:04.610648PM --- Model took seconds to train 387.34621596336365
2018-04-30 22:44:04.760762PM --- Accuracy on test data is: 76.6
2018-04-30 22:44:04.808547PM --- starting process for: (((conv*2)pool)*3)fc*0
2018-04-30 22:44:05.540895PM
_________________________________________________________________
Layer (type)                 Output Shape              Param #   
=================================================================
conv2d_1 (Conv2D)            (None, 32, 32, 32)        896       
_________________________________________________________________
conv2d_2 (Conv2D)            (None, 32, 32, 32)        9248      
_________________________________________________________________
max_pooling2d_1 (MaxPooling2 (None, 16, 16, 32)        0         
_________________________________________________________________
conv2d_3 (Conv2D)            (None, 16, 16, 64)        18496     
_________________________________________________________________
conv2d_4 (Conv2D)            (None, 16, 16, 128)       73856     
_________________________________________________________________
max_pooling2d_2 (MaxPooling2 (None, 8, 8, 128)         0         
_________________________________________________________________
conv2d_5 (Conv2D)            (None, 8, 8, 128)         147584    
_________________________________________________________________
conv2d_6 (Conv2D)            (None, 8, 8, 128)         147584    
_________________________________________________________________
max_pooling2d_3 (MaxPooling2 (None, 4, 4, 128)         0         
_________________________________________________________________
flatten_1 (Flatten)          (None, 2048)              0         
_________________________________________________________________
dense_1 (Dense)              (None, 10)                20490     
=================================================================
Total params: 418,154
Trainable params: 418,154
Non-trainable params: 0
_________________________________________________________________

2018-04-30 22:50:32.527179PM --- Model took seconds to train 386.97091484069824
2018-04-30 22:50:32.672091PM --- Accuracy on test data is: 75.9
2018-04-30 22:50:32.718672PM --- starting process for: (((conv*2)pool)*3)fc*0
2018-04-30 22:50:33.450355PM
_________________________________________________________________
Layer (type)                 Output Shape              Param #   
=================================================================
conv2d_1 (Conv2D)            (None, 32, 32, 32)        896       
_________________________________________________________________
conv2d_2 (Conv2D)            (None, 32, 32, 32)        9248      
_________________________________________________________________
max_pooling2d_1 (MaxPooling2 (None, 16, 16, 32)        0         
_________________________________________________________________
conv2d_3 (Conv2D)            (None, 16, 16, 64)        18496     
_________________________________________________________________
conv2d_4 (Conv2D)            (None, 16, 16, 128)       73856     
_________________________________________________________________
max_pooling2d_2 (MaxPooling2 (None, 8, 8, 128)         0         
_________________________________________________________________
conv2d_5 (Conv2D)            (None, 8, 8, 128)         147584    
_________________________________________________________________
conv2d_6 (Conv2D)            (None, 8, 8, 128)         147584    
_________________________________________________________________
max_pooling2d_3 (MaxPooling2 (None, 4, 4, 128)         0         
_________________________________________________________________
flatten_1 (Flatten)          (None, 2048)              0         
_________________________________________________________________
dense_1 (Dense)              (None, 10)                20490     
=================================================================
Total params: 418,154
Trainable params: 418,154
Non-trainable params: 0
_________________________________________________________________

2018-04-30 22:56:58.608436PM --- Model took seconds to train 385.14292788505554
2018-04-30 22:56:58.751516PM --- Accuracy on test data is: 76.4
2018-04-30 22:56:58.804129PM --- starting process for: (((conv*2)vazio)*1)fc*0
2018-04-30 22:56:59.506680PM
_________________________________________________________________
Layer (type)                 Output Shape              Param #   
=================================================================
conv2d_1 (Conv2D)            (None, 32, 32, 32)        896       
_________________________________________________________________
conv2d_2 (Conv2D)            (None, 32, 32, 32)        9248      
_________________________________________________________________
flatten_1 (Flatten)          (None, 32768)             0         
_________________________________________________________________
dense_1 (Dense)              (None, 10)                327690    
=================================================================
Total params: 337,834
Trainable params: 337,834
Non-trainable params: 0
_________________________________________________________________

2018-04-30 23:02:59.488247PM --- Model took seconds to train 359.9666979312897
2018-04-30 23:02:59.777880PM --- Accuracy on test data is: 58.85
2018-04-30 23:02:59.827183PM --- starting process for: (((conv*2)vazio)*1)fc*0
2018-04-30 23:03:00.531730PM
_________________________________________________________________
Layer (type)                 Output Shape              Param #   
=================================================================
conv2d_1 (Conv2D)            (None, 32, 32, 32)        896       
_________________________________________________________________
conv2d_2 (Conv2D)            (None, 32, 32, 32)        9248      
_________________________________________________________________
flatten_1 (Flatten)          (None, 32768)             0         
_________________________________________________________________
dense_1 (Dense)              (None, 10)                327690    
=================================================================
Total params: 337,834
Trainable params: 337,834
Non-trainable params: 0
_________________________________________________________________

2018-04-30 23:09:00.730677PM --- Model took seconds to train 360.18330550193787
2018-04-30 23:09:01.017042PM --- Accuracy on test data is: 60.699999999999996
2018-04-30 23:09:01.073369PM --- starting process for: (((conv*2)pool)*3)fc*1
2018-04-30 23:09:01.798683PM
_________________________________________________________________
Layer (type)                 Output Shape              Param #   
=================================================================
conv2d_1 (Conv2D)            (None, 32, 32, 32)        896       
_________________________________________________________________
conv2d_2 (Conv2D)            (None, 32, 32, 32)        9248      
_________________________________________________________________
max_pooling2d_1 (MaxPooling2 (None, 16, 16, 32)        0         
_________________________________________________________________
conv2d_3 (Conv2D)            (None, 16, 16, 64)        18496     
_________________________________________________________________
conv2d_4 (Conv2D)            (None, 16, 16, 128)       73856     
_________________________________________________________________
max_pooling2d_2 (MaxPooling2 (None, 8, 8, 128)         0         
_________________________________________________________________
conv2d_5 (Conv2D)            (None, 8, 8, 128)         147584    
_________________________________________________________________
conv2d_6 (Conv2D)            (None, 8, 8, 128)         147584    
_________________________________________________________________
max_pooling2d_3 (MaxPooling2 (None, 4, 4, 128)         0         
_________________________________________________________________
flatten_1 (Flatten)          (None, 2048)              0         
_________________________________________________________________
dense_1 (Dense)              (None, 128)               262272    
_________________________________________________________________
activation_1 (Activation)    (None, 128)               0         
_________________________________________________________________
dense_2 (Dense)              (None, 10)                1290      
=================================================================
Total params: 661,226
Trainable params: 661,226
Non-trainable params: 0
_________________________________________________________________

2018-04-30 23:15:30.412874PM --- Model took seconds to train 388.59741258621216
2018-04-30 23:15:30.560671PM --- Accuracy on test data is: 76.5
2018-04-30 23:15:30.613781PM --- starting process for: (((conv*2)pool)*1)fc*0
2018-04-30 23:15:31.322051PM
_________________________________________________________________
Layer (type)                 Output Shape              Param #   
=================================================================
conv2d_1 (Conv2D)            (None, 32, 32, 32)        896       
_________________________________________________________________
conv2d_2 (Conv2D)            (None, 32, 32, 32)        9248      
_________________________________________________________________
max_pooling2d_1 (MaxPooling2 (None, 16, 16, 32)        0         
_________________________________________________________________
flatten_1 (Flatten)          (None, 8192)              0         
_________________________________________________________________
dense_1 (Dense)              (None, 10)                81930     
=================================================================
Total params: 92,074
Trainable params: 92,074
Non-trainable params: 0
_________________________________________________________________

2018-04-30 23:19:32.883127PM --- Model took seconds to train 241.54600405693054
2018-04-30 23:19:33.059665PM --- Accuracy on test data is: 62.55
2018-04-30 23:19:33.116029PM --- starting process for: (((conv*2)pool)*3)fc*1
2018-04-30 23:19:33.843589PM
_________________________________________________________________
Layer (type)                 Output Shape              Param #   
=================================================================
conv2d_1 (Conv2D)            (None, 32, 32, 32)        896       
_________________________________________________________________
conv2d_2 (Conv2D)            (None, 32, 32, 32)        9248      
_________________________________________________________________
max_pooling2d_1 (MaxPooling2 (None, 16, 16, 32)        0         
_________________________________________________________________
conv2d_3 (Conv2D)            (None, 16, 16, 64)        18496     
_________________________________________________________________
conv2d_4 (Conv2D)            (None, 16, 16, 128)       73856     
_________________________________________________________________
max_pooling2d_2 (MaxPooling2 (None, 8, 8, 128)         0         
_________________________________________________________________
conv2d_5 (Conv2D)            (None, 8, 8, 128)         147584    
_________________________________________________________________
conv2d_6 (Conv2D)            (None, 8, 8, 128)         147584    
_________________________________________________________________
max_pooling2d_3 (MaxPooling2 (None, 4, 4, 128)         0         
_________________________________________________________________
flatten_1 (Flatten)          (None, 2048)              0         
_________________________________________________________________
dense_1 (Dense)              (None, 128)               262272    
_________________________________________________________________
activation_1 (Activation)    (None, 128)               0         
_________________________________________________________________
dense_2 (Dense)              (None, 10)                1290      
=================================================================
Total params: 661,226
Trainable params: 661,226
Non-trainable params: 0
_________________________________________________________________

2018-04-30 23:26:03.271218PM --- Model took seconds to train 389.4120047092438
2018-04-30 23:26:03.424811PM --- Accuracy on test data is: 77.75
2018-04-30 23:26:03.480223PM --- starting process for: (((conv*2)vazio)*3)fc*1
2018-04-30 23:26:04.294107PM
_________________________________________________________________
Layer (type)                 Output Shape              Param #   
=================================================================
conv2d_1 (Conv2D)            (None, 32, 32, 32)        896       
_________________________________________________________________
conv2d_2 (Conv2D)            (None, 32, 32, 32)        9248      
_________________________________________________________________
conv2d_3 (Conv2D)            (None, 32, 32, 64)        18496     
_________________________________________________________________
conv2d_4 (Conv2D)            (None, 32, 32, 128)       73856     
_________________________________________________________________
conv2d_5 (Conv2D)            (None, 32, 32, 128)       147584    
_________________________________________________________________
conv2d_6 (Conv2D)            (None, 32, 32, 128)       147584    
_________________________________________________________________
flatten_1 (Flatten)          (None, 131072)            0         
_________________________________________________________________
dense_1 (Dense)              (None, 128)               16777344  
_________________________________________________________________
activation_1 (Activation)    (None, 128)               0         
_________________________________________________________________
dense_2 (Dense)              (None, 10)                1290      
=================================================================
Total params: 17,176,298
Trainable params: 17,176,298
Non-trainable params: 0
_________________________________________________________________

2018-04-30 23:47:04.432988PM --- Model took seconds to train 1260.123498916626
2018-04-30 23:47:05.434911PM --- Accuracy on test data is: 64.8
2018-04-30 23:47:05.477841PM --- starting process for: (((conv*2)pool)*2)fc*0
2018-04-30 23:47:06.200742PM
_________________________________________________________________
Layer (type)                 Output Shape              Param #   
=================================================================
conv2d_1 (Conv2D)            (None, 32, 32, 32)        896       
_________________________________________________________________
conv2d_2 (Conv2D)            (None, 32, 32, 32)        9248      
_________________________________________________________________
max_pooling2d_1 (MaxPooling2 (None, 16, 16, 32)        0         
_________________________________________________________________
conv2d_3 (Conv2D)            (None, 16, 16, 64)        18496     
_________________________________________________________________
conv2d_4 (Conv2D)            (None, 16, 16, 128)       73856     
_________________________________________________________________
max_pooling2d_2 (MaxPooling2 (None, 8, 8, 128)         0         
_________________________________________________________________
flatten_1 (Flatten)          (None, 8192)              0         
_________________________________________________________________
dense_1 (Dense)              (None, 10)                81930     
=================================================================
Total params: 184,426
Trainable params: 184,426
Non-trainable params: 0
_________________________________________________________________

2018-04-30 23:52:57.747991PM --- Model took seconds to train 351.5319585800171
2018-04-30 23:52:57.916465PM --- Accuracy on test data is: 74.05000000000001
2018-04-30 23:52:57.962133PM --- starting process for: (((conv*2)pool)*1)fc*1
2018-04-30 23:52:58.690154PM
_________________________________________________________________
Layer (type)                 Output Shape              Param #   
=================================================================
conv2d_1 (Conv2D)            (None, 32, 32, 32)        896       
_________________________________________________________________
conv2d_2 (Conv2D)            (None, 32, 32, 32)        9248      
_________________________________________________________________
max_pooling2d_1 (MaxPooling2 (None, 16, 16, 32)        0         
_________________________________________________________________
flatten_1 (Flatten)          (None, 8192)              0         
_________________________________________________________________
dense_1 (Dense)              (None, 128)               1048704   
_________________________________________________________________
activation_1 (Activation)    (None, 128)               0         
_________________________________________________________________
dense_2 (Dense)              (None, 10)                1290      
=================================================================
Total params: 1,060,138
Trainable params: 1,060,138
Non-trainable params: 0
_________________________________________________________________

2018-04-30 23:56:46.411560PM --- Model took seconds to train 227.70643544197083
2018-04-30 23:56:46.583811PM --- Accuracy on test data is: 64.45
2018-04-30 23:56:46.638597PM --- starting process for: (((conv*1)pool)*3)fc*0
2018-04-30 23:56:47.336403PM
_________________________________________________________________
Layer (type)                 Output Shape              Param #   
=================================================================
conv2d_1 (Conv2D)            (None, 32, 32, 32)        896       
_________________________________________________________________
max_pooling2d_1 (MaxPooling2 (None, 16, 16, 32)        0         
_________________________________________________________________
conv2d_2 (Conv2D)            (None, 16, 16, 32)        9248      
_________________________________________________________________
max_pooling2d_2 (MaxPooling2 (None, 8, 8, 32)          0         
_________________________________________________________________
conv2d_3 (Conv2D)            (None, 8, 8, 64)          18496     
_________________________________________________________________
max_pooling2d_3 (MaxPooling2 (None, 4, 4, 64)          0         
_________________________________________________________________
flatten_1 (Flatten)          (None, 1024)              0         
_________________________________________________________________
dense_1 (Dense)              (None, 10)                10250     
=================================================================
Total params: 38,890
Trainable params: 38,890
Non-trainable params: 0
_________________________________________________________________

2018-04-30 23:59:47.028753PM --- Model took seconds to train 179.67734932899475
2018-04-30 23:59:47.138031PM --- Accuracy on test data is: 71.7
2018-04-30 23:59:47.187661PM --- starting process for: (((conv*2)pool)*3)fc*0
2018-04-30 23:59:47.914050PM
_________________________________________________________________
Layer (type)                 Output Shape              Param #   
=================================================================
conv2d_1 (Conv2D)            (None, 32, 32, 32)        896       
_________________________________________________________________
conv2d_2 (Conv2D)            (None, 32, 32, 32)        9248      
_________________________________________________________________
max_pooling2d_1 (MaxPooling2 (None, 16, 16, 32)        0         
_________________________________________________________________
conv2d_3 (Conv2D)            (None, 16, 16, 64)        18496     
_________________________________________________________________
conv2d_4 (Conv2D)            (None, 16, 16, 128)       73856     
_________________________________________________________________
max_pooling2d_2 (MaxPooling2 (None, 8, 8, 128)         0         
_________________________________________________________________
conv2d_5 (Conv2D)            (None, 8, 8, 128)         147584    
_________________________________________________________________
conv2d_6 (Conv2D)            (None, 8, 8, 128)         147584    
_________________________________________________________________
max_pooling2d_3 (MaxPooling2 (None, 4, 4, 128)         0         
_________________________________________________________________
flatten_1 (Flatten)          (None, 2048)              0         
_________________________________________________________________
dense_1 (Dense)              (None, 10)                20490     
=================================================================
Total params: 418,154
Trainable params: 418,154
Non-trainable params: 0
_________________________________________________________________
