
2018-04-24 00:17:32.766039AM --- Model took seconds to train 1275.0673809051514
2018-04-24 00:17:33.771509AM --- Accuracy on test data is: 64.4
2018-04-24 00:17:33.813806AM --- starting process for: (((conv*2)pool)*3)fc*0
2018-04-24 00:17:34.556122AM
_________________________________________________________________
Layer (type)                 Output Shape              Param #   
=================================================================
conv2d_1 (Conv2D)            (None, 32, 32, 32)        896       
_________________________________________________________________
conv2d_2 (Conv2D)            (None, 32, 32, 32)        9248      
_________________________________________________________________
max_pooling2d_1 (MaxPooling2 (None, 16, 16, 32)        0         
_________________________________________________________________
conv2d_3 (Conv2D)            (None, 16, 16, 64)        18496     
_________________________________________________________________
conv2d_4 (Conv2D)            (None, 16, 16, 128)       73856     
_________________________________________________________________
max_pooling2d_2 (MaxPooling2 (None, 8, 8, 128)         0         
_________________________________________________________________
conv2d_5 (Conv2D)            (None, 8, 8, 128)         147584    
_________________________________________________________________
conv2d_6 (Conv2D)            (None, 8, 8, 128)         147584    
_________________________________________________________________
max_pooling2d_3 (MaxPooling2 (None, 4, 4, 128)         0         
_________________________________________________________________
flatten_1 (Flatten)          (None, 2048)              0         
_________________________________________________________________
dense_1 (Dense)              (None, 10)                20490     
=================================================================
Total params: 418,154
Trainable params: 418,154
Non-trainable params: 0
_________________________________________________________________

2018-04-24 00:23:58.026750AM --- Model took seconds to train 383.4545202255249
2018-04-24 00:23:58.179190AM --- Accuracy on test data is: 78.5
2018-04-24 00:23:58.224041AM --- starting process for: (((conv*1)vazio)*3)fc*1
2018-04-24 00:23:58.957656AM
_________________________________________________________________
Layer (type)                 Output Shape              Param #   
=================================================================
conv2d_1 (Conv2D)            (None, 32, 32, 32)        896       
_________________________________________________________________
conv2d_2 (Conv2D)            (None, 32, 32, 32)        9248      
_________________________________________________________________
conv2d_3 (Conv2D)            (None, 32, 32, 64)        18496     
_________________________________________________________________
flatten_1 (Flatten)          (None, 65536)             0         
_________________________________________________________________
dense_1 (Dense)              (None, 128)               8388736   
_________________________________________________________________
activation_1 (Activation)    (None, 128)               0         
_________________________________________________________________
dense_2 (Dense)              (None, 10)                1290      
=================================================================
Total params: 8,418,666
Trainable params: 8,418,666
Non-trainable params: 0
_________________________________________________________________

2018-04-24 00:30:57.588573AM --- Model took seconds to train 418.6145751476288
2018-04-24 00:30:58.078520AM --- Accuracy on test data is: 63.6
2018-04-24 00:30:58.120560AM --- starting process for: (((conv*1)pool)*2)fc*2
2018-04-24 00:30:58.851953AM
_________________________________________________________________
Layer (type)                 Output Shape              Param #   
=================================================================
conv2d_1 (Conv2D)            (None, 32, 32, 32)        896       
_________________________________________________________________
max_pooling2d_1 (MaxPooling2 (None, 16, 16, 32)        0         
_________________________________________________________________
conv2d_2 (Conv2D)            (None, 16, 16, 32)        9248      
_________________________________________________________________
max_pooling2d_2 (MaxPooling2 (None, 8, 8, 32)          0         
_________________________________________________________________
flatten_1 (Flatten)          (None, 2048)              0         
_________________________________________________________________
dense_1 (Dense)              (None, 128)               262272    
_________________________________________________________________
activation_1 (Activation)    (None, 128)               0         
_________________________________________________________________
dense_2 (Dense)              (None, 128)               16512     
_________________________________________________________________
activation_2 (Activation)    (None, 128)               0         
_________________________________________________________________
dense_3 (Dense)              (None, 10)                1290      
=================================================================
Total params: 290,218
Trainable params: 290,218
Non-trainable params: 0
_________________________________________________________________

2018-04-24 00:33:54.316888AM --- Model took seconds to train 175.4484326839447
2018-04-24 00:33:54.413683AM --- Accuracy on test data is: 67.45
2018-04-24 00:33:54.460522AM --- starting process for: (((conv*1)pool)*3)fc*2
2018-04-24 00:33:55.194786AM
_________________________________________________________________
Layer (type)                 Output Shape              Param #   
=================================================================
conv2d_1 (Conv2D)            (None, 32, 32, 32)        896       
_________________________________________________________________
max_pooling2d_1 (MaxPooling2 (None, 16, 16, 32)        0         
_________________________________________________________________
conv2d_2 (Conv2D)            (None, 16, 16, 32)        9248      
_________________________________________________________________
max_pooling2d_2 (MaxPooling2 (None, 8, 8, 32)          0         
_________________________________________________________________
conv2d_3 (Conv2D)            (None, 8, 8, 64)          18496     
_________________________________________________________________
max_pooling2d_3 (MaxPooling2 (None, 4, 4, 64)          0         
_________________________________________________________________
flatten_1 (Flatten)          (None, 1024)              0         
_________________________________________________________________
dense_1 (Dense)              (None, 128)               131200    
_________________________________________________________________
activation_1 (Activation)    (None, 128)               0         
_________________________________________________________________
dense_2 (Dense)              (None, 128)               16512     
_________________________________________________________________
activation_2 (Activation)    (None, 128)               0         
_________________________________________________________________
dense_3 (Dense)              (None, 10)                1290      
=================================================================
Total params: 177,642
Trainable params: 177,642
Non-trainable params: 0
_________________________________________________________________

2018-04-24 00:37:04.536630AM --- Model took seconds to train 189.3252785205841
2018-04-24 00:37:04.642406AM --- Accuracy on test data is: 71.5
2018-04-24 00:37:04.690391AM --- starting process for: (((conv*2)vazio)*3)fc*2
2018-04-24 00:37:05.435963AM
_________________________________________________________________
Layer (type)                 Output Shape              Param #   
=================================================================
conv2d_1 (Conv2D)            (None, 32, 32, 32)        896       
_________________________________________________________________
conv2d_2 (Conv2D)            (None, 32, 32, 32)        9248      
_________________________________________________________________
conv2d_3 (Conv2D)            (None, 32, 32, 64)        18496     
_________________________________________________________________
conv2d_4 (Conv2D)            (None, 32, 32, 128)       73856     
_________________________________________________________________
conv2d_5 (Conv2D)            (None, 32, 32, 128)       147584    
_________________________________________________________________
conv2d_6 (Conv2D)            (None, 32, 32, 128)       147584    
_________________________________________________________________
flatten_1 (Flatten)          (None, 131072)            0         
_________________________________________________________________
dense_1 (Dense)              (None, 128)               16777344  
_________________________________________________________________
activation_1 (Activation)    (None, 128)               0         
_________________________________________________________________
dense_2 (Dense)              (None, 128)               16512     
_________________________________________________________________
activation_2 (Activation)    (None, 128)               0         
_________________________________________________________________
dense_3 (Dense)              (None, 10)                1290      
=================================================================
Total params: 17,192,810
Trainable params: 17,192,810
Non-trainable params: 0
_________________________________________________________________

2018-04-24 00:58:24.167532AM --- Model took seconds to train 1278.716145992279
2018-04-24 00:58:25.179393AM --- Accuracy on test data is: 65.0
2018-04-24 00:58:25.220854AM --- starting process for: (((conv*2)pool)*1)fc*0
2018-04-24 00:58:25.941532AM
_________________________________________________________________
Layer (type)                 Output Shape              Param #   
=================================================================
conv2d_1 (Conv2D)            (None, 32, 32, 32)        896       
_________________________________________________________________
conv2d_2 (Conv2D)            (None, 32, 32, 32)        9248      
_________________________________________________________________
max_pooling2d_1 (MaxPooling2 (None, 16, 16, 32)        0         
_________________________________________________________________
flatten_1 (Flatten)          (None, 8192)              0         
_________________________________________________________________
dense_1 (Dense)              (None, 10)                81930     
=================================================================
Total params: 92,074
Trainable params: 92,074
Non-trainable params: 0
_________________________________________________________________

2018-04-24 01:02:26.492381AM --- Model took seconds to train 240.53481149673462
2018-04-24 01:02:26.638769AM --- Accuracy on test data is: 62.0
2018-04-24 01:02:26.680713AM --- starting process for: (((conv*1)vazio)*2)fc*1
2018-04-24 01:02:27.401002AM
_________________________________________________________________
Layer (type)                 Output Shape              Param #   
=================================================================
conv2d_1 (Conv2D)            (None, 32, 32, 32)        896       
_________________________________________________________________
conv2d_2 (Conv2D)            (None, 32, 32, 32)        9248      
_________________________________________________________________
flatten_1 (Flatten)          (None, 32768)             0         
_________________________________________________________________
dense_1 (Dense)              (None, 128)               4194432   
_________________________________________________________________
activation_1 (Activation)    (None, 128)               0         
_________________________________________________________________
dense_2 (Dense)              (None, 10)                1290      
=================================================================
Total params: 4,205,866
Trainable params: 4,205,866
Non-trainable params: 0
_________________________________________________________________

2018-04-24 01:06:46.277369AM --- Model took seconds to train 258.86068296432495
2018-04-24 01:06:46.572852AM --- Accuracy on test data is: 60.75000000000001
2018-04-24 01:06:46.621842AM --- starting process for: (((conv*1)vazio)*2)fc*0
2018-04-24 01:06:47.338436AM
_________________________________________________________________
Layer (type)                 Output Shape              Param #   
=================================================================
conv2d_1 (Conv2D)            (None, 32, 32, 32)        896       
_________________________________________________________________
conv2d_2 (Conv2D)            (None, 32, 32, 32)        9248      
_________________________________________________________________
flatten_1 (Flatten)          (None, 32768)             0         
_________________________________________________________________
dense_1 (Dense)              (None, 10)                327690    
=================================================================
Total params: 337,834
Trainable params: 337,834
Non-trainable params: 0
_________________________________________________________________

2018-04-24 01:12:41.291809AM --- Model took seconds to train 353.9381580352783
2018-04-24 01:12:41.573743AM --- Accuracy on test data is: 61.550000000000004
2018-04-24 01:12:41.619290AM --- starting process for: (((conv*2)vazio)*1)fc*0
2018-04-24 01:12:42.333596AM
_________________________________________________________________
Layer (type)                 Output Shape              Param #   
=================================================================
conv2d_1 (Conv2D)            (None, 32, 32, 32)        896       
_________________________________________________________________
conv2d_2 (Conv2D)            (None, 32, 32, 32)        9248      
_________________________________________________________________
flatten_1 (Flatten)          (None, 32768)             0         
_________________________________________________________________
dense_1 (Dense)              (None, 10)                327690    
=================================================================
Total params: 337,834
Trainable params: 337,834
Non-trainable params: 0
_________________________________________________________________

2018-04-24 01:18:29.133090AM --- Model took seconds to train 346.7836833000183
2018-04-24 01:18:29.400813AM --- Accuracy on test data is: 61.7
2018-04-24 01:18:29.441848AM --- starting process for: (((conv*1)pool)*2)fc*2
2018-04-24 01:18:30.165316AM
_________________________________________________________________
Layer (type)                 Output Shape              Param #   
=================================================================
conv2d_1 (Conv2D)            (None, 32, 32, 32)        896       
_________________________________________________________________
max_pooling2d_1 (MaxPooling2 (None, 16, 16, 32)        0         
_________________________________________________________________
conv2d_2 (Conv2D)            (None, 16, 16, 32)        9248      
_________________________________________________________________
max_pooling2d_2 (MaxPooling2 (None, 8, 8, 32)          0         
_________________________________________________________________
flatten_1 (Flatten)          (None, 2048)              0         
_________________________________________________________________
dense_1 (Dense)              (None, 128)               262272    
_________________________________________________________________
activation_1 (Activation)    (None, 128)               0         
_________________________________________________________________
dense_2 (Dense)              (None, 128)               16512     
_________________________________________________________________
activation_2 (Activation)    (None, 128)               0         
_________________________________________________________________
dense_3 (Dense)              (None, 10)                1290      
=================================================================
Total params: 290,218
Trainable params: 290,218
Non-trainable params: 0
_________________________________________________________________

2018-04-24 01:21:25.213544AM --- Model took seconds to train 175.0323076248169
2018-04-24 01:21:25.316212AM --- Accuracy on test data is: 68.2
2018-04-24 01:21:25.365931AM --- starting process for: (((conv*2)pool)*1)fc*2
2018-04-24 01:21:26.097000AM
_________________________________________________________________
Layer (type)                 Output Shape              Param #   
=================================================================
conv2d_1 (Conv2D)            (None, 32, 32, 32)        896       
_________________________________________________________________
conv2d_2 (Conv2D)            (None, 32, 32, 32)        9248      
_________________________________________________________________
max_pooling2d_1 (MaxPooling2 (None, 16, 16, 32)        0         
_________________________________________________________________
flatten_1 (Flatten)          (None, 8192)              0         
_________________________________________________________________
dense_1 (Dense)              (None, 128)               1048704   
_________________________________________________________________
activation_1 (Activation)    (None, 128)               0         
_________________________________________________________________
dense_2 (Dense)              (None, 128)               16512     
_________________________________________________________________
activation_2 (Activation)    (None, 128)               0         
_________________________________________________________________
dense_3 (Dense)              (None, 10)                1290      
=================================================================
Total params: 1,076,650
Trainable params: 1,076,650
Non-trainable params: 0
_________________________________________________________________

2018-04-24 01:25:18.373721AM --- Model took seconds to train 232.26108932495117
2018-04-24 01:25:18.523660AM --- Accuracy on test data is: 66.7
2018-04-24 01:25:18.568303AM --- starting process for: (((conv*2)vazio)*3)fc*1
2018-04-24 01:25:19.310997AM
_________________________________________________________________
Layer (type)                 Output Shape              Param #   
=================================================================
conv2d_1 (Conv2D)            (None, 32, 32, 32)        896       
_________________________________________________________________
conv2d_2 (Conv2D)            (None, 32, 32, 32)        9248      
_________________________________________________________________
conv2d_3 (Conv2D)            (None, 32, 32, 64)        18496     
_________________________________________________________________
conv2d_4 (Conv2D)            (None, 32, 32, 128)       73856     
_________________________________________________________________
conv2d_5 (Conv2D)            (None, 32, 32, 128)       147584    
_________________________________________________________________
conv2d_6 (Conv2D)            (None, 32, 32, 128)       147584    
_________________________________________________________________
flatten_1 (Flatten)          (None, 131072)            0         
_________________________________________________________________
dense_1 (Dense)              (None, 128)               16777344  
_________________________________________________________________
activation_1 (Activation)    (None, 128)               0         
_________________________________________________________________
dense_2 (Dense)              (None, 10)                1290      
=================================================================
Total params: 17,176,298
Trainable params: 17,176,298
Non-trainable params: 0
_________________________________________________________________

2018-04-24 01:46:31.101257AM --- Model took seconds to train 1271.7750186920166
2018-04-24 01:46:32.140435AM --- Accuracy on test data is: 64.3
2018-04-24 01:46:32.181400AM --- starting process for: (((conv*2)vazio)*1)fc*1
2018-04-24 01:46:32.900208AM
_________________________________________________________________
Layer (type)                 Output Shape              Param #   
=================================================================
conv2d_1 (Conv2D)            (None, 32, 32, 32)        896       
_________________________________________________________________
conv2d_2 (Conv2D)            (None, 32, 32, 32)        9248      
_________________________________________________________________
flatten_1 (Flatten)          (None, 32768)             0         
_________________________________________________________________
dense_1 (Dense)              (None, 128)               4194432   
_________________________________________________________________
activation_1 (Activation)    (None, 128)               0         
_________________________________________________________________
dense_2 (Dense)              (None, 10)                1290      
=================================================================
Total params: 4,205,866
Trainable params: 4,205,866
Non-trainable params: 0
_________________________________________________________________

2018-04-24 01:50:55.054244AM --- Model took seconds to train 262.1381378173828
2018-04-24 01:50:55.359019AM --- Accuracy on test data is: 60.099999999999994
2018-04-24 01:50:55.417413AM --- starting process for: (((conv*2)vazio)*2)fc*1
2018-04-24 01:50:56.149799AM
_________________________________________________________________
Layer (type)                 Output Shape              Param #   
=================================================================
conv2d_1 (Conv2D)            (None, 32, 32, 32)        896       
_________________________________________________________________
conv2d_2 (Conv2D)            (None, 32, 32, 32)        9248      
_________________________________________________________________
conv2d_3 (Conv2D)            (None, 32, 32, 64)        18496     
_________________________________________________________________
conv2d_4 (Conv2D)            (None, 32, 32, 128)       73856     
_________________________________________________________________
flatten_1 (Flatten)          (None, 131072)            0         
_________________________________________________________________
dense_1 (Dense)              (None, 128)               16777344  
_________________________________________________________________
activation_1 (Activation)    (None, 128)               0         
_________________________________________________________________
dense_2 (Dense)              (None, 10)                1290      
=================================================================
Total params: 16,881,130
Trainable params: 16,881,130
Non-trainable params: 0
_________________________________________________________________

2018-04-24 02:02:35.097667AM --- Model took seconds to train 698.9322726726532
2018-04-24 02:02:35.994746AM --- Accuracy on test data is: 65.2
2018-04-24 02:02:36.036384AM --- starting process for: (((conv*1)vazio)*3)fc*0
2018-04-24 02:02:36.756755AM
_________________________________________________________________
Layer (type)                 Output Shape              Param #   
=================================================================
conv2d_1 (Conv2D)            (None, 32, 32, 32)        896       
_________________________________________________________________
conv2d_2 (Conv2D)            (None, 32, 32, 32)        9248      
_________________________________________________________________
conv2d_3 (Conv2D)            (None, 32, 32, 64)        18496     
_________________________________________________________________
flatten_1 (Flatten)          (None, 65536)             0         
_________________________________________________________________
dense_1 (Dense)              (None, 10)                655370    
=================================================================
Total params: 684,010
Trainable params: 684,010
Non-trainable params: 0
_________________________________________________________________

2018-04-24 02:12:39.702428AM --- Model took seconds to train 602.9301652908325
2018-04-24 02:12:40.162490AM --- Accuracy on test data is: 63.7
2018-04-24 02:12:40.205458AM --- starting process for: (((conv*1)vazio)*1)fc*0
2018-04-24 02:12:40.919353AM
_________________________________________________________________
Layer (type)                 Output Shape              Param #   
=================================================================
conv2d_1 (Conv2D)            (None, 32, 32, 32)        896       
_________________________________________________________________
flatten_1 (Flatten)          (None, 32768)             0         
_________________________________________________________________
dense_1 (Dense)              (None, 10)                327690    
=================================================================
Total params: 328,586
Trainable params: 328,586
Non-trainable params: 0
_________________________________________________________________

2018-04-24 02:17:15.557649AM --- Model took seconds to train 274.62322473526
2018-04-24 02:17:15.844892AM --- Accuracy on test data is: 58.550000000000004
2018-04-24 02:17:15.900095AM --- starting process for: (((conv*1)vazio)*1)fc*2
2018-04-24 02:17:16.616348AM
_________________________________________________________________
Layer (type)                 Output Shape              Param #   
=================================================================
conv2d_1 (Conv2D)            (None, 32, 32, 32)        896       
_________________________________________________________________
flatten_1 (Flatten)          (None, 32768)             0         
_________________________________________________________________
dense_1 (Dense)              (None, 128)               4194432   
_________________________________________________________________
activation_1 (Activation)    (None, 128)               0         
_________________________________________________________________
dense_2 (Dense)              (None, 128)               16512     
_________________________________________________________________
activation_2 (Activation)    (None, 128)               0         
_________________________________________________________________
dense_3 (Dense)              (None, 10)                1290      
=================================================================
Total params: 4,213,130
Trainable params: 4,213,130
Non-trainable params: 0
_________________________________________________________________

2018-04-24 02:20:21.048469AM --- Model took seconds to train 184.41664934158325
2018-04-24 02:20:21.304059AM --- Accuracy on test data is: 59.3
2018-04-24 02:20:21.345186AM --- starting process for: (((conv*2)vazio)*2)fc*1
2018-04-24 02:20:22.077522AM
_________________________________________________________________
Layer (type)                 Output Shape              Param #   
=================================================================
conv2d_1 (Conv2D)            (None, 32, 32, 32)        896       
_________________________________________________________________
conv2d_2 (Conv2D)            (None, 32, 32, 32)        9248      
_________________________________________________________________
conv2d_3 (Conv2D)            (None, 32, 32, 64)        18496     
_________________________________________________________________
conv2d_4 (Conv2D)            (None, 32, 32, 128)       73856     
_________________________________________________________________
flatten_1 (Flatten)          (None, 131072)            0         
_________________________________________________________________
dense_1 (Dense)              (None, 128)               16777344  
_________________________________________________________________
activation_1 (Activation)    (None, 128)               0         
_________________________________________________________________
dense_2 (Dense)              (None, 10)                1290      
=================================================================
Total params: 16,881,130
Trainable params: 16,881,130
Non-trainable params: 0
_________________________________________________________________

2018-04-24 02:32:00.588798AM --- Model took seconds to train 698.4952461719513
2018-04-24 02:32:01.495161AM --- Accuracy on test data is: 63.3
2018-04-24 02:32:01.537544AM --- starting process for: (((conv*1)pool)*1)fc*1
2018-04-24 02:32:02.257001AM
_________________________________________________________________
Layer (type)                 Output Shape              Param #   
=================================================================
conv2d_1 (Conv2D)            (None, 32, 32, 32)        896       
_________________________________________________________________
max_pooling2d_1 (MaxPooling2 (None, 16, 16, 32)        0         
_________________________________________________________________
flatten_1 (Flatten)          (None, 8192)              0         
_________________________________________________________________
dense_1 (Dense)              (None, 128)               1048704   
_________________________________________________________________
activation_1 (Activation)    (None, 128)               0         
_________________________________________________________________
dense_2 (Dense)              (None, 10)                1290      
=================================================================
Total params: 1,050,890
Trainable params: 1,050,890
Non-trainable params: 0
_________________________________________________________________

2018-04-24 02:34:30.534109AM --- Model took seconds to train 148.26196384429932
2018-04-24 02:34:30.666643AM --- Accuracy on test data is: 61.75000000000001
2018-04-24 02:34:30.715458AM --- starting process for: (((conv*2)pool)*1)fc*1
2018-04-24 02:34:31.436407AM
_________________________________________________________________
Layer (type)                 Output Shape              Param #   
=================================================================
conv2d_1 (Conv2D)            (None, 32, 32, 32)        896       
_________________________________________________________________
conv2d_2 (Conv2D)            (None, 32, 32, 32)        9248      
_________________________________________________________________
max_pooling2d_1 (MaxPooling2 (None, 16, 16, 32)        0         
_________________________________________________________________
flatten_1 (Flatten)          (None, 8192)              0         
_________________________________________________________________
dense_1 (Dense)              (None, 128)               1048704   
_________________________________________________________________
activation_1 (Activation)    (None, 128)               0         
_________________________________________________________________
dense_2 (Dense)              (None, 10)                1290      
=================================================================
Total params: 1,060,138
Trainable params: 1,060,138
Non-trainable params: 0
_________________________________________________________________

2018-04-24 02:38:15.050904AM --- Model took seconds to train 223.59827184677124
2018-04-24 02:38:15.210648AM --- Accuracy on test data is: 64.45
2018-04-24 02:38:15.258685AM --- starting process for: (((conv*2)vazio)*3)fc*1
2018-04-24 02:38:15.996420AM
_________________________________________________________________
Layer (type)                 Output Shape              Param #   
=================================================================
conv2d_1 (Conv2D)            (None, 32, 32, 32)        896       
_________________________________________________________________
conv2d_2 (Conv2D)            (None, 32, 32, 32)        9248      
_________________________________________________________________
conv2d_3 (Conv2D)            (None, 32, 32, 64)        18496     
_________________________________________________________________
conv2d_4 (Conv2D)            (None, 32, 32, 128)       73856     
_________________________________________________________________
conv2d_5 (Conv2D)            (None, 32, 32, 128)       147584    
_________________________________________________________________
conv2d_6 (Conv2D)            (None, 32, 32, 128)       147584    
_________________________________________________________________
flatten_1 (Flatten)          (None, 131072)            0         
_________________________________________________________________
dense_1 (Dense)              (None, 128)               16777344  
_________________________________________________________________
activation_1 (Activation)    (None, 128)               0         
_________________________________________________________________
dense_2 (Dense)              (None, 10)                1290      
=================================================================
Total params: 17,176,298
Trainable params: 17,176,298
Non-trainable params: 0
_________________________________________________________________

2018-04-24 02:59:31.441933AM --- Model took seconds to train 1275.4297304153442
2018-04-24 02:59:32.453751AM --- Accuracy on test data is: 64.95
2018-04-24 02:59:32.495524AM --- starting process for: (((conv*2)pool)*1)fc*0
2018-04-24 02:59:33.214805AM
_________________________________________________________________
Layer (type)                 Output Shape              Param #   
=================================================================
conv2d_1 (Conv2D)            (None, 32, 32, 32)        896       
_________________________________________________________________
conv2d_2 (Conv2D)            (None, 32, 32, 32)        9248      
_________________________________________________________________
max_pooling2d_1 (MaxPooling2 (None, 16, 16, 32)        0         
_________________________________________________________________
flatten_1 (Flatten)          (None, 8192)              0         
_________________________________________________________________
dense_1 (Dense)              (None, 10)                81930     
=================================================================
Total params: 92,074
Trainable params: 92,074
Non-trainable params: 0
_________________________________________________________________

2018-04-24 03:03:32.531089AM --- Model took seconds to train 239.3011119365692
2018-04-24 03:03:32.690418AM --- Accuracy on test data is: 63.1
2018-04-24 03:03:32.741415AM --- starting process for: (((conv*1)pool)*2)fc*1
2018-04-24 03:03:33.458583AM
_________________________________________________________________
Layer (type)                 Output Shape              Param #   
=================================================================
conv2d_1 (Conv2D)            (None, 32, 32, 32)        896       
_________________________________________________________________
max_pooling2d_1 (MaxPooling2 (None, 16, 16, 32)        0         
_________________________________________________________________
conv2d_2 (Conv2D)            (None, 16, 16, 32)        9248      
_________________________________________________________________
max_pooling2d_2 (MaxPooling2 (None, 8, 8, 32)          0         
_________________________________________________________________
flatten_1 (Flatten)          (None, 2048)              0         
_________________________________________________________________
dense_1 (Dense)              (None, 128)               262272    
_________________________________________________________________
activation_1 (Activation)    (None, 128)               0         
_________________________________________________________________
dense_2 (Dense)              (None, 10)                1290      
=================================================================
Total params: 273,706
Trainable params: 273,706
Non-trainable params: 0
_________________________________________________________________

2018-04-24 03:06:18.483395AM --- Model took seconds to train 165.00975275039673
2018-04-24 03:06:18.562194AM --- Accuracy on test data is: 67.7
2018-04-24 03:06:18.604724AM --- starting process for: (((conv*1)vazio)*1)fc*1
2018-04-24 03:06:19.322196AM
_________________________________________________________________
Layer (type)                 Output Shape              Param #   
=================================================================
conv2d_1 (Conv2D)            (None, 32, 32, 32)        896       
_________________________________________________________________
flatten_1 (Flatten)          (None, 32768)             0         
_________________________________________________________________
dense_1 (Dense)              (None, 128)               4194432   
_________________________________________________________________
activation_1 (Activation)    (None, 128)               0         
_________________________________________________________________
dense_2 (Dense)              (None, 10)                1290      
=================================================================
Total params: 4,196,618
Trainable params: 4,196,618
Non-trainable params: 0
_________________________________________________________________

2018-04-24 03:09:16.879185AM --- Model took seconds to train 177.54091453552246
2018-04-24 03:09:17.133111AM --- Accuracy on test data is: 59.199999999999996
2018-04-24 03:09:17.173915AM --- starting process for: (((conv*2)pool)*1)fc*1
2018-04-24 03:09:17.897876AM
_________________________________________________________________
Layer (type)                 Output Shape              Param #   
=================================================================
conv2d_1 (Conv2D)            (None, 32, 32, 32)        896       
_________________________________________________________________
conv2d_2 (Conv2D)            (None, 32, 32, 32)        9248      
_________________________________________________________________
max_pooling2d_1 (MaxPooling2 (None, 16, 16, 32)        0         
_________________________________________________________________
flatten_1 (Flatten)          (None, 8192)              0         
_________________________________________________________________
dense_1 (Dense)              (None, 128)               1048704   
_________________________________________________________________
activation_1 (Activation)    (None, 128)               0         
_________________________________________________________________
dense_2 (Dense)              (None, 10)                1290      
=================================================================
Total params: 1,060,138
Trainable params: 1,060,138
Non-trainable params: 0
_________________________________________________________________

2018-04-24 03:13:01.945866AM --- Model took seconds to train 224.0320405960083
2018-04-24 03:13:02.085147AM --- Accuracy on test data is: 64.9
2018-04-24 03:13:02.129033AM --- starting process for: (((conv*2)vazio)*3)fc*1
2018-04-24 03:13:02.872247AM
_________________________________________________________________
Layer (type)                 Output Shape              Param #   
=================================================================
conv2d_1 (Conv2D)            (None, 32, 32, 32)        896       
_________________________________________________________________
conv2d_2 (Conv2D)            (None, 32, 32, 32)        9248      
_________________________________________________________________
conv2d_3 (Conv2D)            (None, 32, 32, 64)        18496     
_________________________________________________________________
conv2d_4 (Conv2D)            (None, 32, 32, 128)       73856     
_________________________________________________________________
conv2d_5 (Conv2D)            (None, 32, 32, 128)       147584    
_________________________________________________________________
conv2d_6 (Conv2D)            (None, 32, 32, 128)       147584    
_________________________________________________________________
flatten_1 (Flatten)          (None, 131072)            0         
_________________________________________________________________
dense_1 (Dense)              (None, 128)               16777344  
_________________________________________________________________
activation_1 (Activation)    (None, 128)               0         
_________________________________________________________________
dense_2 (Dense)              (None, 10)                1290      
=================================================================
Total params: 17,176,298
Trainable params: 17,176,298
Non-trainable params: 0
_________________________________________________________________

2018-04-24 03:34:18.251521AM --- Model took seconds to train 1275.3631319999695
2018-04-24 03:34:19.275650AM --- Accuracy on test data is: 63.4
2018-04-24 03:34:19.319208AM --- starting process for: (((conv*1)pool)*2)fc*1
2018-04-24 03:34:20.051714AM
_________________________________________________________________
Layer (type)                 Output Shape              Param #   
=================================================================
conv2d_1 (Conv2D)            (None, 32, 32, 32)        896       
_________________________________________________________________
max_pooling2d_1 (MaxPooling2 (None, 16, 16, 32)        0         
_________________________________________________________________
conv2d_2 (Conv2D)            (None, 16, 16, 32)        9248      
_________________________________________________________________
max_pooling2d_2 (MaxPooling2 (None, 8, 8, 32)          0         
_________________________________________________________________
flatten_1 (Flatten)          (None, 2048)              0         
_________________________________________________________________
dense_1 (Dense)              (None, 128)               262272    
_________________________________________________________________
activation_1 (Activation)    (None, 128)               0         
_________________________________________________________________
dense_2 (Dense)              (None, 10)                1290      
=================================================================
Total params: 273,706
Trainable params: 273,706
Non-trainable params: 0
_________________________________________________________________

2018-04-24 03:37:04.116131AM --- Model took seconds to train 164.0485246181488
2018-04-24 03:37:04.209343AM --- Accuracy on test data is: 68.45
2018-04-24 03:37:04.254893AM --- starting process for: (((conv*2)pool)*3)fc*0
2018-04-24 03:37:04.995463AM
_________________________________________________________________
Layer (type)                 Output Shape              Param #   
=================================================================
conv2d_1 (Conv2D)            (None, 32, 32, 32)        896       
_________________________________________________________________
conv2d_2 (Conv2D)            (None, 32, 32, 32)        9248      
_________________________________________________________________
max_pooling2d_1 (MaxPooling2 (None, 16, 16, 32)        0         
_________________________________________________________________
conv2d_3 (Conv2D)            (None, 16, 16, 64)        18496     
_________________________________________________________________
conv2d_4 (Conv2D)            (None, 16, 16, 128)       73856     
_________________________________________________________________
max_pooling2d_2 (MaxPooling2 (None, 8, 8, 128)         0         
_________________________________________________________________
conv2d_5 (Conv2D)            (None, 8, 8, 128)         147584    
_________________________________________________________________
conv2d_6 (Conv2D)            (None, 8, 8, 128)         147584    
_________________________________________________________________
max_pooling2d_3 (MaxPooling2 (None, 4, 4, 128)         0         
_________________________________________________________________
flatten_1 (Flatten)          (None, 2048)              0         
_________________________________________________________________
dense_1 (Dense)              (None, 10)                20490     
=================================================================
Total params: 418,154
Trainable params: 418,154
Non-trainable params: 0
_________________________________________________________________

2018-04-24 03:43:27.665533AM --- Model took seconds to train 382.65441060066223
2018-04-24 03:43:27.808416AM --- Accuracy on test data is: 77.25
2018-04-24 03:43:27.850894AM --- starting process for: (((conv*2)pool)*2)fc*1
2018-04-24 03:43:28.588218AM
_________________________________________________________________
Layer (type)                 Output Shape              Param #   
=================================================================
conv2d_1 (Conv2D)            (None, 32, 32, 32)        896       
_________________________________________________________________
conv2d_2 (Conv2D)            (None, 32, 32, 32)        9248      
_________________________________________________________________
max_pooling2d_1 (MaxPooling2 (None, 16, 16, 32)        0         
_________________________________________________________________
conv2d_3 (Conv2D)            (None, 16, 16, 64)        18496     
_________________________________________________________________
conv2d_4 (Conv2D)            (None, 16, 16, 128)       73856     
_________________________________________________________________
max_pooling2d_2 (MaxPooling2 (None, 8, 8, 128)         0         
_________________________________________________________________
flatten_1 (Flatten)          (None, 8192)              0         
_________________________________________________________________
dense_1 (Dense)              (None, 128)               1048704   
_________________________________________________________________
activation_1 (Activation)    (None, 128)               0         
_________________________________________________________________
dense_2 (Dense)              (None, 10)                1290      
=================================================================
Total params: 1,152,490
Trainable params: 1,152,490
Non-trainable params: 0
_________________________________________________________________

2018-04-24 03:49:00.003443AM --- Model took seconds to train 331.39992213249207
2018-04-24 03:49:00.174960AM --- Accuracy on test data is: 73.05
2018-04-24 03:49:00.221281AM --- Inicialization...
…
2018-04-24 03:49:00.225164AM --- 47 - Individual: (((conv*1)pool)*2)fc*1; 68.45
2018-04-24 03:49:00.225257AM --- 48 - Individual: (((conv*2)pool)*3)fc*0; 77.25
2018-04-24 03:49:00.225344AM --- 49 - Individual: (((conv*2)pool)*2)fc*1; 73.05
2018-04-24 03:49:00.225407AM --- Generation: 1
2018-04-24 03:49:00.228058AM --- starting process for: (((conv*2)pool)*2)fc*0
2018-04-24 03:49:00.958170AM
_________________________________________________________________
Layer (type)                 Output Shape              Param #   
=================================================================
conv2d_1 (Conv2D)            (None, 32, 32, 32)        896       
_________________________________________________________________
conv2d_2 (Conv2D)            (None, 32, 32, 32)        9248      
_________________________________________________________________
max_pooling2d_1 (MaxPooling2 (None, 16, 16, 32)        0         
_________________________________________________________________
conv2d_3 (Conv2D)            (None, 16, 16, 64)        18496     
_________________________________________________________________
conv2d_4 (Conv2D)            (None, 16, 16, 128)       73856     
_________________________________________________________________
max_pooling2d_2 (MaxPooling2 (None, 8, 8, 128)         0         
_________________________________________________________________
flatten_1 (Flatten)          (None, 8192)              0         
_________________________________________________________________
dense_1 (Dense)              (None, 10)                81930     
=================================================================
Total params: 184,426
Trainable params: 184,426
Non-trainable params: 0
_________________________________________________________________

2018-04-24 03:54:50.729005AM --- Model took seconds to train 349.75401735305786
2018-04-24 03:54:50.900261AM --- Accuracy on test data is: 75.25
2018-04-24 03:54:50.947618AM --- starting process for: (((conv*2)vazio)*1)fc*0
2018-04-24 03:54:51.667413AM
_________________________________________________________________
Layer (type)                 Output Shape              Param #   
=================================================================
conv2d_1 (Conv2D)            (None, 32, 32, 32)        896       
_________________________________________________________________
conv2d_2 (Conv2D)            (None, 32, 32, 32)        9248      
_________________________________________________________________
flatten_1 (Flatten)          (None, 32768)             0         
_________________________________________________________________
dense_1 (Dense)              (None, 10)                327690    
=================================================================
Total params: 337,834
Trainable params: 337,834
Non-trainable params: 0
_________________________________________________________________

2018-04-24 04:00:42.507958AM --- Model took seconds to train 350.82517552375793
2018-04-24 04:00:42.784889AM --- Accuracy on test data is: 60.75000000000001
2018-04-24 04:00:42.827466AM --- starting process for: (((conv*2)vazio)*1)fc*1
2018-04-24 04:00:43.550273AM
_________________________________________________________________
Layer (type)                 Output Shape              Param #   
=================================================================
conv2d_1 (Conv2D)            (None, 32, 32, 32)        896       
_________________________________________________________________
conv2d_2 (Conv2D)            (None, 32, 32, 32)        9248      
_________________________________________________________________
flatten_1 (Flatten)          (None, 32768)             0         
_________________________________________________________________
dense_1 (Dense)              (None, 128)               4194432   
_________________________________________________________________
activation_1 (Activation)    (None, 128)               0         
_________________________________________________________________
dense_2 (Dense)              (None, 10)                1290      
=================================================================
Total params: 4,205,866
Trainable params: 4,205,866
Non-trainable params: 0
_________________________________________________________________

2018-04-24 04:04:59.469101AM --- Model took seconds to train 255.90354990959167
2018-04-24 04:04:59.749458AM --- Accuracy on test data is: 62.7
2018-04-24 04:04:59.791050AM --- starting process for: (((conv*2)vazio)*3)fc*1
2018-04-24 04:05:00.528845AM
_________________________________________________________________
Layer (type)                 Output Shape              Param #   
=================================================================
conv2d_1 (Conv2D)            (None, 32, 32, 32)        896       
_________________________________________________________________
conv2d_2 (Conv2D)            (None, 32, 32, 32)        9248      
_________________________________________________________________
conv2d_3 (Conv2D)            (None, 32, 32, 64)        18496     
_________________________________________________________________
conv2d_4 (Conv2D)            (None, 32, 32, 128)       73856     
_________________________________________________________________
conv2d_5 (Conv2D)            (None, 32, 32, 128)       147584    
_________________________________________________________________
conv2d_6 (Conv2D)            (None, 32, 32, 128)       147584    
_________________________________________________________________
flatten_1 (Flatten)          (None, 131072)            0         
_________________________________________________________________
dense_1 (Dense)              (None, 128)               16777344  
_________________________________________________________________
activation_1 (Activation)    (None, 128)               0         
_________________________________________________________________
dense_2 (Dense)              (None, 10)                1290      
=================================================================
Total params: 17,176,298
Trainable params: 17,176,298
Non-trainable params: 0
_________________________________________________________________

2018-04-24 04:26:12.682770AM --- Model took seconds to train 1272.1379799842834
2018-04-24 04:26:13.691233AM --- Accuracy on test data is: 63.6
2018-04-24 04:26:13.732315AM --- starting process for: (((conv*1)vazio)*3)fc*2
2018-04-24 04:26:14.470201AM
_________________________________________________________________
Layer (type)                 Output Shape              Param #   
=================================================================
conv2d_1 (Conv2D)            (None, 32, 32, 32)        896       
_________________________________________________________________
conv2d_2 (Conv2D)            (None, 32, 32, 32)        9248      
_________________________________________________________________
conv2d_3 (Conv2D)            (None, 32, 32, 64)        18496     
_________________________________________________________________
flatten_1 (Flatten)          (None, 65536)             0         
_________________________________________________________________
dense_1 (Dense)              (None, 128)               8388736   
_________________________________________________________________
activation_1 (Activation)    (None, 128)               0         
_________________________________________________________________
dense_2 (Dense)              (None, 128)               16512     
_________________________________________________________________
activation_2 (Activation)    (None, 128)               0         
_________________________________________________________________
dense_3 (Dense)              (None, 10)                1290      
=================================================================
Total params: 8,435,178
Trainable params: 8,435,178
Non-trainable params: 0
_________________________________________________________________

2018-04-24 04:33:05.710246AM --- Model took seconds to train 411.22454047203064
2018-04-24 04:33:06.203659AM --- Accuracy on test data is: 64.60000000000001
2018-04-24 04:33:06.246300AM --- starting process for: (((conv*1)vazio)*2)fc*1
2018-04-24 04:33:06.972835AM
_________________________________________________________________
Layer (type)                 Output Shape              Param #   
=================================================================
conv2d_1 (Conv2D)            (None, 32, 32, 32)        896       
_________________________________________________________________
conv2d_2 (Conv2D)            (None, 32, 32, 32)        9248      
_________________________________________________________________
flatten_1 (Flatten)          (None, 32768)             0         
_________________________________________________________________
dense_1 (Dense)              (None, 128)               4194432   
_________________________________________________________________
activation_1 (Activation)    (None, 128)               0         
_________________________________________________________________
dense_2 (Dense)              (None, 10)                1290      
=================================================================
Total params: 4,205,866
Trainable params: 4,205,866
Non-trainable params: 0
_________________________________________________________________

2018-04-24 04:37:22.990176AM --- Model took seconds to train 256.0007965564728
2018-04-24 04:37:23.275191AM --- Accuracy on test data is: 61.0
2018-04-24 04:37:23.325190AM --- starting process for: (((conv*2)vazio)*2)fc*1
2018-04-24 04:37:24.062489AM
_________________________________________________________________
Layer (type)                 Output Shape              Param #   
=================================================================
conv2d_1 (Conv2D)            (None, 32, 32, 32)        896       
_________________________________________________________________
conv2d_2 (Conv2D)            (None, 32, 32, 32)        9248      
_________________________________________________________________
conv2d_3 (Conv2D)            (None, 32, 32, 64)        18496     
_________________________________________________________________
conv2d_4 (Conv2D)            (None, 32, 32, 128)       73856     
_________________________________________________________________
flatten_1 (Flatten)          (None, 131072)            0         
_________________________________________________________________
dense_1 (Dense)              (None, 128)               16777344  
_________________________________________________________________
activation_1 (Activation)    (None, 128)               0         
_________________________________________________________________
dense_2 (Dense)              (None, 10)                1290      
=================================================================
Total params: 16,881,130
Trainable params: 16,881,130
Non-trainable params: 0
_________________________________________________________________

2018-04-24 04:49:04.162607AM --- Model took seconds to train 700.0845119953156
2018-04-24 04:49:05.049680AM --- Accuracy on test data is: 67.4
2018-04-24 04:49:05.092194AM --- starting process for: (((conv*1)vazio)*3)fc*1
2018-04-24 04:49:05.815208AM
_________________________________________________________________
Layer (type)                 Output Shape              Param #   
=================================================================
conv2d_1 (Conv2D)            (None, 32, 32, 32)        896       
_________________________________________________________________
conv2d_2 (Conv2D)            (None, 32, 32, 32)        9248      
_________________________________________________________________
conv2d_3 (Conv2D)            (None, 32, 32, 64)        18496     
_________________________________________________________________
flatten_1 (Flatten)          (None, 65536)             0         
_________________________________________________________________
dense_1 (Dense)              (None, 128)               8388736   
_________________________________________________________________
activation_1 (Activation)    (None, 128)               0         
_________________________________________________________________
dense_2 (Dense)              (None, 10)                1290      
=================================================================
Total params: 8,418,666
Trainable params: 8,418,666
Non-trainable params: 0
_________________________________________________________________

2018-04-24 04:55:59.077106AM --- Model took seconds to train 413.24611830711365
2018-04-24 04:55:59.563495AM --- Accuracy on test data is: 63.05
2018-04-24 04:55:59.604376AM --- starting process for: (((conv*2)pool)*1)fc*0
2018-04-24 04:56:00.325090AM
_________________________________________________________________
Layer (type)                 Output Shape              Param #   
=================================================================
conv2d_1 (Conv2D)            (None, 32, 32, 32)        896       
_________________________________________________________________
conv2d_2 (Conv2D)            (None, 32, 32, 32)        9248      
_________________________________________________________________
max_pooling2d_1 (MaxPooling2 (None, 16, 16, 32)        0         
_________________________________________________________________
flatten_1 (Flatten)          (None, 8192)              0         
_________________________________________________________________
dense_1 (Dense)              (None, 10)                81930     
=================================================================
Total params: 92,074
Trainable params: 92,074
Non-trainable params: 0
_________________________________________________________________

2018-04-24 04:59:57.742230AM --- Model took seconds to train 237.4017198085785
2018-04-24 04:59:57.904405AM --- Accuracy on test data is: 61.75000000000001
2018-04-24 04:59:57.957416AM --- starting process for: (((conv*1)vazio)*2)fc*0
2018-04-24 04:59:58.672661AM
_________________________________________________________________
Layer (type)                 Output Shape              Param #   
=================================================================
conv2d_1 (Conv2D)            (None, 32, 32, 32)        896       
_________________________________________________________________
conv2d_2 (Conv2D)            (None, 32, 32, 32)        9248      
_________________________________________________________________
flatten_1 (Flatten)          (None, 32768)             0         
_________________________________________________________________
dense_1 (Dense)              (None, 10)                327690    
=================================================================
Total params: 337,834
Trainable params: 337,834
Non-trainable params: 0
_________________________________________________________________

2018-04-24 05:05:47.806948AM --- Model took seconds to train 349.11901450157166
2018-04-24 05:05:48.109684AM --- Accuracy on test data is: 58.15
2018-04-24 05:05:48.163792AM --- starting process for: (((conv*1)pool)*2)fc*1
2018-04-24 05:05:48.880714AM
_________________________________________________________________
Layer (type)                 Output Shape              Param #   
=================================================================
conv2d_1 (Conv2D)            (None, 32, 32, 32)        896       
_________________________________________________________________
max_pooling2d_1 (MaxPooling2 (None, 16, 16, 32)        0         
_________________________________________________________________
conv2d_2 (Conv2D)            (None, 16, 16, 32)        9248      
_________________________________________________________________
max_pooling2d_2 (MaxPooling2 (None, 8, 8, 32)          0         
_________________________________________________________________
flatten_1 (Flatten)          (None, 2048)              0         
_________________________________________________________________
dense_1 (Dense)              (None, 128)               262272    
_________________________________________________________________
activation_1 (Activation)    (None, 128)               0         
_________________________________________________________________
dense_2 (Dense)              (None, 10)                1290      
=================================================================
Total params: 273,706
Trainable params: 273,706
Non-trainable params: 0
_________________________________________________________________

2018-04-24 05:08:33.971815AM --- Model took seconds to train 165.07550644874573
2018-04-24 05:08:34.077134AM --- Accuracy on test data is: 68.95
2018-04-24 05:08:34.123780AM --- starting process for: (((conv*1)vazio)*1)fc*1
2018-04-24 05:08:34.842792AM
_________________________________________________________________
Layer (type)                 Output Shape              Param #   
=================================================================
conv2d_1 (Conv2D)            (None, 32, 32, 32)        896       
_________________________________________________________________
flatten_1 (Flatten)          (None, 32768)             0         
_________________________________________________________________
dense_1 (Dense)              (None, 128)               4194432   
_________________________________________________________________
activation_1 (Activation)    (None, 128)               0         
_________________________________________________________________
dense_2 (Dense)              (None, 10)                1290      
=================================================================
Total params: 4,196,618
Trainable params: 4,196,618
Non-trainable params: 0
_________________________________________________________________

2018-04-24 05:11:31.434274AM --- Model took seconds to train 176.5754017829895
2018-04-24 05:11:31.693126AM --- Accuracy on test data is: 57.95
2018-04-24 05:11:31.736165AM --- starting process for: (((conv*1)pool)*1)fc*1
2018-04-24 05:11:32.454697AM
_________________________________________________________________
Layer (type)                 Output Shape              Param #   
=================================================================
conv2d_1 (Conv2D)            (None, 32, 32, 32)        896       
_________________________________________________________________
max_pooling2d_1 (MaxPooling2 (None, 16, 16, 32)        0         
_________________________________________________________________
flatten_1 (Flatten)          (None, 8192)              0         
_________________________________________________________________
dense_1 (Dense)              (None, 128)               1048704   
_________________________________________________________________
activation_1 (Activation)    (None, 128)               0         
_________________________________________________________________
dense_2 (Dense)              (None, 10)                1290      
=================================================================
Total params: 1,050,890
Trainable params: 1,050,890
Non-trainable params: 0
_________________________________________________________________

2018-04-24 05:13:58.542929AM --- Model took seconds to train 146.07276701927185
2018-04-24 05:13:58.660663AM --- Accuracy on test data is: 59.599999999999994
2018-04-24 05:13:58.704354AM --- starting process for: (((conv*1)pool)*2)fc*2
2018-04-24 05:13:59.430449AM
_________________________________________________________________
Layer (type)                 Output Shape              Param #   
=================================================================
conv2d_1 (Conv2D)            (None, 32, 32, 32)        896       
_________________________________________________________________
max_pooling2d_1 (MaxPooling2 (None, 16, 16, 32)        0         
_________________________________________________________________
conv2d_2 (Conv2D)            (None, 16, 16, 32)        9248      
_________________________________________________________________
max_pooling2d_2 (MaxPooling2 (None, 8, 8, 32)          0         
_________________________________________________________________
flatten_1 (Flatten)          (None, 2048)              0         
_________________________________________________________________
dense_1 (Dense)              (None, 128)               262272    
_________________________________________________________________
activation_1 (Activation)    (None, 128)               0         
_________________________________________________________________
dense_2 (Dense)              (None, 128)               16512     
_________________________________________________________________
activation_2 (Activation)    (None, 128)               0         
_________________________________________________________________
dense_3 (Dense)              (None, 10)                1290      
=================================================================
Total params: 290,218
Trainable params: 290,218
Non-trainable params: 0
_________________________________________________________________

2018-04-24 05:16:51.251091AM --- Model took seconds to train 171.80452942848206
2018-04-24 05:16:51.343733AM --- Accuracy on test data is: 67.2
2018-04-24 05:16:51.387421AM --- starting process for: (((conv*1)vazio)*3)fc*2
2018-04-24 05:16:52.120131AM
_________________________________________________________________
Layer (type)                 Output Shape              Param #   
=================================================================
conv2d_1 (Conv2D)            (None, 32, 32, 32)        896       
_________________________________________________________________
conv2d_2 (Conv2D)            (None, 32, 32, 32)        9248      
_________________________________________________________________
conv2d_3 (Conv2D)            (None, 32, 32, 64)        18496     
_________________________________________________________________
flatten_1 (Flatten)          (None, 65536)             0         
_________________________________________________________________
dense_1 (Dense)              (None, 128)               8388736   
_________________________________________________________________
activation_1 (Activation)    (None, 128)               0         
_________________________________________________________________
dense_2 (Dense)              (None, 128)               16512     
_________________________________________________________________
activation_2 (Activation)    (None, 128)               0         
_________________________________________________________________
dense_3 (Dense)              (None, 10)                1290      
=================================================================
Total params: 8,435,178
Trainable params: 8,435,178
Non-trainable params: 0
_________________________________________________________________

2018-04-24 05:23:45.713776AM --- Model took seconds to train 413.5776906013489
2018-04-24 05:23:46.206162AM --- Accuracy on test data is: 63.4
2018-04-24 05:23:46.248158AM --- starting process for: (((conv*1)pool)*1)fc*2
2018-04-24 05:23:46.969556AM
_________________________________________________________________
Layer (type)                 Output Shape              Param #   
=================================================================
conv2d_1 (Conv2D)            (None, 32, 32, 32)        896       
_________________________________________________________________
max_pooling2d_1 (MaxPooling2 (None, 16, 16, 32)        0         
_________________________________________________________________
flatten_1 (Flatten)          (None, 8192)              0         
_________________________________________________________________
dense_1 (Dense)              (None, 128)               1048704   
_________________________________________________________________
activation_1 (Activation)    (None, 128)               0         
_________________________________________________________________
dense_2 (Dense)              (None, 128)               16512     
_________________________________________________________________
activation_2 (Activation)    (None, 128)               0         
_________________________________________________________________
dense_3 (Dense)              (None, 10)                1290      
=================================================================
Total params: 1,067,402
Trainable params: 1,067,402
Non-trainable params: 0
_________________________________________________________________

2018-04-24 05:26:20.494715AM --- Model took seconds to train 153.50923895835876
2018-04-24 05:26:20.617079AM --- Accuracy on test data is: 62.6
2018-04-24 05:26:20.661718AM --- starting process for: (((conv*1)vazio)*3)fc*0
2018-04-24 05:26:21.386788AM
_________________________________________________________________
Layer (type)                 Output Shape              Param #   
=================================================================
conv2d_1 (Conv2D)            (None, 32, 32, 32)        896       
_________________________________________________________________
conv2d_2 (Conv2D)            (None, 32, 32, 32)        9248      
_________________________________________________________________
conv2d_3 (Conv2D)            (None, 32, 32, 64)        18496     
_________________________________________________________________
flatten_1 (Flatten)          (None, 65536)             0         
_________________________________________________________________
dense_1 (Dense)              (None, 10)                655370    
=================================================================
Total params: 684,010
Trainable params: 684,010
Non-trainable params: 0
_________________________________________________________________

2018-04-24 05:36:23.801340AM --- Model took seconds to train 602.3990511894226
2018-04-24 05:36:24.287109AM --- Accuracy on test data is: 62.0
2018-04-24 05:36:24.328801AM --- starting process for: (((conv*2)vazio)*1)fc*1
2018-04-24 05:36:25.047068AM
_________________________________________________________________
Layer (type)                 Output Shape              Param #   
=================================================================
conv2d_1 (Conv2D)            (None, 32, 32, 32)        896       
_________________________________________________________________
conv2d_2 (Conv2D)            (None, 32, 32, 32)        9248      
_________________________________________________________________
flatten_1 (Flatten)          (None, 32768)             0         
_________________________________________________________________
dense_1 (Dense)              (None, 128)               4194432   
_________________________________________________________________
activation_1 (Activation)    (None, 128)               0         
_________________________________________________________________
dense_2 (Dense)              (None, 10)                1290      
=================================================================
Total params: 4,205,866
Trainable params: 4,205,866
Non-trainable params: 0
_________________________________________________________________

2018-04-24 05:40:39.802645AM --- Model took seconds to train 254.7396059036255
2018-04-24 05:40:40.083806AM --- Accuracy on test data is: 59.85
2018-04-24 05:40:40.128918AM --- starting process for: (((conv*1)vazio)*3)fc*2
2018-04-24 05:40:40.926059AM
_________________________________________________________________
Layer (type)                 Output Shape              Param #   
=================================================================
conv2d_1 (Conv2D)            (None, 32, 32, 32)        896       
_________________________________________________________________
conv2d_2 (Conv2D)            (None, 32, 32, 32)        9248      
_________________________________________________________________
conv2d_3 (Conv2D)            (None, 32, 32, 64)        18496     
_________________________________________________________________
flatten_1 (Flatten)          (None, 65536)             0         
_________________________________________________________________
dense_1 (Dense)              (None, 128)               8388736   
_________________________________________________________________
activation_1 (Activation)    (None, 128)               0         
_________________________________________________________________
dense_2 (Dense)              (None, 128)               16512     
_________________________________________________________________
activation_2 (Activation)    (None, 128)               0         
_________________________________________________________________
dense_3 (Dense)              (None, 10)                1290      
=================================================================
Total params: 8,435,178
Trainable params: 8,435,178
Non-trainable params: 0
_________________________________________________________________

2018-04-24 05:47:35.432128AM --- Model took seconds to train 414.4902639389038
2018-04-24 05:47:35.927149AM --- Accuracy on test data is: 63.5
2018-04-24 05:47:35.968466AM --- starting process for: (((conv*1)vazio)*1)fc*0
2018-04-24 05:47:36.685282AM
_________________________________________________________________
Layer (type)                 Output Shape              Param #   
=================================================================
conv2d_1 (Conv2D)            (None, 32, 32, 32)        896       
_________________________________________________________________
flatten_1 (Flatten)          (None, 32768)             0         
_________________________________________________________________
dense_1 (Dense)              (None, 10)                327690    
=================================================================
Total params: 328,586
Trainable params: 328,586
Non-trainable params: 0
_________________________________________________________________

2018-04-24 05:52:14.635312AM --- Model took seconds to train 277.93456530570984
2018-04-24 05:52:14.919811AM --- Accuracy on test data is: 57.85
2018-04-24 05:52:14.973955AM --- starting process for: (((conv*2)pool)*1)fc*2
2018-04-24 05:52:15.700391AM
_________________________________________________________________
Layer (type)                 Output Shape              Param #   
=================================================================
conv2d_1 (Conv2D)            (None, 32, 32, 32)        896       
_________________________________________________________________
conv2d_2 (Conv2D)            (None, 32, 32, 32)        9248      
_________________________________________________________________
max_pooling2d_1 (MaxPooling2 (None, 16, 16, 32)        0         
_________________________________________________________________
flatten_1 (Flatten)          (None, 8192)              0         
_________________________________________________________________
dense_1 (Dense)              (None, 128)               1048704   
_________________________________________________________________
activation_1 (Activation)    (None, 128)               0         
_________________________________________________________________
dense_2 (Dense)              (None, 128)               16512     
_________________________________________________________________
activation_2 (Activation)    (None, 128)               0         
_________________________________________________________________
dense_3 (Dense)              (None, 10)                1290      
=================================================================
Total params: 1,076,650
Trainable params: 1,076,650
Non-trainable params: 0
_________________________________________________________________

2018-04-24 05:56:07.485148AM --- Model took seconds to train 231.7693328857422
2018-04-24 05:56:07.634656AM --- Accuracy on test data is: 65.55
2018-04-24 05:56:07.680913AM --- starting process for: (((conv*2)pool)*2)fc*1
2018-04-24 05:56:08.417505AM
_________________________________________________________________
Layer (type)                 Output Shape              Param #   
=================================================================
conv2d_1 (Conv2D)            (None, 32, 32, 32)        896       
_________________________________________________________________
conv2d_2 (Conv2D)            (None, 32, 32, 32)        9248      
_________________________________________________________________
max_pooling2d_1 (MaxPooling2 (None, 16, 16, 32)        0         
_________________________________________________________________
conv2d_3 (Conv2D)            (None, 16, 16, 64)        18496     
_________________________________________________________________
conv2d_4 (Conv2D)            (None, 16, 16, 128)       73856     
_________________________________________________________________
max_pooling2d_2 (MaxPooling2 (None, 8, 8, 128)         0         
_________________________________________________________________
flatten_1 (Flatten)          (None, 8192)              0         
_________________________________________________________________
dense_1 (Dense)              (None, 128)               1048704   
_________________________________________________________________
activation_1 (Activation)    (None, 128)               0         
_________________________________________________________________
dense_2 (Dense)              (None, 10)                1290      
=================================================================
Total params: 1,152,490
Trainable params: 1,152,490
Non-trainable params: 0
_________________________________________________________________

2018-04-24 06:01:42.782407AM --- Model took seconds to train 334.3491036891937
2018-04-24 06:01:42.963686AM --- Accuracy on test data is: 73.8
2018-04-24 06:01:43.010471AM --- starting process for: (((conv*2)vazio)*1)fc*1
2018-04-24 06:01:43.735395AM
_________________________________________________________________
Layer (type)                 Output Shape              Param #   
=================================================================
conv2d_1 (Conv2D)            (None, 32, 32, 32)        896       
_________________________________________________________________
conv2d_2 (Conv2D)            (None, 32, 32, 32)        9248      
_________________________________________________________________
flatten_1 (Flatten)          (None, 32768)             0         
_________________________________________________________________
dense_1 (Dense)              (None, 128)               4194432   
_________________________________________________________________
activation_1 (Activation)    (None, 128)               0         
_________________________________________________________________
dense_2 (Dense)              (None, 10)                1290      
=================================================================
Total params: 4,205,866
Trainable params: 4,205,866
Non-trainable params: 0
_________________________________________________________________

2018-04-24 06:05:56.279989AM --- Model took seconds to train 252.52936911582947
2018-04-24 06:05:56.574042AM --- Accuracy on test data is: 61.85000000000001
2018-04-24 06:05:56.623288AM --- starting process for: (((conv*2)vazio)*2)fc*0
2018-04-24 06:05:57.348257AM
_________________________________________________________________
Layer (type)                 Output Shape              Param #   
=================================================================
conv2d_1 (Conv2D)            (None, 32, 32, 32)        896       
_________________________________________________________________
conv2d_2 (Conv2D)            (None, 32, 32, 32)        9248      
_________________________________________________________________
conv2d_3 (Conv2D)            (None, 32, 32, 64)        18496     
_________________________________________________________________
conv2d_4 (Conv2D)            (None, 32, 32, 128)       73856     
_________________________________________________________________
flatten_1 (Flatten)          (None, 131072)            0         
_________________________________________________________________
dense_1 (Dense)              (None, 10)                1310730   
=================================================================
Total params: 1,413,226
Trainable params: 1,413,226
Non-trainable params: 0
_________________________________________________________________

2018-04-24 06:23:00.893403AM --- Model took seconds to train 1023.5297667980194
2018-04-24 06:23:01.737386AM --- Accuracy on test data is: 64.5
2018-04-24 06:23:01.779124AM --- starting process for: (((conv*2)vazio)*1)fc*2
2018-04-24 06:23:02.504819AM
_________________________________________________________________
Layer (type)                 Output Shape              Param #   
=================================================================
conv2d_1 (Conv2D)            (None, 32, 32, 32)        896       
_________________________________________________________________
conv2d_2 (Conv2D)            (None, 32, 32, 32)        9248      
_________________________________________________________________
flatten_1 (Flatten)          (None, 32768)             0         
_________________________________________________________________
dense_1 (Dense)              (None, 128)               4194432   
_________________________________________________________________
activation_1 (Activation)    (None, 128)               0         
_________________________________________________________________
dense_2 (Dense)              (None, 128)               16512     
_________________________________________________________________
activation_2 (Activation)    (None, 128)               0         
_________________________________________________________________
dense_3 (Dense)              (None, 10)                1290      
=================================================================
Total params: 4,222,378
Trainable params: 4,222,378
Non-trainable params: 0
_________________________________________________________________

2018-04-24 06:27:24.560021AM --- Model took seconds to train 262.03983187675476
2018-04-24 06:27:24.859230AM --- Accuracy on test data is: 61.7
2018-04-24 06:27:24.913305AM --- starting process for: (((conv*1)pool)*2)fc*1
2018-04-24 06:27:25.642596AM
_________________________________________________________________
Layer (type)                 Output Shape              Param #   
=================================================================
conv2d_1 (Conv2D)            (None, 32, 32, 32)        896       
_________________________________________________________________
max_pooling2d_1 (MaxPooling2 (None, 16, 16, 32)        0         
_________________________________________________________________
conv2d_2 (Conv2D)            (None, 16, 16, 32)        9248      
_________________________________________________________________
max_pooling2d_2 (MaxPooling2 (None, 8, 8, 32)          0         
_________________________________________________________________
flatten_1 (Flatten)          (None, 2048)              0         
_________________________________________________________________
dense_1 (Dense)              (None, 128)               262272    
_________________________________________________________________
activation_1 (Activation)    (None, 128)               0         
_________________________________________________________________
dense_2 (Dense)              (None, 10)                1290      
=================================================================
Total params: 273,706
Trainable params: 273,706
Non-trainable params: 0
_________________________________________________________________

2018-04-24 06:30:11.161812AM --- Model took seconds to train 165.42654943466187
2018-04-24 06:30:11.267403AM --- Accuracy on test data is: 67.2
2018-04-24 06:30:11.313111AM --- starting process for: (((conv*1)vazio)*3)fc*1
2018-04-24 06:30:12.036482AM
_________________________________________________________________
Layer (type)                 Output Shape              Param #   
=================================================================
conv2d_1 (Conv2D)            (None, 32, 32, 32)        896       
_________________________________________________________________
conv2d_2 (Conv2D)            (None, 32, 32, 32)        9248      
_________________________________________________________________
conv2d_3 (Conv2D)            (None, 32, 32, 64)        18496     
_________________________________________________________________
flatten_1 (Flatten)          (None, 65536)             0         
_________________________________________________________________
dense_1 (Dense)              (None, 128)               8388736   
_________________________________________________________________
activation_1 (Activation)    (None, 128)               0         
_________________________________________________________________
dense_2 (Dense)              (None, 10)                1290      
=================================================================
Total params: 8,418,666
Trainable params: 8,418,666
Non-trainable params: 0
_________________________________________________________________

2018-04-24 06:36:55.329534AM --- Model took seconds to train 403.2780478000641
2018-04-24 06:36:55.801025AM --- Accuracy on test data is: 62.5
2018-04-24 06:36:55.843209AM --- starting process for: (((conv*1)pool)*2)fc*2
2018-04-24 06:36:56.602521AM
_________________________________________________________________
Layer (type)                 Output Shape              Param #   
=================================================================
conv2d_1 (Conv2D)            (None, 32, 32, 32)        896       
_________________________________________________________________
max_pooling2d_1 (MaxPooling2 (None, 16, 16, 32)        0         
_________________________________________________________________
conv2d_2 (Conv2D)            (None, 16, 16, 32)        9248      
_________________________________________________________________
max_pooling2d_2 (MaxPooling2 (None, 8, 8, 32)          0         
_________________________________________________________________
flatten_1 (Flatten)          (None, 2048)              0         
_________________________________________________________________
dense_1 (Dense)              (None, 128)               262272    
_________________________________________________________________
activation_1 (Activation)    (None, 128)               0         
_________________________________________________________________
dense_2 (Dense)              (None, 128)               16512     
_________________________________________________________________
activation_2 (Activation)    (None, 128)               0         
_________________________________________________________________
dense_3 (Dense)              (None, 10)                1290      
=================================================================
Total params: 290,218
Trainable params: 290,218
Non-trainable params: 0
_________________________________________________________________

2018-04-24 06:39:44.466911AM --- Model took seconds to train 167.84789395332336
2018-04-24 06:39:44.569753AM --- Accuracy on test data is: 68.5
2018-04-24 06:39:44.617221AM --- starting process for: (((conv*2)vazio)*2)fc*2
2018-04-24 06:39:45.357766AM
_________________________________________________________________
Layer (type)                 Output Shape              Param #   
=================================================================
conv2d_1 (Conv2D)            (None, 32, 32, 32)        896       
_________________________________________________________________
conv2d_2 (Conv2D)            (None, 32, 32, 32)        9248      
_________________________________________________________________
conv2d_3 (Conv2D)            (None, 32, 32, 64)        18496     
_________________________________________________________________
conv2d_4 (Conv2D)            (None, 32, 32, 128)       73856     
_________________________________________________________________
flatten_1 (Flatten)          (None, 131072)            0         
_________________________________________________________________
dense_1 (Dense)              (None, 128)               16777344  
_________________________________________________________________
activation_1 (Activation)    (None, 128)               0         
_________________________________________________________________
dense_2 (Dense)              (None, 128)               16512     
_________________________________________________________________
activation_2 (Activation)    (None, 128)               0         
_________________________________________________________________
dense_3 (Dense)              (None, 10)                1290      
=================================================================
Total params: 16,897,642
Trainable params: 16,897,642
Non-trainable params: 0
_________________________________________________________________

2018-04-24 06:51:28.337623AM --- Model took seconds to train 702.9644267559052
2018-04-24 06:51:29.234493AM --- Accuracy on test data is: 63.3
2018-04-24 06:51:29.274398AM --- starting process for: (((conv*1)vazio)*1)fc*1
2018-04-24 06:51:29.995437AM
_________________________________________________________________
Layer (type)                 Output Shape              Param #   
=================================================================
conv2d_1 (Conv2D)            (None, 32, 32, 32)        896       
_________________________________________________________________
flatten_1 (Flatten)          (None, 32768)             0         
_________________________________________________________________
dense_1 (Dense)              (None, 128)               4194432   
_________________________________________________________________
activation_1 (Activation)    (None, 128)               0         
_________________________________________________________________
dense_2 (Dense)              (None, 10)                1290      
=================================================================
Total params: 4,196,618
Trainable params: 4,196,618
Non-trainable params: 0
_________________________________________________________________

2018-04-24 06:54:27.279308AM --- Model took seconds to train 177.2685284614563
2018-04-24 06:54:27.535127AM --- Accuracy on test data is: 58.650000000000006
2018-04-24 06:54:27.578587AM --- starting process for: (((conv*2)vazio)*1)fc*1
2018-04-24 06:54:28.301899AM
_________________________________________________________________
Layer (type)                 Output Shape              Param #   
=================================================================
conv2d_1 (Conv2D)            (None, 32, 32, 32)        896       
_________________________________________________________________
conv2d_2 (Conv2D)            (None, 32, 32, 32)        9248      
_________________________________________________________________
flatten_1 (Flatten)          (None, 32768)             0         
_________________________________________________________________
dense_1 (Dense)              (None, 128)               4194432   
_________________________________________________________________
activation_1 (Activation)    (None, 128)               0         
_________________________________________________________________
dense_2 (Dense)              (None, 10)                1290      
=================================================================
Total params: 4,205,866
Trainable params: 4,205,866
Non-trainable params: 0
_________________________________________________________________

2018-04-24 06:58:43.216884AM --- Model took seconds to train 254.8987319469452
2018-04-24 06:58:43.536084AM --- Accuracy on test data is: 59.9
2018-04-24 06:58:43.593579AM --- starting process for: (((conv*1)vazio)*2)fc*1
2018-04-24 06:58:44.310699AM
_________________________________________________________________
Layer (type)                 Output Shape              Param #   
=================================================================
conv2d_1 (Conv2D)            (None, 32, 32, 32)        896       
_________________________________________________________________
conv2d_2 (Conv2D)            (None, 32, 32, 32)        9248      
_________________________________________________________________
flatten_1 (Flatten)          (None, 32768)             0         
_________________________________________________________________
dense_1 (Dense)              (None, 128)               4194432   
_________________________________________________________________
activation_1 (Activation)    (None, 128)               0         
_________________________________________________________________
dense_2 (Dense)              (None, 10)                1290      
=================================================================
Total params: 4,205,866
Trainable params: 4,205,866
Non-trainable params: 0
_________________________________________________________________

2018-04-24 07:02:54.353573AM --- Model took seconds to train 250.02725553512573
2018-04-24 07:02:54.633143AM --- Accuracy on test data is: 63.24999999999999
2018-04-24 07:02:54.673898AM --- starting process for: (((conv*2)vazio)*3)fc*0
2018-04-24 07:02:55.410961AM
_________________________________________________________________
Layer (type)                 Output Shape              Param #   
=================================================================
conv2d_1 (Conv2D)            (None, 32, 32, 32)        896       
_________________________________________________________________
conv2d_2 (Conv2D)            (None, 32, 32, 32)        9248      
_________________________________________________________________
conv2d_3 (Conv2D)            (None, 32, 32, 64)        18496     
_________________________________________________________________
conv2d_4 (Conv2D)            (None, 32, 32, 128)       73856     
_________________________________________________________________
conv2d_5 (Conv2D)            (None, 32, 32, 128)       147584    
_________________________________________________________________
conv2d_6 (Conv2D)            (None, 32, 32, 128)       147584    
_________________________________________________________________
flatten_1 (Flatten)          (None, 131072)            0         
_________________________________________________________________
dense_1 (Dense)              (None, 10)                1310730   
=================================================================
Total params: 1,708,394
Trainable params: 1,708,394
Non-trainable params: 0
_________________________________________________________________

2018-04-24 07:27:47.111080AM --- Model took seconds to train 1491.6842329502106
2018-04-24 07:27:48.100233AM --- Accuracy on test data is: 64.25
2018-04-24 07:27:48.141343AM --- starting process for: (((conv*2)pool)*2)fc*0
2018-04-24 07:27:48.873410AM
_________________________________________________________________
Layer (type)                 Output Shape              Param #   
=================================================================
conv2d_1 (Conv2D)            (None, 32, 32, 32)        896       
_________________________________________________________________
conv2d_2 (Conv2D)            (None, 32, 32, 32)        9248      
_________________________________________________________________
max_pooling2d_1 (MaxPooling2 (None, 16, 16, 32)        0         
_________________________________________________________________
conv2d_3 (Conv2D)            (None, 16, 16, 64)        18496     
_________________________________________________________________
conv2d_4 (Conv2D)            (None, 16, 16, 128)       73856     
_________________________________________________________________
max_pooling2d_2 (MaxPooling2 (None, 8, 8, 128)         0         
_________________________________________________________________
flatten_1 (Flatten)          (None, 8192)              0         
_________________________________________________________________
dense_1 (Dense)              (None, 10)                81930     
=================================================================
Total params: 184,426
Trainable params: 184,426
Non-trainable params: 0
_________________________________________________________________

2018-04-24 07:33:34.514209AM --- Model took seconds to train 345.62458753585815
2018-04-24 07:33:34.680536AM --- Accuracy on test data is: 73.35000000000001
2018-04-24 07:33:34.725109AM --- starting process for: (((conv*2)pool)*1)fc*2
2018-04-24 07:33:35.449868AM
_________________________________________________________________
Layer (type)                 Output Shape              Param #   
=================================================================
conv2d_1 (Conv2D)            (None, 32, 32, 32)        896       
_________________________________________________________________
conv2d_2 (Conv2D)            (None, 32, 32, 32)        9248      
_________________________________________________________________
max_pooling2d_1 (MaxPooling2 (None, 16, 16, 32)        0         
_________________________________________________________________
flatten_1 (Flatten)          (None, 8192)              0         
_________________________________________________________________
dense_1 (Dense)              (None, 128)               1048704   
_________________________________________________________________
activation_1 (Activation)    (None, 128)               0         
_________________________________________________________________
dense_2 (Dense)              (None, 128)               16512     
_________________________________________________________________
activation_2 (Activation)    (None, 128)               0         
_________________________________________________________________
dense_3 (Dense)              (None, 10)                1290      
=================================================================
Total params: 1,076,650
Trainable params: 1,076,650
Non-trainable params: 0
_________________________________________________________________

2018-04-24 07:37:21.234370AM --- Model took seconds to train 225.7684943675995
2018-04-24 07:37:21.387324AM --- Accuracy on test data is: 64.9
2018-04-24 07:37:21.433896AM --- starting process for: (((conv*2)pool)*3)fc*0
2018-04-24 07:37:22.177902AM
_________________________________________________________________
Layer (type)                 Output Shape              Param #   
=================================================================
conv2d_1 (Conv2D)            (None, 32, 32, 32)        896       
_________________________________________________________________
conv2d_2 (Conv2D)            (None, 32, 32, 32)        9248      
_________________________________________________________________
max_pooling2d_1 (MaxPooling2 (None, 16, 16, 32)        0         
_________________________________________________________________
conv2d_3 (Conv2D)            (None, 16, 16, 64)        18496     
_________________________________________________________________
conv2d_4 (Conv2D)            (None, 16, 16, 128)       73856     
_________________________________________________________________
max_pooling2d_2 (MaxPooling2 (None, 8, 8, 128)         0         
_________________________________________________________________
conv2d_5 (Conv2D)            (None, 8, 8, 128)         147584    
_________________________________________________________________
conv2d_6 (Conv2D)            (None, 8, 8, 128)         147584    
_________________________________________________________________
max_pooling2d_3 (MaxPooling2 (None, 4, 4, 128)         0         
_________________________________________________________________
flatten_1 (Flatten)          (None, 2048)              0         
_________________________________________________________________
dense_1 (Dense)              (None, 10)                20490     
=================================================================
Total params: 418,154
Trainable params: 418,154
Non-trainable params: 0
_________________________________________________________________

2018-04-24 07:43:36.321277AM --- Model took seconds to train 374.12704515457153
2018-04-24 07:43:36.458705AM --- Accuracy on test data is: 77.60000000000001
2018-04-24 07:43:36.499813AM --- starting process for: (((conv*1)vazio)*1)fc*2
2018-04-24 07:43:37.221559AM
_________________________________________________________________
Layer (type)                 Output Shape              Param #   
=================================================================
conv2d_1 (Conv2D)            (None, 32, 32, 32)        896       
_________________________________________________________________
flatten_1 (Flatten)          (None, 32768)             0         
_________________________________________________________________
dense_1 (Dense)              (None, 128)               4194432   
_________________________________________________________________
activation_1 (Activation)    (None, 128)               0         
_________________________________________________________________
dense_2 (Dense)              (None, 128)               16512     
_________________________________________________________________
activation_2 (Activation)    (None, 128)               0         
_________________________________________________________________
dense_3 (Dense)              (None, 10)                1290      
=================================================================
Total params: 4,213,130
Trainable params: 4,213,130
Non-trainable params: 0
_________________________________________________________________

2018-04-24 07:46:39.641811AM --- Model took seconds to train 182.3421070575714
2018-04-24 07:46:39.909069AM --- Accuracy on test data is: 56.99999999999999
2018-04-24 07:46:39.955573AM --- starting process for: (((conv*1)vazio)*2)fc*2
2018-04-24 07:46:40.685990AM
_________________________________________________________________
Layer (type)                 Output Shape              Param #   
=================================================================
conv2d_1 (Conv2D)            (None, 32, 32, 32)        896       
_________________________________________________________________
conv2d_2 (Conv2D)            (None, 32, 32, 32)        9248      
_________________________________________________________________
flatten_1 (Flatten)          (None, 32768)             0         
_________________________________________________________________
dense_1 (Dense)              (None, 128)               4194432   
_________________________________________________________________
activation_1 (Activation)    (None, 128)               0         
_________________________________________________________________
dense_2 (Dense)              (None, 128)               16512     
_________________________________________________________________
activation_2 (Activation)    (None, 128)               0         
_________________________________________________________________
dense_3 (Dense)              (None, 10)                1290      
=================================================================
Total params: 4,222,378
Trainable params: 4,222,378
Non-trainable params: 0
_________________________________________________________________

2018-04-24 07:51:01.301471AM --- Model took seconds to train 260.59982657432556
2018-04-24 07:51:01.601378AM --- Accuracy on test data is: 60.9
2018-04-24 07:51:01.643275AM --- starting process for: (((conv*2)pool)*1)fc*2
2018-04-24 07:51:02.368641AM
_________________________________________________________________
Layer (type)                 Output Shape              Param #   
=================================================================
conv2d_1 (Conv2D)            (None, 32, 32, 32)        896       
_________________________________________________________________
conv2d_2 (Conv2D)            (None, 32, 32, 32)        9248      
_________________________________________________________________
max_pooling2d_1 (MaxPooling2 (None, 16, 16, 32)        0         
_________________________________________________________________
flatten_1 (Flatten)          (None, 8192)              0         
_________________________________________________________________
dense_1 (Dense)              (None, 128)               1048704   
_________________________________________________________________
activation_1 (Activation)    (None, 128)               0         
_________________________________________________________________
dense_2 (Dense)              (None, 128)               16512     
_________________________________________________________________
activation_2 (Activation)    (None, 128)               0         
_________________________________________________________________
dense_3 (Dense)              (None, 10)                1290      
=================================================================
Total params: 1,076,650
Trainable params: 1,076,650
Non-trainable params: 0
_________________________________________________________________

2018-04-24 07:55:02.359694AM --- Model took seconds to train 239.97586750984192
2018-04-24 07:55:02.520074AM --- Accuracy on test data is: 66.4
2018-04-24 07:55:02.571258AM --- starting process for: (((conv*1)vazio)*2)fc*1
2018-04-24 07:55:03.290774AM
_________________________________________________________________
Layer (type)                 Output Shape              Param #   
=================================================================
conv2d_1 (Conv2D)            (None, 32, 32, 32)        896       
_________________________________________________________________
conv2d_2 (Conv2D)            (None, 32, 32, 32)        9248      
_________________________________________________________________
flatten_1 (Flatten)          (None, 32768)             0         
_________________________________________________________________
dense_1 (Dense)              (None, 128)               4194432   
_________________________________________________________________
activation_1 (Activation)    (None, 128)               0         
_________________________________________________________________
dense_2 (Dense)              (None, 10)                1290      
=================================================================
Total params: 4,205,866
Trainable params: 4,205,866
Non-trainable params: 0
_________________________________________________________________

2018-04-24 07:59:25.830420AM --- Model took seconds to train 262.5240762233734
2018-04-24 07:59:26.134144AM --- Accuracy on test data is: 62.050000000000004
2018-04-24 07:59:26.187366AM --- starting process for: (((conv*2)pool)*1)fc*1
2018-04-24 07:59:26.910326AM
_________________________________________________________________
Layer (type)                 Output Shape              Param #   
=================================================================
conv2d_1 (Conv2D)            (None, 32, 32, 32)        896       
_________________________________________________________________
conv2d_2 (Conv2D)            (None, 32, 32, 32)        9248      
_________________________________________________________________
max_pooling2d_1 (MaxPooling2 (None, 16, 16, 32)        0         
_________________________________________________________________
flatten_1 (Flatten)          (None, 8192)              0         
_________________________________________________________________
dense_1 (Dense)              (None, 128)               1048704   
_________________________________________________________________
activation_1 (Activation)    (None, 128)               0         
_________________________________________________________________
dense_2 (Dense)              (None, 10)                1290      
=================================================================
Total params: 1,060,138
Trainable params: 1,060,138
Non-trainable params: 0
_________________________________________________________________

2018-04-24 08:03:14.820602AM --- Model took seconds to train 227.8952248096466
2018-04-24 08:03:14.942555AM --- Accuracy on test data is: 62.6
2018-04-24 08:03:14.988659AM --- starting process for: (((conv*1)pool)*2)fc*0
2018-04-24 08:03:15.783440AM
_________________________________________________________________
Layer (type)                 Output Shape              Param #   
=================================================================
conv2d_1 (Conv2D)            (None, 32, 32, 32)        896       
_________________________________________________________________
max_pooling2d_1 (MaxPooling2 (None, 16, 16, 32)        0         
_________________________________________________________________
conv2d_2 (Conv2D)            (None, 16, 16, 32)        9248      
_________________________________________________________________
max_pooling2d_2 (MaxPooling2 (None, 8, 8, 32)          0         
_________________________________________________________________
flatten_1 (Flatten)          (None, 2048)              0         
_________________________________________________________________
dense_1 (Dense)              (None, 10)                20490     
=================================================================
Total params: 30,634
Trainable params: 30,634
Non-trainable params: 0
_________________________________________________________________

2018-04-24 08:05:59.309805AM --- Model took seconds to train 163.51075315475464
2018-04-24 08:05:59.407186AM --- Accuracy on test data is: 68.45
2018-04-24 08:05:59.461869AM --- 0 - Individual: (((conv*2)pool)*3)fc*0; 78.5
…
2018-04-24 08:05:59.465734AM --- 47 - Individual: (((conv*1)vazio)*1)fc*1; 57.95
2018-04-24 08:05:59.465794AM --- 48 - Individual: (((conv*1)vazio)*1)fc*0; 57.85
2018-04-24 08:05:59.465856AM --- 49 - Individual: (((conv*1)vazio)*1)fc*2; 56.99999999999999
2018-04-24 08:05:59.465912AM --- Generation: 2
2018-04-24 08:05:59.468469AM --- starting process for: (((conv*2)pool)*2)fc*0
2018-04-24 08:06:00.197752AM
_________________________________________________________________
Layer (type)                 Output Shape              Param #   
=================================================================
conv2d_1 (Conv2D)            (None, 32, 32, 32)        896       
_________________________________________________________________
conv2d_2 (Conv2D)            (None, 32, 32, 32)        9248      
_________________________________________________________________
max_pooling2d_1 (MaxPooling2 (None, 16, 16, 32)        0         
_________________________________________________________________
conv2d_3 (Conv2D)            (None, 16, 16, 64)        18496     
_________________________________________________________________
conv2d_4 (Conv2D)            (None, 16, 16, 128)       73856     
_________________________________________________________________
max_pooling2d_2 (MaxPooling2 (None, 8, 8, 128)         0         
_________________________________________________________________
flatten_1 (Flatten)          (None, 8192)              0         
_________________________________________________________________
dense_1 (Dense)              (None, 10)                81930     
=================================================================
Total params: 184,426
Trainable params: 184,426
Non-trainable params: 0
_________________________________________________________________

2018-04-24 08:11:44.118213AM --- Model took seconds to train 343.9054355621338
2018-04-24 08:11:44.284298AM --- Accuracy on test data is: 73.4
2018-04-24 08:11:44.331930AM --- starting process for: (((conv*2)pool)*2)fc*1
2018-04-24 08:11:45.064940AM
_________________________________________________________________
Layer (type)                 Output Shape              Param #   
=================================================================
conv2d_1 (Conv2D)            (None, 32, 32, 32)        896       
_________________________________________________________________
conv2d_2 (Conv2D)            (None, 32, 32, 32)        9248      
_________________________________________________________________
max_pooling2d_1 (MaxPooling2 (None, 16, 16, 32)        0         
_________________________________________________________________
conv2d_3 (Conv2D)            (None, 16, 16, 64)        18496     
_________________________________________________________________
conv2d_4 (Conv2D)            (None, 16, 16, 128)       73856     
_________________________________________________________________
max_pooling2d_2 (MaxPooling2 (None, 8, 8, 128)         0         
_________________________________________________________________
flatten_1 (Flatten)          (None, 8192)              0         
_________________________________________________________________
dense_1 (Dense)              (None, 128)               1048704   
_________________________________________________________________
activation_1 (Activation)    (None, 128)               0         
_________________________________________________________________
dense_2 (Dense)              (None, 10)                1290      
=================================================================
Total params: 1,152,490
Trainable params: 1,152,490
Non-trainable params: 0
_________________________________________________________________

2018-04-24 08:17:12.875848AM --- Model took seconds to train 327.7955183982849
2018-04-24 08:17:13.035786AM --- Accuracy on test data is: 73.45
2018-04-24 08:17:13.078694AM --- starting process for: (((conv*1)pool)*2)fc*2
2018-04-24 08:17:13.809943AM
_________________________________________________________________
Layer (type)                 Output Shape              Param #   
=================================================================
conv2d_1 (Conv2D)            (None, 32, 32, 32)        896       
_________________________________________________________________
max_pooling2d_1 (MaxPooling2 (None, 16, 16, 32)        0         
_________________________________________________________________
conv2d_2 (Conv2D)            (None, 16, 16, 32)        9248      
_________________________________________________________________
max_pooling2d_2 (MaxPooling2 (None, 8, 8, 32)          0         
_________________________________________________________________
flatten_1 (Flatten)          (None, 2048)              0         
_________________________________________________________________
dense_1 (Dense)              (None, 128)               262272    
_________________________________________________________________
activation_1 (Activation)    (None, 128)               0         
_________________________________________________________________
dense_2 (Dense)              (None, 128)               16512     
_________________________________________________________________
activation_2 (Activation)    (None, 128)               0         
_________________________________________________________________
dense_3 (Dense)              (None, 10)                1290      
=================================================================
Total params: 290,218
Trainable params: 290,218
Non-trainable params: 0
_________________________________________________________________

2018-04-24 08:20:01.809973AM --- Model took seconds to train 167.98480033874512
2018-04-24 08:20:01.928514AM --- Accuracy on test data is: 66.8
2018-04-24 08:20:01.977178AM --- starting process for: (((conv*2)pool)*1)fc*2
2018-04-24 08:20:02.704136AM
_________________________________________________________________
Layer (type)                 Output Shape              Param #   
=================================================================
conv2d_1 (Conv2D)            (None, 32, 32, 32)        896       
_________________________________________________________________
conv2d_2 (Conv2D)            (None, 32, 32, 32)        9248      
_________________________________________________________________
max_pooling2d_1 (MaxPooling2 (None, 16, 16, 32)        0         
_________________________________________________________________
flatten_1 (Flatten)          (None, 8192)              0         
_________________________________________________________________
dense_1 (Dense)              (None, 128)               1048704   
_________________________________________________________________
activation_1 (Activation)    (None, 128)               0         
_________________________________________________________________
dense_2 (Dense)              (None, 128)               16512     
_________________________________________________________________
activation_2 (Activation)    (None, 128)               0         
_________________________________________________________________
dense_3 (Dense)              (None, 10)                1290      
=================================================================
Total params: 1,076,650
Trainable params: 1,076,650
Non-trainable params: 0
_________________________________________________________________

2018-04-24 08:23:55.339329AM --- Model took seconds to train 232.6199550628662
2018-04-24 08:23:55.491479AM --- Accuracy on test data is: 64.5
2018-04-24 08:23:55.539319AM --- starting process for: (((conv*1)vazio)*2)fc*2
2018-04-24 08:23:56.273018AM
_________________________________________________________________
Layer (type)                 Output Shape              Param #   
=================================================================
conv2d_1 (Conv2D)            (None, 32, 32, 32)        896       
_________________________________________________________________
conv2d_2 (Conv2D)            (None, 32, 32, 32)        9248      
_________________________________________________________________
flatten_1 (Flatten)          (None, 32768)             0         
_________________________________________________________________
dense_1 (Dense)              (None, 128)               4194432   
_________________________________________________________________
activation_1 (Activation)    (None, 128)               0         
_________________________________________________________________
dense_2 (Dense)              (None, 128)               16512     
_________________________________________________________________
activation_2 (Activation)    (None, 128)               0         
_________________________________________________________________
dense_3 (Dense)              (None, 10)                1290      
=================================================================
Total params: 4,222,378
Trainable params: 4,222,378
Non-trainable params: 0
_________________________________________________________________

2018-04-24 08:28:18.204590AM --- Model took seconds to train 261.91628408432007
2018-04-24 08:28:18.482107AM --- Accuracy on test data is: 61.5
2018-04-24 08:28:18.522765AM --- starting process for: (((conv*2)pool)*3)fc*2
2018-04-24 08:28:19.265085AM
_________________________________________________________________
Layer (type)                 Output Shape              Param #   
=================================================================
conv2d_1 (Conv2D)            (None, 32, 32, 32)        896       
_________________________________________________________________
conv2d_2 (Conv2D)            (None, 32, 32, 32)        9248      
_________________________________________________________________
max_pooling2d_1 (MaxPooling2 (None, 16, 16, 32)        0         
_________________________________________________________________
conv2d_3 (Conv2D)            (None, 16, 16, 64)        18496     
_________________________________________________________________
conv2d_4 (Conv2D)            (None, 16, 16, 128)       73856     
_________________________________________________________________
max_pooling2d_2 (MaxPooling2 (None, 8, 8, 128)         0         
_________________________________________________________________
conv2d_5 (Conv2D)            (None, 8, 8, 128)         147584    
_________________________________________________________________
conv2d_6 (Conv2D)            (None, 8, 8, 128)         147584    
_________________________________________________________________
max_pooling2d_3 (MaxPooling2 (None, 4, 4, 128)         0         
_________________________________________________________________
flatten_1 (Flatten)          (None, 2048)              0         
_________________________________________________________________
dense_1 (Dense)              (None, 128)               262272    
_________________________________________________________________
activation_1 (Activation)    (None, 128)               0         
_________________________________________________________________
dense_2 (Dense)              (None, 128)               16512     
_________________________________________________________________
activation_2 (Activation)    (None, 128)               0         
_________________________________________________________________
dense_3 (Dense)              (None, 10)                1290      
=================================================================
Total params: 677,738
Trainable params: 677,738
Non-trainable params: 0
_________________________________________________________________

2018-04-24 08:34:43.448884AM --- Model took seconds to train 384.1673324108124
2018-04-24 08:34:43.596642AM --- Accuracy on test data is: 78.05
2018-04-24 08:34:43.637622AM --- starting process for: (((conv*1)pool)*2)fc*2
2018-04-24 08:34:44.362946AM
_________________________________________________________________
Layer (type)                 Output Shape              Param #   
=================================================================
conv2d_1 (Conv2D)            (None, 32, 32, 32)        896       
_________________________________________________________________
max_pooling2d_1 (MaxPooling2 (None, 16, 16, 32)        0         
_________________________________________________________________
conv2d_2 (Conv2D)            (None, 16, 16, 32)        9248      
_________________________________________________________________
max_pooling2d_2 (MaxPooling2 (None, 8, 8, 32)          0         
_________________________________________________________________
flatten_1 (Flatten)          (None, 2048)              0         
_________________________________________________________________
dense_1 (Dense)              (None, 128)               262272    
_________________________________________________________________
activation_1 (Activation)    (None, 128)               0         
_________________________________________________________________
dense_2 (Dense)              (None, 128)               16512     
_________________________________________________________________
activation_2 (Activation)    (None, 128)               0         
_________________________________________________________________
dense_3 (Dense)              (None, 10)                1290      
=================================================================
Total params: 290,218
Trainable params: 290,218
Non-trainable params: 0
_________________________________________________________________

2018-04-24 08:37:36.639901AM --- Model took seconds to train 172.26171469688416
2018-04-24 08:37:36.730434AM --- Accuracy on test data is: 69.05
2018-04-24 08:37:36.772860AM --- starting process for: (((conv*1)vazio)*3)fc*2
2018-04-24 08:37:37.503142AM
_________________________________________________________________
Layer (type)                 Output Shape              Param #   
=================================================================
conv2d_1 (Conv2D)            (None, 32, 32, 32)        896       
_________________________________________________________________
conv2d_2 (Conv2D)            (None, 32, 32, 32)        9248      
_________________________________________________________________
conv2d_3 (Conv2D)            (None, 32, 32, 64)        18496     
_________________________________________________________________
flatten_1 (Flatten)          (None, 65536)             0         
_________________________________________________________________
dense_1 (Dense)              (None, 128)               8388736   
_________________________________________________________________
activation_1 (Activation)    (None, 128)               0         
_________________________________________________________________
dense_2 (Dense)              (None, 128)               16512     
_________________________________________________________________
activation_2 (Activation)    (None, 128)               0         
_________________________________________________________________
dense_3 (Dense)              (None, 10)                1290      
=================================================================
Total params: 8,435,178
Trainable params: 8,435,178
Non-trainable params: 0
_________________________________________________________________

2018-04-24 08:44:31.411361AM --- Model took seconds to train 413.89225244522095
2018-04-24 08:44:31.907570AM --- Accuracy on test data is: 62.949999999999996
2018-04-24 08:44:31.947703AM --- starting process for: (((conv*1)pool)*2)fc*0
2018-04-24 08:44:32.663563AM
_________________________________________________________________
Layer (type)                 Output Shape              Param #   
=================================================================
conv2d_1 (Conv2D)            (None, 32, 32, 32)        896       
_________________________________________________________________
max_pooling2d_1 (MaxPooling2 (None, 16, 16, 32)        0         
_________________________________________________________________
conv2d_2 (Conv2D)            (None, 16, 16, 32)        9248      
_________________________________________________________________
max_pooling2d_2 (MaxPooling2 (None, 8, 8, 32)          0         
_________________________________________________________________
flatten_1 (Flatten)          (None, 2048)              0         
_________________________________________________________________
dense_1 (Dense)              (None, 10)                20490     
=================================================================
Total params: 30,634
Trainable params: 30,634
Non-trainable params: 0
_________________________________________________________________

2018-04-24 08:47:17.025533AM --- Model took seconds to train 164.34628081321716
2018-04-24 08:47:17.118530AM --- Accuracy on test data is: 68.75
2018-04-24 08:47:17.169323AM --- starting process for: (((conv*2)vazio)*2)fc*1
2018-04-24 08:47:17.898373AM
_________________________________________________________________
Layer (type)                 Output Shape              Param #   
=================================================================
conv2d_1 (Conv2D)            (None, 32, 32, 32)        896       
_________________________________________________________________
conv2d_2 (Conv2D)            (None, 32, 32, 32)        9248      
_________________________________________________________________
conv2d_3 (Conv2D)            (None, 32, 32, 64)        18496     
_________________________________________________________________
conv2d_4 (Conv2D)            (None, 32, 32, 128)       73856     
_________________________________________________________________
flatten_1 (Flatten)          (None, 131072)            0         
_________________________________________________________________
dense_1 (Dense)              (None, 128)               16777344  
_________________________________________________________________
activation_1 (Activation)    (None, 128)               0         
_________________________________________________________________
dense_2 (Dense)              (None, 10)                1290      
=================================================================
Total params: 16,881,130
Trainable params: 16,881,130
Non-trainable params: 0
_________________________________________________________________

2018-04-24 08:58:55.200150AM --- Model took seconds to train 697.2864398956299
2018-04-24 08:58:56.100113AM --- Accuracy on test data is: 63.4
2018-04-24 08:58:56.139836AM --- starting process for: (((conv*2)vazio)*3)fc*1
2018-04-24 08:58:56.883683AM
_________________________________________________________________
Layer (type)                 Output Shape              Param #   
=================================================================
conv2d_1 (Conv2D)            (None, 32, 32, 32)        896       
_________________________________________________________________
conv2d_2 (Conv2D)            (None, 32, 32, 32)        9248      
_________________________________________________________________
conv2d_3 (Conv2D)            (None, 32, 32, 64)        18496     
_________________________________________________________________
conv2d_4 (Conv2D)            (None, 32, 32, 128)       73856     
_________________________________________________________________
conv2d_5 (Conv2D)            (None, 32, 32, 128)       147584    
_________________________________________________________________
conv2d_6 (Conv2D)            (None, 32, 32, 128)       147584    
_________________________________________________________________
flatten_1 (Flatten)          (None, 131072)            0         
_________________________________________________________________
dense_1 (Dense)              (None, 128)               16777344  
_________________________________________________________________
activation_1 (Activation)    (None, 128)               0         
_________________________________________________________________
dense_2 (Dense)              (None, 10)                1290      
=================================================================
Total params: 17,176,298
Trainable params: 17,176,298
Non-trainable params: 0
_________________________________________________________________

2018-04-24 09:20:11.313406AM --- Model took seconds to train 1274.4142282009125
2018-04-24 09:20:12.289659AM --- Accuracy on test data is: 66.25
2018-04-24 09:20:12.331367AM --- starting process for: (((conv*1)pool)*2)fc*0
2018-04-24 09:20:13.048211AM
_________________________________________________________________
Layer (type)                 Output Shape              Param #   
=================================================================
conv2d_1 (Conv2D)            (None, 32, 32, 32)        896       
_________________________________________________________________
max_pooling2d_1 (MaxPooling2 (None, 16, 16, 32)        0         
_________________________________________________________________
conv2d_2 (Conv2D)            (None, 16, 16, 32)        9248      
_________________________________________________________________
max_pooling2d_2 (MaxPooling2 (None, 8, 8, 32)          0         
_________________________________________________________________
flatten_1 (Flatten)          (None, 2048)              0         
_________________________________________________________________
dense_1 (Dense)              (None, 10)                20490     
=================================================================
Total params: 30,634
Trainable params: 30,634
Non-trainable params: 0
_________________________________________________________________

2018-04-24 09:22:56.949830AM --- Model took seconds to train 163.8856143951416
2018-04-24 09:22:57.036813AM --- Accuracy on test data is: 67.0
2018-04-24 09:22:57.084502AM --- starting process for: (((conv*2)vazio)*3)fc*0
2018-04-24 09:22:57.818687AM
_________________________________________________________________
Layer (type)                 Output Shape              Param #   
=================================================================
conv2d_1 (Conv2D)            (None, 32, 32, 32)        896       
_________________________________________________________________
conv2d_2 (Conv2D)            (None, 32, 32, 32)        9248      
_________________________________________________________________
conv2d_3 (Conv2D)            (None, 32, 32, 64)        18496     
_________________________________________________________________
conv2d_4 (Conv2D)            (None, 32, 32, 128)       73856     
_________________________________________________________________
conv2d_5 (Conv2D)            (None, 32, 32, 128)       147584    
_________________________________________________________________
conv2d_6 (Conv2D)            (None, 32, 32, 128)       147584    
_________________________________________________________________
flatten_1 (Flatten)          (None, 131072)            0         
_________________________________________________________________
dense_1 (Dense)              (None, 10)                1310730   
=================================================================
Total params: 1,708,394
Trainable params: 1,708,394
Non-trainable params: 0
_________________________________________________________________

2018-04-24 15:30:54.489409PM --- Inicializing from previous state...
2018-04-24 15:30:54.489671PM --- 0 - Individual: (((conv*2)pool)*3)fc*0; 78.5
2018-04-24 15:30:54.489769PM --- 1 - Individual: (((conv*2)pool)*2)fc*0; 75.25
…
2018-04-24 15:30:54.492437PM --- 47 - Individual: (((conv*1)vazio)*1)fc*1; 57.95
2018-04-24 15:30:54.492488PM --- 48 - Individual: (((conv*1)vazio)*1)fc*0; 57.85
2018-04-24 15:30:54.492544PM --- 49 - Individual: (((conv*1)vazio)*1)fc*2; 56.99999999999999
2018-04-24 15:30:54.492589PM --- Generation: 2
2018-04-24 15:30:54.495206PM --- starting process for: (((conv*2)pool)*2)fc*0
2018-04-24 15:30:56.066024PM
_________________________________________________________________
Layer (type)                 Output Shape              Param #   
=================================================================
conv2d_1 (Conv2D)            (None, 32, 32, 32)        896       
_________________________________________________________________
conv2d_2 (Conv2D)            (None, 32, 32, 32)        9248      
_________________________________________________________________
max_pooling2d_1 (MaxPooling2 (None, 16, 16, 32)        0         
_________________________________________________________________
conv2d_3 (Conv2D)            (None, 16, 16, 64)        18496     
_________________________________________________________________
conv2d_4 (Conv2D)            (None, 16, 16, 128)       73856     
_________________________________________________________________
max_pooling2d_2 (MaxPooling2 (None, 8, 8, 128)         0         
_________________________________________________________________
flatten_1 (Flatten)          (None, 8192)              0         
_________________________________________________________________
dense_1 (Dense)              (None, 10)                81930     
=================================================================
Total params: 184,426
Trainable params: 184,426
Non-trainable params: 0
_________________________________________________________________

2018-04-24 15:36:07.008478PM --- Model took seconds to train 310.92494654655457
2018-04-24 15:36:07.157207PM --- Accuracy on test data is: 72.95
2018-04-24 15:36:07.187866PM --- starting process for: (((conv*2)pool)*2)fc*1
2018-04-24 15:36:07.923978PM
_________________________________________________________________
Layer (type)                 Output Shape              Param #   
=================================================================
conv2d_1 (Conv2D)            (None, 32, 32, 32)        896       
_________________________________________________________________
conv2d_2 (Conv2D)            (None, 32, 32, 32)        9248      
_________________________________________________________________
max_pooling2d_1 (MaxPooling2 (None, 16, 16, 32)        0         
_________________________________________________________________
conv2d_3 (Conv2D)            (None, 16, 16, 64)        18496     
_________________________________________________________________
conv2d_4 (Conv2D)            (None, 16, 16, 128)       73856     
_________________________________________________________________
max_pooling2d_2 (MaxPooling2 (None, 8, 8, 128)         0         
_________________________________________________________________
flatten_1 (Flatten)          (None, 8192)              0         
_________________________________________________________________
dense_1 (Dense)              (None, 128)               1048704   
_________________________________________________________________
activation_1 (Activation)    (None, 128)               0         
_________________________________________________________________
dense_2 (Dense)              (None, 10)                1290      
=================================================================
Total params: 1,152,490
Trainable params: 1,152,490
Non-trainable params: 0
_________________________________________________________________

2018-04-24 15:41:00.712346PM --- Model took seconds to train 292.772567987442
2018-04-24 15:41:00.870880PM --- Accuracy on test data is: 74.25
2018-04-24 15:41:00.903282PM --- starting process for: (((conv*1)pool)*2)fc*2
2018-04-24 15:41:01.615884PM
_________________________________________________________________
Layer (type)                 Output Shape              Param #   
=================================================================
conv2d_1 (Conv2D)            (None, 32, 32, 32)        896       
_________________________________________________________________
max_pooling2d_1 (MaxPooling2 (None, 16, 16, 32)        0         
_________________________________________________________________
conv2d_2 (Conv2D)            (None, 16, 16, 32)        9248      
_________________________________________________________________
max_pooling2d_2 (MaxPooling2 (None, 8, 8, 32)          0         
_________________________________________________________________
flatten_1 (Flatten)          (None, 2048)              0         
_________________________________________________________________
dense_1 (Dense)              (None, 128)               262272    
_________________________________________________________________
activation_1 (Activation)    (None, 128)               0         
_________________________________________________________________
dense_2 (Dense)              (None, 128)               16512     
_________________________________________________________________
activation_2 (Activation)    (None, 128)               0         
_________________________________________________________________
dense_3 (Dense)              (None, 10)                1290      
=================================================================
Total params: 290,218
Trainable params: 290,218
Non-trainable params: 0
_________________________________________________________________

2018-04-24 15:43:35.943466PM --- Model took seconds to train 154.25307059288025
2018-04-24 15:43:36.038441PM --- Accuracy on test data is: 67.60000000000001
2018-04-24 15:43:36.064959PM --- starting process for: (((conv*2)pool)*1)fc*2
2018-04-24 15:43:36.765052PM
_________________________________________________________________
Layer (type)                 Output Shape              Param #   
=================================================================
conv2d_1 (Conv2D)            (None, 32, 32, 32)        896       
_________________________________________________________________
conv2d_2 (Conv2D)            (None, 32, 32, 32)        9248      
_________________________________________________________________
max_pooling2d_1 (MaxPooling2 (None, 16, 16, 32)        0         
_________________________________________________________________
flatten_1 (Flatten)          (None, 8192)              0         
_________________________________________________________________
dense_1 (Dense)              (None, 128)               1048704   
_________________________________________________________________
activation_1 (Activation)    (None, 128)               0         
_________________________________________________________________
dense_2 (Dense)              (None, 128)               16512     
_________________________________________________________________
activation_2 (Activation)    (None, 128)               0         
_________________________________________________________________
dense_3 (Dense)              (None, 10)                1290      
=================================================================
Total params: 1,076,650
Trainable params: 1,076,650
Non-trainable params: 0
_________________________________________________________________

2018-04-24 15:46:58.665397PM --- Model took seconds to train 201.88463020324707
2018-04-24 15:46:58.820093PM --- Accuracy on test data is: 63.949999999999996
2018-04-24 15:46:58.859105PM --- starting process for: (((conv*1)vazio)*2)fc*2
2018-04-24 15:46:59.573592PM
_________________________________________________________________
Layer (type)                 Output Shape              Param #   
=================================================================
conv2d_1 (Conv2D)            (None, 32, 32, 32)        896       
_________________________________________________________________
conv2d_2 (Conv2D)            (None, 32, 32, 32)        9248      
_________________________________________________________________
flatten_1 (Flatten)          (None, 32768)             0         
_________________________________________________________________
dense_1 (Dense)              (None, 128)               4194432   
_________________________________________________________________
activation_1 (Activation)    (None, 128)               0         
_________________________________________________________________
dense_2 (Dense)              (None, 128)               16512     
_________________________________________________________________
activation_2 (Activation)    (None, 128)               0         
_________________________________________________________________
dense_3 (Dense)              (None, 10)                1290      
=================================================================
Total params: 4,222,378
Trainable params: 4,222,378
Non-trainable params: 0
_________________________________________________________________

2018-04-24 15:50:52.710558PM --- Model took seconds to train 233.12142610549927
2018-04-24 15:50:52.967905PM --- Accuracy on test data is: 60.3
2018-04-24 15:50:52.995787PM --- starting process for: (((conv*2)pool)*3)fc*2
2018-04-24 15:50:53.726345PM
_________________________________________________________________
Layer (type)                 Output Shape              Param #   
=================================================================
conv2d_1 (Conv2D)            (None, 32, 32, 32)        896       
_________________________________________________________________
conv2d_2 (Conv2D)            (None, 32, 32, 32)        9248      
_________________________________________________________________
max_pooling2d_1 (MaxPooling2 (None, 16, 16, 32)        0         
_________________________________________________________________
conv2d_3 (Conv2D)            (None, 16, 16, 64)        18496     
_________________________________________________________________
conv2d_4 (Conv2D)            (None, 16, 16, 128)       73856     
_________________________________________________________________
max_pooling2d_2 (MaxPooling2 (None, 8, 8, 128)         0         
_________________________________________________________________
conv2d_5 (Conv2D)            (None, 8, 8, 128)         147584    
_________________________________________________________________
conv2d_6 (Conv2D)            (None, 8, 8, 128)         147584    
_________________________________________________________________
max_pooling2d_3 (MaxPooling2 (None, 4, 4, 128)         0         
_________________________________________________________________
flatten_1 (Flatten)          (None, 2048)              0         
_________________________________________________________________
dense_1 (Dense)              (None, 128)               262272    
_________________________________________________________________
activation_1 (Activation)    (None, 128)               0         
_________________________________________________________________
dense_2 (Dense)              (None, 128)               16512     
_________________________________________________________________
activation_2 (Activation)    (None, 128)               0         
_________________________________________________________________
dense_3 (Dense)              (None, 10)                1290      
=================================================================
Total params: 677,738
Trainable params: 677,738
Non-trainable params: 0
_________________________________________________________________

2018-04-24 15:56:46.113619PM --- Model took seconds to train 352.3711040019989
2018-04-24 15:56:46.259795PM --- Accuracy on test data is: 77.55
2018-04-24 15:56:46.291191PM --- starting process for: (((conv*1)pool)*2)fc*2
2018-04-24 15:56:47.000606PM
_________________________________________________________________
Layer (type)                 Output Shape              Param #   
=================================================================
conv2d_1 (Conv2D)            (None, 32, 32, 32)        896       
_________________________________________________________________
max_pooling2d_1 (MaxPooling2 (None, 16, 16, 32)        0         
_________________________________________________________________
conv2d_2 (Conv2D)            (None, 16, 16, 32)        9248      
_________________________________________________________________
max_pooling2d_2 (MaxPooling2 (None, 8, 8, 32)          0         
_________________________________________________________________
flatten_1 (Flatten)          (None, 2048)              0         
_________________________________________________________________
dense_1 (Dense)              (None, 128)               262272    
_________________________________________________________________
activation_1 (Activation)    (None, 128)               0         
_________________________________________________________________
dense_2 (Dense)              (None, 128)               16512     
_________________________________________________________________
activation_2 (Activation)    (None, 128)               0         
_________________________________________________________________
dense_3 (Dense)              (None, 10)                1290      
=================================================================
Total params: 290,218
Trainable params: 290,218
Non-trainable params: 0
_________________________________________________________________

2018-04-24 15:59:21.183748PM --- Model took seconds to train 154.16766715049744
2018-04-24 15:59:21.267608PM --- Accuracy on test data is: 68.95
…
2018-04-24 21:01:45.536845PM --- Accuracy on test data is: 62.1
2018-04-24 21:01:45.578442PM --- starting process for: (((conv*2)pool)*1)fc*1
2018-04-24 21:01:46.280384PM
_________________________________________________________________
Layer (type)                 Output Shape              Param #   
=================================================================
conv2d_1 (Conv2D)            (None, 32, 32, 32)        896       
_________________________________________________________________
conv2d_2 (Conv2D)            (None, 32, 32, 32)        9248      
_________________________________________________________________
max_pooling2d_1 (MaxPooling2 (None, 16, 16, 32)        0         
_________________________________________________________________
flatten_1 (Flatten)          (None, 8192)              0         
_________________________________________________________________
dense_1 (Dense)              (None, 128)               1048704   
_________________________________________________________________
activation_1 (Activation)    (None, 128)               0         
_________________________________________________________________
dense_2 (Dense)              (None, 10)                1290      
=================================================================
Total params: 1,060,138
Trainable params: 1,060,138
Non-trainable params: 0
_________________________________________________________________

2018-04-24 21:05:20.808518PM --- Model took seconds to train 214.51310968399048
2018-04-24 21:05:20.947463PM --- Accuracy on test data is: 64.25
2018-04-24 21:05:20.982534PM --- starting process for: (((conv*1)pool)*1)fc*1
2018-04-24 21:05:21.677318PM
_________________________________________________________________
Layer (type)                 Output Shape              Param #   
=================================================================
conv2d_1 (Conv2D)            (None, 32, 32, 32)        896       
_________________________________________________________________
max_pooling2d_1 (MaxPooling2 (None, 16, 16, 32)        0         
_________________________________________________________________
flatten_1 (Flatten)          (None, 8192)              0         
_________________________________________________________________
dense_1 (Dense)              (None, 128)               1048704   
_________________________________________________________________
activation_1 (Activation)    (None, 128)               0         
_________________________________________________________________
dense_2 (Dense)              (None, 10)                1290      
=================================================================
Total params: 1,050,890
Trainable params: 1,050,890
Non-trainable params: 0
_________________________________________________________________

2018-04-24 21:07:41.521620PM --- Model took seconds to train 139.82930850982666
2018-04-24 21:07:41.638782PM --- Accuracy on test data is: 61.45
2018-04-24 21:07:41.676401PM --- starting process for: (((conv*1)pool)*1)fc*1
2018-04-24 21:07:42.367103PM
_________________________________________________________________
Layer (type)                 Output Shape              Param #   
=================================================================
conv2d_1 (Conv2D)            (None, 32, 32, 32)        896       
_________________________________________________________________
max_pooling2d_1 (MaxPooling2 (None, 16, 16, 32)        0         
_________________________________________________________________
flatten_1 (Flatten)          (None, 8192)              0         
_________________________________________________________________
dense_1 (Dense)              (None, 128)               1048704   
_________________________________________________________________
activation_1 (Activation)    (None, 128)               0         
_________________________________________________________________
dense_2 (Dense)              (None, 10)                1290      
=================================================================
Total params: 1,050,890
Trainable params: 1,050,890
Non-trainable params: 0
_________________________________________________________________

2018-04-24 21:10:02.546983PM --- Model took seconds to train 140.16509819030762
2018-04-24 21:10:02.686517PM --- Accuracy on test data is: 63.949999999999996
2018-04-24 21:10:02.726444PM --- starting process for: (((conv*1)vazio)*1)fc*2
2018-04-24 21:10:03.422503PM
_________________________________________________________________
Layer (type)                 Output Shape              Param #   
=================================================================
conv2d_1 (Conv2D)            (None, 32, 32, 32)        896       
_________________________________________________________________
flatten_1 (Flatten)          (None, 32768)             0         
_________________________________________________________________
dense_1 (Dense)              (None, 128)               4194432   
_________________________________________________________________
activation_1 (Activation)    (None, 128)               0         
_________________________________________________________________
dense_2 (Dense)              (None, 128)               16512     
_________________________________________________________________
activation_2 (Activation)    (None, 128)               0         
_________________________________________________________________
dense_3 (Dense)              (None, 10)                1290      
=================================================================
Total params: 4,213,130
Trainable params: 4,213,130
Non-trainable params: 0
_________________________________________________________________

2018-04-24 21:13:01.120760PM --- Model took seconds to train 177.68327975273132
2018-04-24 21:13:01.373575PM --- Accuracy on test data is: 58.3
2018-04-24 21:13:01.407046PM --- starting process for: (((conv*1)vazio)*3)fc*1
2018-04-24 21:13:02.098497PM
_________________________________________________________________
Layer (type)                 Output Shape              Param #   
=================================================================
conv2d_1 (Conv2D)            (None, 32, 32, 32)        896       
_________________________________________________________________
conv2d_2 (Conv2D)            (None, 32, 32, 32)        9248      
_________________________________________________________________
conv2d_3 (Conv2D)            (None, 32, 32, 64)        18496     
_________________________________________________________________
flatten_1 (Flatten)          (None, 65536)             0         
_________________________________________________________________
dense_1 (Dense)              (None, 128)               8388736   
_________________________________________________________________
activation_1 (Activation)    (None, 128)               0         
_________________________________________________________________
dense_2 (Dense)              (None, 10)                1290      
=================================================================
Total params: 8,418,666
Trainable params: 8,418,666
Non-trainable params: 0
_________________________________________________________________

2018-04-24 21:19:51.668988PM --- Model took seconds to train 409.5551941394806
2018-04-24 21:19:52.151824PM --- Accuracy on test data is: 63.55
2018-04-24 21:19:52.195732PM --- starting process for: (((conv*2)pool)*2)fc*1
2018-04-24 21:19:52.906062PM
_________________________________________________________________
Layer (type)                 Output Shape              Param #   
=================================================================
conv2d_1 (Conv2D)            (None, 32, 32, 32)        896       
_________________________________________________________________
conv2d_2 (Conv2D)            (None, 32, 32, 32)        9248      
_________________________________________________________________
max_pooling2d_1 (MaxPooling2 (None, 16, 16, 32)        0         
_________________________________________________________________
conv2d_3 (Conv2D)            (None, 16, 16, 64)        18496     
_________________________________________________________________
conv2d_4 (Conv2D)            (None, 16, 16, 128)       73856     
_________________________________________________________________
max_pooling2d_2 (MaxPooling2 (None, 8, 8, 128)         0         
_________________________________________________________________
flatten_1 (Flatten)          (None, 8192)              0         
_________________________________________________________________
dense_1 (Dense)              (None, 128)               1048704   
_________________________________________________________________
activation_1 (Activation)    (None, 128)               0         
_________________________________________________________________
dense_2 (Dense)              (None, 10)                1290      
=================================================================
Total params: 1,152,490
Trainable params: 1,152,490
Non-trainable params: 0
_________________________________________________________________

2018-04-24 21:25:14.310048PM --- Model took seconds to train 321.38852643966675
2018-04-24 21:25:14.477997PM --- Accuracy on test data is: 75.14999999999999
2018-04-24 21:25:14.517545PM --- starting process for: (((conv*2)pool)*1)fc*1
2018-04-24 21:25:15.217549PM
_________________________________________________________________
Layer (type)                 Output Shape              Param #   
=================================================================
conv2d_1 (Conv2D)            (None, 32, 32, 32)        896       
_________________________________________________________________
conv2d_2 (Conv2D)            (None, 32, 32, 32)        9248      
_________________________________________________________________
max_pooling2d_1 (MaxPooling2 (None, 16, 16, 32)        0         
_________________________________________________________________
flatten_1 (Flatten)          (None, 8192)              0         
_________________________________________________________________
dense_1 (Dense)              (None, 128)               1048704   
_________________________________________________________________
activation_1 (Activation)    (None, 128)               0         
_________________________________________________________________
dense_2 (Dense)              (None, 10)                1290      
=================================================================
Total params: 1,060,138
Trainable params: 1,060,138
Non-trainable params: 0
_________________________________________________________________

2018-04-24 21:28:48.835709PM --- Model took seconds to train 213.60331511497498
2018-04-24 21:28:48.986253PM --- Accuracy on test data is: 64.4
2018-04-24 21:28:49.032002PM --- starting process for: (((conv*1)vazio)*3)fc*1
2018-04-24 21:28:49.735332PM
_________________________________________________________________
Layer (type)                 Output Shape              Param #   
=================================================================
conv2d_1 (Conv2D)            (None, 32, 32, 32)        896       
_________________________________________________________________
conv2d_2 (Conv2D)            (None, 32, 32, 32)        9248      
_________________________________________________________________
conv2d_3 (Conv2D)            (None, 32, 32, 64)        18496     
_________________________________________________________________
flatten_1 (Flatten)          (None, 65536)             0         
_________________________________________________________________
dense_1 (Dense)              (None, 128)               8388736   
_________________________________________________________________
activation_1 (Activation)    (None, 128)               0         
_________________________________________________________________
dense_2 (Dense)              (None, 10)                1290      
=================================================================
Total params: 8,418,666
Trainable params: 8,418,666
Non-trainable params: 0
_________________________________________________________________

2018-04-24 21:35:34.676479PM --- Model took seconds to train 404.92565536499023
2018-04-24 21:35:35.159742PM --- Accuracy on test data is: 61.5
2018-04-24 21:35:35.194402PM --- starting process for: (((conv*2)vazio)*2)fc*1
2018-04-24 21:35:35.904634PM
_________________________________________________________________
Layer (type)                 Output Shape              Param #   
=================================================================
conv2d_1 (Conv2D)            (None, 32, 32, 32)        896       
_________________________________________________________________
conv2d_2 (Conv2D)            (None, 32, 32, 32)        9248      
_________________________________________________________________
conv2d_3 (Conv2D)            (None, 32, 32, 64)        18496     
_________________________________________________________________
conv2d_4 (Conv2D)            (None, 32, 32, 128)       73856     
_________________________________________________________________
flatten_1 (Flatten)          (None, 131072)            0         
_________________________________________________________________
dense_1 (Dense)              (None, 128)               16777344  
_________________________________________________________________
activation_1 (Activation)    (None, 128)               0         
_________________________________________________________________
dense_2 (Dense)              (None, 10)                1290      
=================================================================
Total params: 16,881,130
Trainable params: 16,881,130
Non-trainable params: 0
_________________________________________________________________

2018-04-24 21:47:08.592599PM --- Model took seconds to train 692.672413110733
2018-04-24 21:47:09.518510PM --- Accuracy on test data is: 63.3
2018-04-24 21:47:09.554945PM --- starting process for: (((conv*1)vazio)*1)fc*2
2018-04-24 21:47:10.249574PM
_________________________________________________________________
Layer (type)                 Output Shape              Param #   
=================================================================
conv2d_1 (Conv2D)            (None, 32, 32, 32)        896       
_________________________________________________________________
flatten_1 (Flatten)          (None, 32768)             0         
_________________________________________________________________
dense_1 (Dense)              (None, 128)               4194432   
_________________________________________________________________
activation_1 (Activation)    (None, 128)               0         
_________________________________________________________________
dense_2 (Dense)              (None, 128)               16512     
_________________________________________________________________
activation_2 (Activation)    (None, 128)               0         
_________________________________________________________________
dense_3 (Dense)              (None, 10)                1290      
=================================================================
Total params: 4,213,130
Trainable params: 4,213,130
Non-trainable params: 0
_________________________________________________________________

2018-04-24 21:50:10.237493PM --- Model took seconds to train 179.97332429885864
2018-04-24 21:50:10.490400PM --- Accuracy on test data is: 56.25
2018-04-24 21:50:10.524592PM --- starting process for: (((conv*2)vazio)*3)fc*0
2018-04-24 21:50:11.314064PM
_________________________________________________________________
Layer (type)                 Output Shape              Param #   
=================================================================
conv2d_1 (Conv2D)            (None, 32, 32, 32)        896       
_________________________________________________________________
conv2d_2 (Conv2D)            (None, 32, 32, 32)        9248      
_________________________________________________________________
conv2d_3 (Conv2D)            (None, 32, 32, 64)        18496     
_________________________________________________________________
conv2d_4 (Conv2D)            (None, 32, 32, 128)       73856     
_________________________________________________________________
conv2d_5 (Conv2D)            (None, 32, 32, 128)       147584    
_________________________________________________________________
conv2d_6 (Conv2D)            (None, 32, 32, 128)       147584    
_________________________________________________________________
flatten_1 (Flatten)          (None, 131072)            0         
_________________________________________________________________
dense_1 (Dense)              (None, 10)                1310730   
=================================================================
Total params: 1,708,394
Trainable params: 1,708,394
Non-trainable params: 0
_________________________________________________________________

2018-04-24 22:14:57.336766PM --- Model took seconds to train 1486.0079462528229
2018-04-24 22:14:58.281140PM --- Accuracy on test data is: 64.85
2018-04-24 22:14:58.313717PM --- starting process for: (((conv*2)vazio)*3)fc*2
2018-04-24 22:14:59.040722PM
_________________________________________________________________
Layer (type)                 Output Shape              Param #   
=================================================================
conv2d_1 (Conv2D)            (None, 32, 32, 32)        896       
_________________________________________________________________
conv2d_2 (Conv2D)            (None, 32, 32, 32)        9248      
_________________________________________________________________
conv2d_3 (Conv2D)            (None, 32, 32, 64)        18496     
_________________________________________________________________
conv2d_4 (Conv2D)            (None, 32, 32, 128)       73856     
_________________________________________________________________
conv2d_5 (Conv2D)            (None, 32, 32, 128)       147584    
_________________________________________________________________
conv2d_6 (Conv2D)            (None, 32, 32, 128)       147584    
_________________________________________________________________
flatten_1 (Flatten)          (None, 131072)            0         
_________________________________________________________________
dense_1 (Dense)              (None, 128)               16777344  
_________________________________________________________________
activation_1 (Activation)    (None, 128)               0         
_________________________________________________________________
dense_2 (Dense)              (None, 128)               16512     
_________________________________________________________________
activation_2 (Activation)    (None, 128)               0         
_________________________________________________________________
dense_3 (Dense)              (None, 10)                1290      
=================================================================
Total params: 17,192,810
Trainable params: 17,192,810
Non-trainable params: 0
_________________________________________________________________

2018-04-24 22:36:03.336949PM --- Model took seconds to train 1264.281185388565
2018-04-24 22:36:04.363164PM --- Accuracy on test data is: 64.25
2018-04-24 22:36:04.399120PM --- starting process for: (((conv*1)vazio)*1)fc*0
2018-04-24 22:36:05.091890PM
_________________________________________________________________
Layer (type)                 Output Shape              Param #   
=================================================================
conv2d_1 (Conv2D)            (None, 32, 32, 32)        896       
_________________________________________________________________
flatten_1 (Flatten)          (None, 32768)             0         
_________________________________________________________________
dense_1 (Dense)              (None, 10)                327690    
=================================================================
Total params: 328,586
Trainable params: 328,586
Non-trainable params: 0
_________________________________________________________________

2018-04-24 22:40:59.659905PM --- Model took seconds to train 294.55326771736145
2018-04-24 22:40:59.916734PM --- Accuracy on test data is: 56.65
2018-04-24 22:40:59.952680PM --- starting process for: (((conv*1)vazio)*2)fc*1
2018-04-24 22:41:00.647705PM
_________________________________________________________________
Layer (type)                 Output Shape              Param #   
=================================================================
conv2d_1 (Conv2D)            (None, 32, 32, 32)        896       
_________________________________________________________________
conv2d_2 (Conv2D)            (None, 32, 32, 32)        9248      
_________________________________________________________________
flatten_1 (Flatten)          (None, 32768)             0         
_________________________________________________________________
dense_1 (Dense)              (None, 128)               4194432   
_________________________________________________________________
activation_1 (Activation)    (None, 128)               0         
_________________________________________________________________
dense_2 (Dense)              (None, 10)                1290      
=================================================================
Total params: 4,205,866
Trainable params: 4,205,866
Non-trainable params: 0
_________________________________________________________________

2018-04-24 22:45:25.611043PM --- Model took seconds to train 264.94864559173584
2018-04-24 22:45:25.917996PM --- Accuracy on test data is: 60.45
2018-04-24 22:45:25.970966PM --- starting process for: (((conv*1)pool)*3)fc*2
2018-04-24 22:45:26.681049PM
_________________________________________________________________
Layer (type)                 Output Shape              Param #   
=================================================================
conv2d_1 (Conv2D)            (None, 32, 32, 32)        896       
_________________________________________________________________
max_pooling2d_1 (MaxPooling2 (None, 16, 16, 32)        0         
_________________________________________________________________
conv2d_2 (Conv2D)            (None, 16, 16, 32)        9248      
_________________________________________________________________
max_pooling2d_2 (MaxPooling2 (None, 8, 8, 32)          0         
_________________________________________________________________
conv2d_3 (Conv2D)            (None, 8, 8, 64)          18496     
_________________________________________________________________
max_pooling2d_3 (MaxPooling2 (None, 4, 4, 64)          0         
_________________________________________________________________
flatten_1 (Flatten)          (None, 1024)              0         
_________________________________________________________________
dense_1 (Dense)              (None, 128)               131200    
_________________________________________________________________
activation_1 (Activation)    (None, 128)               0         
_________________________________________________________________
dense_2 (Dense)              (None, 128)               16512     
_________________________________________________________________
activation_2 (Activation)    (None, 128)               0         
_________________________________________________________________
dense_3 (Dense)              (None, 10)                1290      
=================================================================
Total params: 177,642
Trainable params: 177,642
Non-trainable params: 0
_________________________________________________________________

2018-04-24 22:48:45.615127PM --- Model took seconds to train 198.84306001663208
2018-04-24 22:48:45.717744PM --- Accuracy on test data is: 70.55
2018-04-24 22:48:45.757924PM --- starting process for: (((conv*1)vazio)*2)fc*2
2018-04-24 22:48:46.465145PM
_________________________________________________________________
Layer (type)                 Output Shape              Param #   
=================================================================
conv2d_1 (Conv2D)            (None, 32, 32, 32)        896       
_________________________________________________________________
conv2d_2 (Conv2D)            (None, 32, 32, 32)        9248      
_________________________________________________________________
flatten_1 (Flatten)          (None, 32768)             0         
_________________________________________________________________
dense_1 (Dense)              (None, 128)               4194432   
_________________________________________________________________
activation_1 (Activation)    (None, 128)               0         
_________________________________________________________________
dense_2 (Dense)              (None, 128)               16512     
_________________________________________________________________
activation_2 (Activation)    (None, 128)               0         
_________________________________________________________________
dense_3 (Dense)              (None, 10)                1290      
=================================================================
Total params: 4,222,378
Trainable params: 4,222,378
Non-trainable params: 0
_________________________________________________________________

2018-04-24 22:53:16.473231PM --- Model took seconds to train 269.99324774742126
2018-04-24 22:53:16.733752PM --- Accuracy on test data is: 62.64999999999999
2018-04-24 22:53:16.769608PM --- starting process for: (((conv*2)pool)*2)fc*2
2018-04-24 22:53:17.487113PM
_________________________________________________________________
Layer (type)                 Output Shape              Param #   
=================================================================
conv2d_1 (Conv2D)            (None, 32, 32, 32)        896       
_________________________________________________________________
conv2d_2 (Conv2D)            (None, 32, 32, 32)        9248      
_________________________________________________________________
max_pooling2d_1 (MaxPooling2 (None, 16, 16, 32)        0         
_________________________________________________________________
conv2d_3 (Conv2D)            (None, 16, 16, 64)        18496     
_________________________________________________________________
conv2d_4 (Conv2D)            (None, 16, 16, 128)       73856     
_________________________________________________________________
max_pooling2d_2 (MaxPooling2 (None, 8, 8, 128)         0         
_________________________________________________________________
flatten_1 (Flatten)          (None, 8192)              0         
_________________________________________________________________
dense_1 (Dense)              (None, 128)               1048704   
_________________________________________________________________
activation_1 (Activation)    (None, 128)               0         
_________________________________________________________________
dense_2 (Dense)              (None, 128)               16512     
_________________________________________________________________
activation_2 (Activation)    (None, 128)               0         
_________________________________________________________________
dense_3 (Dense)              (None, 10)                1290      
=================================================================
Total params: 1,169,002
Trainable params: 1,169,002
Non-trainable params: 0
_________________________________________________________________

2018-04-24 22:59:03.240290PM --- Model took seconds to train 345.73753118515015
2018-04-24 22:59:03.419470PM --- Accuracy on test data is: 74.2
2018-04-24 22:59:03.467211PM --- starting process for: (((conv*2)pool)*1)fc*1
2018-04-24 22:59:04.170861PM
_________________________________________________________________
Layer (type)                 Output Shape              Param #   
=================================================================
conv2d_1 (Conv2D)            (None, 32, 32, 32)        896       
_________________________________________________________________
conv2d_2 (Conv2D)            (None, 32, 32, 32)        9248      
_________________________________________________________________
max_pooling2d_1 (MaxPooling2 (None, 16, 16, 32)        0         
_________________________________________________________________
flatten_1 (Flatten)          (None, 8192)              0         
_________________________________________________________________
dense_1 (Dense)              (None, 128)               1048704   
_________________________________________________________________
activation_1 (Activation)    (None, 128)               0         
_________________________________________________________________
dense_2 (Dense)              (None, 10)                1290      
=================================================================
Total params: 1,060,138
Trainable params: 1,060,138
Non-trainable params: 0
_________________________________________________________________

2018-04-24 23:02:58.306482PM --- Model took seconds to train 234.12012028694153
2018-04-24 23:02:58.475447PM --- Accuracy on test data is: 65.45
2018-04-24 23:02:58.524326PM --- starting process for: (((conv*2)pool)*2)fc*2
2018-04-24 23:02:59.238580PM
_________________________________________________________________
Layer (type)                 Output Shape              Param #   
=================================================================
conv2d_1 (Conv2D)            (None, 32, 32, 32)        896       
_________________________________________________________________
conv2d_2 (Conv2D)            (None, 32, 32, 32)        9248      
_________________________________________________________________
max_pooling2d_1 (MaxPooling2 (None, 16, 16, 32)        0         
_________________________________________________________________
conv2d_3 (Conv2D)            (None, 16, 16, 64)        18496     
_________________________________________________________________
conv2d_4 (Conv2D)            (None, 16, 16, 128)       73856     
_________________________________________________________________
max_pooling2d_2 (MaxPooling2 (None, 8, 8, 128)         0         
_________________________________________________________________
flatten_1 (Flatten)          (None, 8192)              0         
_________________________________________________________________
dense_1 (Dense)              (None, 128)               1048704   
_________________________________________________________________
activation_1 (Activation)    (None, 128)               0         
_________________________________________________________________
dense_2 (Dense)              (None, 128)               16512     
_________________________________________________________________
activation_2 (Activation)    (None, 128)               0         
_________________________________________________________________
dense_3 (Dense)              (None, 10)                1290      
=================================================================
Total params: 1,169,002
Trainable params: 1,169,002
Non-trainable params: 0
_________________________________________________________________

2018-04-24 23:08:43.987309PM --- Model took seconds to train 344.7335579395294
2018-04-24 23:08:44.161894PM --- Accuracy on test data is: 74.35000000000001
2018-04-24 23:08:44.201621PM --- starting process for: (((conv*2)pool)*1)fc*2
2018-04-24 23:08:44.909495PM
_________________________________________________________________
Layer (type)                 Output Shape              Param #   
=================================================================
conv2d_1 (Conv2D)            (None, 32, 32, 32)        896       
_________________________________________________________________
conv2d_2 (Conv2D)            (None, 32, 32, 32)        9248      
_________________________________________________________________
max_pooling2d_1 (MaxPooling2 (None, 16, 16, 32)        0         
_________________________________________________________________
flatten_1 (Flatten)          (None, 8192)              0         
_________________________________________________________________
dense_1 (Dense)              (None, 128)               1048704   
_________________________________________________________________
activation_1 (Activation)    (None, 128)               0         
_________________________________________________________________
dense_2 (Dense)              (None, 128)               16512     
_________________________________________________________________
activation_2 (Activation)    (None, 128)               0         
_________________________________________________________________
dense_3 (Dense)              (None, 10)                1290      
=================================================================
Total params: 1,076,650
Trainable params: 1,076,650
Non-trainable params: 0
_________________________________________________________________

2018-04-24 23:12:45.913731PM --- Model took seconds to train 240.98936319351196
2018-04-24 23:12:46.074790PM --- Accuracy on test data is: 64.35
2018-04-24 23:12:46.119849PM --- starting process for: (((conv*2)pool)*1)fc*0
2018-04-24 23:12:46.814929PM
_________________________________________________________________
Layer (type)                 Output Shape              Param #   
=================================================================
conv2d_1 (Conv2D)            (None, 32, 32, 32)        896       
_________________________________________________________________
conv2d_2 (Conv2D)            (None, 32, 32, 32)        9248      
_________________________________________________________________
max_pooling2d_1 (MaxPooling2 (None, 16, 16, 32)        0         
_________________________________________________________________
flatten_1 (Flatten)          (None, 8192)              0         
_________________________________________________________________
dense_1 (Dense)              (None, 10)                81930     
=================================================================
Total params: 92,074
Trainable params: 92,074
Non-trainable params: 0
_________________________________________________________________

2018-04-24 23:16:53.132012PM --- Model took seconds to train 246.3020522594452
2018-04-24 23:16:53.290094PM --- Accuracy on test data is: 62.949999999999996
2018-04-24 23:16:53.334127PM --- starting process for: (((conv*1)pool)*2)fc*0
2018-04-24 23:16:54.030657PM
_________________________________________________________________
Layer (type)                 Output Shape              Param #   
=================================================================
conv2d_1 (Conv2D)            (None, 32, 32, 32)        896       
_________________________________________________________________
max_pooling2d_1 (MaxPooling2 (None, 16, 16, 32)        0         
_________________________________________________________________
conv2d_2 (Conv2D)            (None, 16, 16, 32)        9248      
_________________________________________________________________
max_pooling2d_2 (MaxPooling2 (None, 8, 8, 32)          0         
_________________________________________________________________
flatten_1 (Flatten)          (None, 2048)              0         
_________________________________________________________________
dense_1 (Dense)              (None, 10)                20490     
=================================================================
Total params: 30,634
Trainable params: 30,634
Non-trainable params: 0
_________________________________________________________________

2018-04-24 23:19:47.507405PM --- Model took seconds to train 173.46158242225647
2018-04-24 23:19:47.602568PM --- Accuracy on test data is: 69.3
2018-04-24 23:19:47.640407PM --- starting process for: (((conv*2)pool)*2)fc*0
2018-04-24 23:19:48.344828PM
_________________________________________________________________
Layer (type)                 Output Shape              Param #   
=================================================================
conv2d_1 (Conv2D)            (None, 32, 32, 32)        896       
_________________________________________________________________
conv2d_2 (Conv2D)            (None, 32, 32, 32)        9248      
_________________________________________________________________
max_pooling2d_1 (MaxPooling2 (None, 16, 16, 32)        0         
_________________________________________________________________
conv2d_3 (Conv2D)            (None, 16, 16, 64)        18496     
_________________________________________________________________
conv2d_4 (Conv2D)            (None, 16, 16, 128)       73856     
_________________________________________________________________
max_pooling2d_2 (MaxPooling2 (None, 8, 8, 128)         0         
_________________________________________________________________
flatten_1 (Flatten)          (None, 8192)              0         
_________________________________________________________________
dense_1 (Dense)              (None, 10)                81930     
=================================================================
Total params: 184,426
Trainable params: 184,426
Non-trainable params: 0
_________________________________________________________________

2018-04-24 23:25:46.797342PM --- Model took seconds to train 358.43762969970703
2018-04-24 23:25:46.991992PM --- Accuracy on test data is: 73.7
2018-04-24 23:25:47.041808PM --- starting process for: (((conv*1)vazio)*1)fc*1
2018-04-24 23:25:47.736217PM
_________________________________________________________________
Layer (type)                 Output Shape              Param #   
=================================================================
conv2d_1 (Conv2D)            (None, 32, 32, 32)        896       
_________________________________________________________________
flatten_1 (Flatten)          (None, 32768)             0         
_________________________________________________________________
dense_1 (Dense)              (None, 128)               4194432   
_________________________________________________________________
activation_1 (Activation)    (None, 128)               0         
_________________________________________________________________
dense_2 (Dense)              (None, 10)                1290      
=================================================================
Total params: 4,196,618
Trainable params: 4,196,618
Non-trainable params: 0
_________________________________________________________________

2018-04-24 23:28:52.740997PM --- Model took seconds to train 184.98994827270508
2018-04-24 23:28:53.001214PM --- Accuracy on test data is: 58.8
2018-04-24 23:28:53.046018PM --- starting process for: (((conv*2)pool)*3)fc*2
2018-04-24 23:28:53.770746PM
_________________________________________________________________
Layer (type)                 Output Shape              Param #   
=================================================================
conv2d_1 (Conv2D)            (None, 32, 32, 32)        896       
_________________________________________________________________
conv2d_2 (Conv2D)            (None, 32, 32, 32)        9248      
_________________________________________________________________
max_pooling2d_1 (MaxPooling2 (None, 16, 16, 32)        0         
_________________________________________________________________
conv2d_3 (Conv2D)            (None, 16, 16, 64)        18496     
_________________________________________________________________
conv2d_4 (Conv2D)            (None, 16, 16, 128)       73856     
_________________________________________________________________
max_pooling2d_2 (MaxPooling2 (None, 8, 8, 128)         0         
_________________________________________________________________
conv2d_5 (Conv2D)            (None, 8, 8, 128)         147584    
_________________________________________________________________
conv2d_6 (Conv2D)            (None, 8, 8, 128)         147584    
_________________________________________________________________
max_pooling2d_3 (MaxPooling2 (None, 4, 4, 128)         0         
_________________________________________________________________
flatten_1 (Flatten)          (None, 2048)              0         
_________________________________________________________________
dense_1 (Dense)              (None, 128)               262272    
_________________________________________________________________
activation_1 (Activation)    (None, 128)               0         
_________________________________________________________________
dense_2 (Dense)              (None, 128)               16512     
_________________________________________________________________
activation_2 (Activation)    (None, 128)               0         
_________________________________________________________________
dense_3 (Dense)              (None, 10)                1290      
=================================================================
Total params: 677,738
Trainable params: 677,738
Non-trainable params: 0
_________________________________________________________________

2018-04-24 23:35:32.175101PM --- Model took seconds to train 398.3892014026642
2018-04-24 23:35:32.331977PM --- Accuracy on test data is: 77.2
2018-04-24 23:35:32.379872PM --- starting process for: (((conv*1)vazio)*2)fc*1
2018-04-24 23:35:33.082074PM
_________________________________________________________________
Layer (type)                 Output Shape              Param #   
=================================================================
conv2d_1 (Conv2D)            (None, 32, 32, 32)        896       
_________________________________________________________________
conv2d_2 (Conv2D)            (None, 32, 32, 32)        9248      
_________________________________________________________________
flatten_1 (Flatten)          (None, 32768)             0         
_________________________________________________________________
dense_1 (Dense)              (None, 128)               4194432   
_________________________________________________________________
activation_1 (Activation)    (None, 128)               0         
_________________________________________________________________
dense_2 (Dense)              (None, 10)                1290      
=================================================================
Total params: 4,205,866
Trainable params: 4,205,866
Non-trainable params: 0
_________________________________________________________________

2018-04-24 23:40:00.365075PM --- Model took seconds to train 267.26785039901733
2018-04-24 23:40:00.657199PM --- Accuracy on test data is: 62.050000000000004
2018-04-24 23:40:00.700228PM --- starting process for: (((conv*1)pool)*1)fc*2
2018-04-24 23:40:01.398378PM
_________________________________________________________________
Layer (type)                 Output Shape              Param #   
=================================================================
conv2d_1 (Conv2D)            (None, 32, 32, 32)        896       
_________________________________________________________________
max_pooling2d_1 (MaxPooling2 (None, 16, 16, 32)        0         
_________________________________________________________________
flatten_1 (Flatten)          (None, 8192)              0         
_________________________________________________________________
dense_1 (Dense)              (None, 128)               1048704   
_________________________________________________________________
activation_1 (Activation)    (None, 128)               0         
_________________________________________________________________
dense_2 (Dense)              (None, 128)               16512     
_________________________________________________________________
activation_2 (Activation)    (None, 128)               0         
_________________________________________________________________
dense_3 (Dense)              (None, 10)                1290      
=================================================================
Total params: 1,067,402
Trainable params: 1,067,402
Non-trainable params: 0
_________________________________________________________________

2018-04-24 23:42:43.686286PM --- Model took seconds to train 162.2726492881775
2018-04-24 23:42:43.826213PM --- Accuracy on test data is: 62.9
2018-04-24 23:42:43.866327PM --- starting process for: (((conv*1)pool)*2)fc*0
2018-04-24 23:42:44.558005PM
_________________________________________________________________
Layer (type)                 Output Shape              Param #   
=================================================================
conv2d_1 (Conv2D)            (None, 32, 32, 32)        896       
_________________________________________________________________
max_pooling2d_1 (MaxPooling2 (None, 16, 16, 32)        0         
_________________________________________________________________
conv2d_2 (Conv2D)            (None, 16, 16, 32)        9248      
_________________________________________________________________
max_pooling2d_2 (MaxPooling2 (None, 8, 8, 32)          0         
_________________________________________________________________
flatten_1 (Flatten)          (None, 2048)              0         
_________________________________________________________________
dense_1 (Dense)              (None, 10)                20490     
=================================================================
Total params: 30,634
Trainable params: 30,634
Non-trainable params: 0
_________________________________________________________________

2018-04-24 23:45:31.705685PM --- Model took seconds to train 167.13316369056702
2018-04-24 23:45:31.799056PM --- Accuracy on test data is: 69.89999999999999
2018-04-24 23:45:31.834991PM --- starting process for: (((conv*1)vazio)*2)fc*1
2018-04-24 23:45:32.538245PM
_________________________________________________________________
Layer (type)                 Output Shape              Param #   
=================================================================
conv2d_1 (Conv2D)            (None, 32, 32, 32)        896       
_________________________________________________________________
conv2d_2 (Conv2D)            (None, 32, 32, 32)        9248      
_________________________________________________________________
flatten_1 (Flatten)          (None, 32768)             0         
_________________________________________________________________
dense_1 (Dense)              (None, 128)               4194432   
_________________________________________________________________
activation_1 (Activation)    (None, 128)               0         
_________________________________________________________________
dense_2 (Dense)              (None, 10)                1290      
=================================================================
Total params: 4,205,866
Trainable params: 4,205,866
Non-trainable params: 0
_________________________________________________________________

2018-04-24 23:50:00.823857PM --- Model took seconds to train 268.2705931663513
2018-04-24 23:50:01.109442PM --- Accuracy on test data is: 60.3
2018-04-24 23:50:01.150239PM --- starting process for: (((conv*2)pool)*2)fc*1
2018-04-24 23:50:01.861229PM
_________________________________________________________________
Layer (type)                 Output Shape              Param #   
=================================================================
conv2d_1 (Conv2D)            (None, 32, 32, 32)        896       
_________________________________________________________________
conv2d_2 (Conv2D)            (None, 32, 32, 32)        9248      
_________________________________________________________________
max_pooling2d_1 (MaxPooling2 (None, 16, 16, 32)        0         
_________________________________________________________________
conv2d_3 (Conv2D)            (None, 16, 16, 64)        18496     
_________________________________________________________________
conv2d_4 (Conv2D)            (None, 16, 16, 128)       73856     
_________________________________________________________________
max_pooling2d_2 (MaxPooling2 (None, 8, 8, 128)         0         
_________________________________________________________________
flatten_1 (Flatten)          (None, 8192)              0         
_________________________________________________________________
dense_1 (Dense)              (None, 128)               1048704   
_________________________________________________________________
activation_1 (Activation)    (None, 128)               0         
_________________________________________________________________
dense_2 (Dense)              (None, 10)                1290      
=================================================================
Total params: 1,152,490
Trainable params: 1,152,490
Non-trainable params: 0
_________________________________________________________________

2018-04-24 23:55:42.468113PM --- Model took seconds to train 340.5918459892273
2018-04-24 23:55:42.651438PM --- Accuracy on test data is: 73.55000000000001
2018-04-24 23:55:42.698729PM --- starting process for: (((conv*1)vazio)*2)fc*0
2018-04-24 23:55:43.396756PM
_________________________________________________________________
Layer (type)                 Output Shape              Param #   
=================================================================
conv2d_1 (Conv2D)            (None, 32, 32, 32)        896       
_________________________________________________________________
conv2d_2 (Conv2D)            (None, 32, 32, 32)        9248      
_________________________________________________________________
flatten_1 (Flatten)          (None, 32768)             0         
_________________________________________________________________
dense_1 (Dense)              (None, 10)                327690    
=================================================================
Total params: 337,834
Trainable params: 337,834
Non-trainable params: 0
_________________________________________________________________
