
2018-05-02 21:01:50.306793PM --- starting process for: (((conv*1)pool)*3)fc*1
2018-05-02 21:04:11.338935PM --- starting process for: (((conv*1)pool)*3)fc*1
2018-05-02 21:04:14.813709PM
_________________________________________________________________
Layer (type)                 Output Shape              Param #   
=================================================================
conv2d_1 (Conv2D)            (None, 32, 32, 32)        896       
_________________________________________________________________
batch_normalization_1 (Batch (None, 32, 32, 32)        128       
_________________________________________________________________
max_pooling2d_1 (MaxPooling2 (None, 16, 16, 32)        0         
_________________________________________________________________
dropout_1 (Dropout)          (None, 16, 16, 32)        0         
_________________________________________________________________
conv2d_2 (Conv2D)            (None, 16, 16, 32)        9248      
_________________________________________________________________
batch_normalization_2 (Batch (None, 16, 16, 32)        128       
_________________________________________________________________
max_pooling2d_2 (MaxPooling2 (None, 8, 8, 32)          0         
_________________________________________________________________
dropout_2 (Dropout)          (None, 8, 8, 32)          0         
_________________________________________________________________
conv2d_3 (Conv2D)            (None, 8, 8, 64)          18496     
_________________________________________________________________
batch_normalization_3 (Batch (None, 8, 8, 64)          256       
_________________________________________________________________
max_pooling2d_3 (MaxPooling2 (None, 4, 4, 64)          0         
_________________________________________________________________
dropout_3 (Dropout)          (None, 4, 4, 64)          0         
_________________________________________________________________
flatten_1 (Flatten)          (None, 1024)              0         
_________________________________________________________________
dense_1 (Dense)              (None, 128)               131200    
_________________________________________________________________
activation_1 (Activation)    (None, 128)               0         
_________________________________________________________________
dropout_4 (Dropout)          (None, 128)               0         
_________________________________________________________________
dense_2 (Dense)              (None, 10)                1290      
=================================================================
Total params: 161,642
Trainable params: 161,386
Non-trainable params: 256
_________________________________________________________________

2018-05-02 21:07:12.001034PM --- starting process for: (((conv*1)pool)*3)fc*1
2018-05-02 21:07:15.368340PM
_________________________________________________________________
Layer (type)                 Output Shape              Param #   
=================================================================
conv2d_1 (Conv2D)            (None, 32, 32, 32)        896       
_________________________________________________________________
batch_normalization_1 (Batch (None, 32, 32, 32)        128       
_________________________________________________________________
max_pooling2d_1 (MaxPooling2 (None, 16, 16, 32)        0         
_________________________________________________________________
dropout_1 (Dropout)          (None, 16, 16, 32)        0         
_________________________________________________________________
conv2d_2 (Conv2D)            (None, 16, 16, 32)        9248      
_________________________________________________________________
batch_normalization_2 (Batch (None, 16, 16, 32)        128       
_________________________________________________________________
max_pooling2d_2 (MaxPooling2 (None, 8, 8, 32)          0         
_________________________________________________________________
dropout_2 (Dropout)          (None, 8, 8, 32)          0         
_________________________________________________________________
conv2d_3 (Conv2D)            (None, 8, 8, 64)          18496     
_________________________________________________________________
batch_normalization_3 (Batch (None, 8, 8, 64)          256       
_________________________________________________________________
max_pooling2d_3 (MaxPooling2 (None, 4, 4, 64)          0         
_________________________________________________________________
dropout_3 (Dropout)          (None, 4, 4, 64)          0         
_________________________________________________________________
flatten_1 (Flatten)          (None, 1024)              0         
_________________________________________________________________
dense_1 (Dense)              (None, 128)               131200    
_________________________________________________________________
activation_1 (Activation)    (None, 128)               0         
_________________________________________________________________
dropout_4 (Dropout)          (None, 128)               0         
_________________________________________________________________
dense_2 (Dense)              (None, 10)                1290      
=================================================================
Total params: 161,642
Trainable params: 161,386
Non-trainable params: 256
_________________________________________________________________
