
2018-04-15 20:45:21.826736PM --- starting process for: (((conv*3)vazio)*1)fc*1
2018-04-15 20:45:25.225104PM
_________________________________________________________________
Layer (type)                 Output Shape              Param #   
=================================================================
conv2d_1 (Conv2D)            (None, 32, 32, 48)        1344      
_________________________________________________________________
conv2d_2 (Conv2D)            (None, 32, 32, 48)        20784     
_________________________________________________________________
conv2d_3 (Conv2D)            (None, 32, 32, 96)        41568     
_________________________________________________________________
flatten_1 (Flatten)          (None, 98304)             0         
_________________________________________________________________
dense_1 (Dense)              (None, 64)                6291520   
_________________________________________________________________
activation_1 (Activation)    (None, 64)                0         
_________________________________________________________________
dense_2 (Dense)              (None, 10)                650       
=================================================================
Total params: 6,355,866
Trainable params: 6,355,866
Non-trainable params: 0
_________________________________________________________________

2018-04-15 21:18:32.594755PM --- Model took seconds to train 1987.2957248687744
2018-04-15 21:18:46.261407PM --- Accuracy on test data is: 67.4
2018-04-15 21:18:46.428133PM --- starting process for: (((conv*2)vazio)*2)fc*5
2018-04-15 21:18:48.976311PM
_________________________________________________________________
Layer (type)                 Output Shape              Param #   
=================================================================
conv2d_4 (Conv2D)            (None, 32, 32, 48)        1344      
_________________________________________________________________
conv2d_5 (Conv2D)            (None, 32, 32, 48)        20784     
_________________________________________________________________
conv2d_6 (Conv2D)            (None, 32, 32, 48)        20784     
_________________________________________________________________
conv2d_7 (Conv2D)            (None, 32, 32, 96)        41568     
_________________________________________________________________
flatten_2 (Flatten)          (None, 98304)             0         
_________________________________________________________________
dense_3 (Dense)              (None, 64)                6291520   
_________________________________________________________________
activation_2 (Activation)    (None, 64)                0         
_________________________________________________________________
dense_4 (Dense)              (None, 64)                4160      
_________________________________________________________________
activation_3 (Activation)    (None, 64)                0         
_________________________________________________________________
dense_5 (Dense)              (None, 64)                4160      
_________________________________________________________________
activation_4 (Activation)    (None, 64)                0         
_________________________________________________________________
dense_6 (Dense)              (None, 64)                4160      
_________________________________________________________________
activation_5 (Activation)    (None, 64)                0         
_________________________________________________________________
dense_7 (Dense)              (None, 64)                4160      
_________________________________________________________________
activation_6 (Activation)    (None, 64)                0         
_________________________________________________________________
dense_8 (Dense)              (None, 10)                650       
=================================================================
Total params: 6,393,290
Trainable params: 6,393,290
Non-trainable params: 0
_________________________________________________________________

2018-04-15 22:02:01.571720PM --- Model took seconds to train 2592.516459941864
2018-04-15 22:02:19.439958PM --- Accuracy on test data is: 61.9
2018-04-15 22:02:19.584797PM --- starting process for: (((conv*1)pool)*1)fc*5
2018-04-15 22:02:22.237326PM
_________________________________________________________________
Layer (type)                 Output Shape              Param #   
=================================================================
conv2d_8 (Conv2D)            (None, 32, 32, 48)        1344      
_________________________________________________________________
max_pooling2d_1 (MaxPooling2 (None, 16, 16, 48)        0         
_________________________________________________________________
flatten_3 (Flatten)          (None, 12288)             0         
_________________________________________________________________
dense_9 (Dense)              (None, 64)                786496    
_________________________________________________________________
activation_7 (Activation)    (None, 64)                0         
_________________________________________________________________
dense_10 (Dense)             (None, 64)                4160      
_________________________________________________________________
activation_8 (Activation)    (None, 64)                0         
_________________________________________________________________
dense_11 (Dense)             (None, 64)                4160      
_________________________________________________________________
activation_9 (Activation)    (None, 64)                0         
_________________________________________________________________
dense_12 (Dense)             (None, 64)                4160      
_________________________________________________________________
activation_10 (Activation)   (None, 64)                0         
_________________________________________________________________
dense_13 (Dense)             (None, 64)                4160      
_________________________________________________________________
activation_11 (Activation)   (None, 64)                0         
_________________________________________________________________
dense_14 (Dense)             (None, 10)                650       
=================================================================
Total params: 805,130
Trainable params: 805,130
Non-trainable params: 0
_________________________________________________________________

2018-04-15 22:05:00.045145PM --- Model took seconds to train 157.7251579761505
2018-04-15 22:05:01.286511PM --- Accuracy on test data is: 55.55
2018-04-15 22:05:01.438089PM --- Inicialization...
2018-04-15 22:05:01.438461PM --- 0 - Individual: (((conv*3)vazio)*1)fc*1; 67.4
2018-04-15 22:05:01.438784PM --- 1 - Individual: (((conv*2)vazio)*2)fc*5; 61.9
2018-04-15 22:05:01.439146PM --- 2 - Individual: (((conv*1)pool)*1)fc*5; 55.55
2018-04-15 22:05:01.439405PM --- Generation: 1
2018-04-15 22:05:01.440355PM --- starting process for: (((conv*2)vazio)*2)fc*5
2018-04-15 22:05:03.717182PM
_________________________________________________________________
Layer (type)                 Output Shape              Param #   
=================================================================
conv2d_9 (Conv2D)            (None, 32, 32, 48)        1344      
_________________________________________________________________
conv2d_10 (Conv2D)           (None, 32, 32, 48)        20784     
_________________________________________________________________
conv2d_11 (Conv2D)           (None, 32, 32, 48)        20784     
_________________________________________________________________
conv2d_12 (Conv2D)           (None, 32, 32, 96)        41568     
_________________________________________________________________
flatten_4 (Flatten)          (None, 98304)             0         
_________________________________________________________________
dense_15 (Dense)             (None, 64)                6291520   
_________________________________________________________________
activation_12 (Activation)   (None, 64)                0         
_________________________________________________________________
dense_16 (Dense)             (None, 64)                4160      
_________________________________________________________________
activation_13 (Activation)   (None, 64)                0         
_________________________________________________________________
dense_17 (Dense)             (None, 64)                4160      
_________________________________________________________________
activation_14 (Activation)   (None, 64)                0         
_________________________________________________________________
dense_18 (Dense)             (None, 64)                4160      
_________________________________________________________________
activation_15 (Activation)   (None, 64)                0         
_________________________________________________________________
dense_19 (Dense)             (None, 64)                4160      
_________________________________________________________________
activation_16 (Activation)   (None, 64)                0         
_________________________________________________________________
dense_20 (Dense)             (None, 10)                650       
=================================================================
Total params: 6,393,290
Trainable params: 6,393,290
Non-trainable params: 0
_________________________________________________________________

2018-04-15 22:48:26.590425PM --- Model took seconds to train 2602.8049449920654
2018-04-15 22:48:44.633374PM --- Accuracy on test data is: 62.2
2018-04-15 22:48:44.801423PM --- starting process for: (((conv*1)pool)*3)fc*1
2018-04-15 22:48:47.478386PM
_________________________________________________________________
Layer (type)                 Output Shape              Param #   
=================================================================
conv2d_13 (Conv2D)           (None, 32, 32, 48)        1344      
_________________________________________________________________
max_pooling2d_2 (MaxPooling2 (None, 16, 16, 48)        0         
_________________________________________________________________
conv2d_14 (Conv2D)           (None, 16, 16, 48)        20784     
_________________________________________________________________
max_pooling2d_3 (MaxPooling2 (None, 8, 8, 48)          0         
_________________________________________________________________
conv2d_15 (Conv2D)           (None, 8, 8, 48)          20784     
_________________________________________________________________
max_pooling2d_4 (MaxPooling2 (None, 4, 4, 48)          0         
_________________________________________________________________
flatten_5 (Flatten)          (None, 768)               0         
_________________________________________________________________
dense_21 (Dense)             (None, 64)                49216     
_________________________________________________________________
activation_17 (Activation)   (None, 64)                0         
_________________________________________________________________
dense_22 (Dense)             (None, 10)                650       
=================================================================
Total params: 92,778
Trainable params: 92,778
Non-trainable params: 0
_________________________________________________________________

2018-04-15 22:54:58.998738PM --- Model took seconds to train 371.4360399246216
2018-04-15 22:55:01.450625PM --- Accuracy on test data is: 60.150000000000006
2018-04-15 22:55:01.601567PM --- 0 - Individual: (((conv*3)vazio)*1)fc*1; 67.4
…
