
2018-05-29 20:30:58.060200PM --- starting process for: (((conv*2)pool)*3)fc*2
2018-05-29 20:30:59.109344PM
_________________________________________________________________
Layer (type)                 Output Shape              Param #   
=================================================================
conv2d_1 (Conv2D)            (None, 150, 150, 32)      896       
_________________________________________________________________
batch_normalization_1 (Batch (None, 150, 150, 32)      128       
_________________________________________________________________
conv2d_2 (Conv2D)            (None, 150, 150, 32)      9248      
_________________________________________________________________
batch_normalization_2 (Batch (None, 150, 150, 32)      128       
_________________________________________________________________
max_pooling2d_1 (MaxPooling2 (None, 75, 75, 32)        0         
_________________________________________________________________
dropout_1 (Dropout)          (None, 75, 75, 32)        0         
_________________________________________________________________
conv2d_3 (Conv2D)            (None, 75, 75, 64)        18496     
_________________________________________________________________
batch_normalization_3 (Batch (None, 75, 75, 64)        256       
_________________________________________________________________
conv2d_4 (Conv2D)            (None, 75, 75, 128)       73856     
_________________________________________________________________
batch_normalization_4 (Batch (None, 75, 75, 128)       512       
_________________________________________________________________
max_pooling2d_2 (MaxPooling2 (None, 37, 37, 128)       0         
_________________________________________________________________
dropout_2 (Dropout)          (None, 37, 37, 128)       0         
_________________________________________________________________
conv2d_5 (Conv2D)            (None, 37, 37, 128)       147584    
_________________________________________________________________
batch_normalization_5 (Batch (None, 37, 37, 128)       512       
_________________________________________________________________
conv2d_6 (Conv2D)            (None, 37, 37, 128)       147584    
_________________________________________________________________
batch_normalization_6 (Batch (None, 37, 37, 128)       512       
_________________________________________________________________
max_pooling2d_3 (MaxPooling2 (None, 18, 18, 128)       0         
_________________________________________________________________
dropout_3 (Dropout)          (None, 18, 18, 128)       0         
_________________________________________________________________
flatten_1 (Flatten)          (None, 41472)             0         
_________________________________________________________________
dense_1 (Dense)              (None, 128)               5308544   
_________________________________________________________________
activation_1 (Activation)    (None, 128)               0         
_________________________________________________________________
dense_2 (Dense)              (None, 128)               16512     
_________________________________________________________________
activation_2 (Activation)    (None, 128)               0         
_________________________________________________________________
dropout_4 (Dropout)          (None, 128)               0         
_________________________________________________________________
dense_3 (Dense)              (None, 2)                 258       
=================================================================
Total params: 5,725,026
Trainable params: 5,724,002
Non-trainable params: 1,024
_________________________________________________________________

2018-05-29 20:33:12.557457PM --- starting process for: (((conv*2)pool)*3)fc*2
2018-05-29 20:33:13.564657PM
_________________________________________________________________
Layer (type)                 Output Shape              Param #   
=================================================================
conv2d_1 (Conv2D)            (None, 150, 150, 32)      896       
_________________________________________________________________
batch_normalization_1 (Batch (None, 150, 150, 32)      128       
_________________________________________________________________
conv2d_2 (Conv2D)            (None, 150, 150, 32)      9248      
_________________________________________________________________
batch_normalization_2 (Batch (None, 150, 150, 32)      128       
_________________________________________________________________
max_pooling2d_1 (MaxPooling2 (None, 75, 75, 32)        0         
_________________________________________________________________
dropout_1 (Dropout)          (None, 75, 75, 32)        0         
_________________________________________________________________
conv2d_3 (Conv2D)            (None, 75, 75, 64)        18496     
_________________________________________________________________
batch_normalization_3 (Batch (None, 75, 75, 64)        256       
_________________________________________________________________
conv2d_4 (Conv2D)            (None, 75, 75, 128)       73856     
_________________________________________________________________
batch_normalization_4 (Batch (None, 75, 75, 128)       512       
_________________________________________________________________
max_pooling2d_2 (MaxPooling2 (None, 37, 37, 128)       0         
_________________________________________________________________
dropout_2 (Dropout)          (None, 37, 37, 128)       0         
_________________________________________________________________
conv2d_5 (Conv2D)            (None, 37, 37, 128)       147584    
_________________________________________________________________
batch_normalization_5 (Batch (None, 37, 37, 128)       512       
_________________________________________________________________
conv2d_6 (Conv2D)            (None, 37, 37, 128)       147584    
_________________________________________________________________
batch_normalization_6 (Batch (None, 37, 37, 128)       512       
_________________________________________________________________
max_pooling2d_3 (MaxPooling2 (None, 18, 18, 128)       0         
_________________________________________________________________
dropout_3 (Dropout)          (None, 18, 18, 128)       0         
_________________________________________________________________
flatten_1 (Flatten)          (None, 41472)             0         
_________________________________________________________________
dense_1 (Dense)              (None, 128)               5308544   
_________________________________________________________________
activation_1 (Activation)    (None, 128)               0         
_________________________________________________________________
dense_2 (Dense)              (None, 128)               16512     
_________________________________________________________________
activation_2 (Activation)    (None, 128)               0         
_________________________________________________________________
dropout_4 (Dropout)          (None, 128)               0         
_________________________________________________________________
dense_3 (Dense)              (None, 2)                 258       
=================================================================
Total params: 5,725,026
Trainable params: 5,724,002
Non-trainable params: 1,024
_________________________________________________________________

2018-05-29 20:35:22.751059PM --- starting process for: (((conv*1)pool)*1)fc*1
2018-05-29 20:35:23.171487PM
_________________________________________________________________
Layer (type)                 Output Shape              Param #   
=================================================================
conv2d_1 (Conv2D)            (None, 150, 150, 32)      896       
_________________________________________________________________
batch_normalization_1 (Batch (None, 150, 150, 32)      128       
_________________________________________________________________
max_pooling2d_1 (MaxPooling2 (None, 75, 75, 32)        0         
_________________________________________________________________
dropout_1 (Dropout)          (None, 75, 75, 32)        0         
_________________________________________________________________
flatten_1 (Flatten)          (None, 180000)            0         
_________________________________________________________________
dense_1 (Dense)              (None, 128)               23040128  
_________________________________________________________________
activation_1 (Activation)    (None, 128)               0         
_________________________________________________________________
dropout_2 (Dropout)          (None, 128)               0         
_________________________________________________________________
dense_2 (Dense)              (None, 2)                 258       
=================================================================
Total params: 23,041,410
Trainable params: 23,041,346
Non-trainable params: 64
_________________________________________________________________

2018-05-29 20:39:59.124996PM --- starting process for: (((conv*1)pool)*1)fc*1
2018-05-29 20:39:59.549083PM
_________________________________________________________________
Layer (type)                 Output Shape              Param #   
=================================================================
conv2d_1 (Conv2D)            (None, 150, 150, 32)      896       
_________________________________________________________________
batch_normalization_1 (Batch (None, 150, 150, 32)      128       
_________________________________________________________________
max_pooling2d_1 (MaxPooling2 (None, 75, 75, 32)        0         
_________________________________________________________________
dropout_1 (Dropout)          (None, 75, 75, 32)        0         
_________________________________________________________________
flatten_1 (Flatten)          (None, 180000)            0         
_________________________________________________________________
dense_1 (Dense)              (None, 64)                11520064  
_________________________________________________________________
activation_1 (Activation)    (None, 64)                0         
_________________________________________________________________
dropout_2 (Dropout)          (None, 64)                0         
_________________________________________________________________
dense_2 (Dense)              (None, 1)                 65        
_________________________________________________________________
activation_2 (Activation)    (None, 1)                 0         
=================================================================
Total params: 11,521,153
Trainable params: 11,521,089
Non-trainable params: 64
_________________________________________________________________

2018-05-29 20:42:23.757086PM --- starting process for: (((conv*1)pool)*1)fc*1
2018-05-29 20:42:24.187248PM
_________________________________________________________________
Layer (type)                 Output Shape              Param #   
=================================================================
conv2d_1 (Conv2D)            (None, 150, 150, 32)      896       
_________________________________________________________________
batch_normalization_1 (Batch (None, 150, 150, 32)      128       
_________________________________________________________________
max_pooling2d_1 (MaxPooling2 (None, 75, 75, 32)        0         
_________________________________________________________________
dropout_1 (Dropout)          (None, 75, 75, 32)        0         
_________________________________________________________________
flatten_1 (Flatten)          (None, 180000)            0         
_________________________________________________________________
dense_1 (Dense)              (None, 64)                11520064  
_________________________________________________________________
activation_1 (Activation)    (None, 64)                0         
_________________________________________________________________
dropout_2 (Dropout)          (None, 64)                0         
_________________________________________________________________
dense_2 (Dense)              (None, 1)                 65        
_________________________________________________________________
activation_2 (Activation)    (None, 1)                 0         
=================================================================
Total params: 11,521,153
Trainable params: 11,521,089
Non-trainable params: 64
_________________________________________________________________

2018-05-29 20:42:40.820149PM --- acc = [0.63541666666666663]
2018-05-29 20:42:40.820462PM --- val_acc = [0.53125]
2018-05-29 20:42:40.828890PM --- loss = [3.7690830429395041]
2018-05-29 20:42:40.829203PM --- val_loss = [7.5553574562072754]
2018-05-29 20:44:14.542806PM --- Accuracy on test data is: 0.499999998742
2018-05-29 20:44:14.543220PM --- (((conv*1)pool)*1)fc*1 => addDropout: True; addBatchNormalization: True
2018-05-29 20:44:14.551144PM --- (((conv*1)pool)*1)fc*1 => firstRun: 0.499999998742
2018-05-29 20:52:18.569076PM --- starting process for: (((conv*1)pool)*1)fc*1
2018-05-29 20:52:19.018174PM
_________________________________________________________________
Layer (type)                 Output Shape              Param #   
=================================================================
conv2d_1 (Conv2D)            (None, 150, 150, 32)      896       
_________________________________________________________________
batch_normalization_1 (Batch (None, 150, 150, 32)      128       
_________________________________________________________________
max_pooling2d_1 (MaxPooling2 (None, 75, 75, 32)        0         
_________________________________________________________________
dropout_1 (Dropout)          (None, 75, 75, 32)        0         
_________________________________________________________________
flatten_1 (Flatten)          (None, 180000)            0         
_________________________________________________________________
dense_1 (Dense)              (None, 64)                11520064  
_________________________________________________________________
activation_1 (Activation)    (None, 64)                0         
_________________________________________________________________
dropout_2 (Dropout)          (None, 64)                0         
_________________________________________________________________
dense_2 (Dense)              (None, 1)                 65        
_________________________________________________________________
activation_2 (Activation)    (None, 1)                 0         
=================================================================
Total params: 11,521,153
Trainable params: 11,521,089
Non-trainable params: 64
_________________________________________________________________

2018-05-29 20:52:35.037488PM --- acc = [0.54166666666666663]
2018-05-29 20:52:35.037829PM --- val_acc = [0.4375]
2018-05-29 20:52:35.038034PM --- loss = [5.275704900423686]
2018-05-29 20:52:35.038177PM --- val_loss = [9.0664291381835938]
2018-05-29 20:54:13.005738PM --- Accuracy on test data is: 0.500000000729
2018-05-29 20:54:13.006026PM --- (((conv*1)pool)*1)fc*1 => addDropout: True; addBatchNormalization: True
2018-05-29 20:54:13.014200PM --- (((conv*1)pool)*1)fc*1 => firstRun: 0.500000000729
2018-05-29 21:04:25.368210PM --- starting process for: (((conv*1)pool)*1)fc*1
2018-05-29 21:04:25.773090PM
_________________________________________________________________
Layer (type)                 Output Shape              Param #   
=================================================================
conv2d_1 (Conv2D)            (None, 150, 150, 32)      896       
_________________________________________________________________
batch_normalization_1 (Batch (None, 150, 150, 32)      128       
_________________________________________________________________
max_pooling2d_1 (MaxPooling2 (None, 75, 75, 32)        0         
_________________________________________________________________
dropout_1 (Dropout)          (None, 75, 75, 32)        0         
_________________________________________________________________
flatten_1 (Flatten)          (None, 180000)            0         
_________________________________________________________________
dense_1 (Dense)              (None, 64)                11520064  
_________________________________________________________________
activation_1 (Activation)    (None, 64)                0         
_________________________________________________________________
dropout_2 (Dropout)          (None, 64)                0         
_________________________________________________________________
dense_2 (Dense)              (None, 1)                 65        
_________________________________________________________________
activation_2 (Activation)    (None, 1)                 0         
=================================================================
Total params: 11,521,153
Trainable params: 11,521,089
Non-trainable params: 64
_________________________________________________________________

2018-05-29 21:05:21.181446PM --- starting process for: (((conv*1)pool)*1)fc*1
2018-05-29 21:05:21.612980PM
_________________________________________________________________
Layer (type)                 Output Shape              Param #   
=================================================================
conv2d_1 (Conv2D)            (None, 150, 150, 32)      896       
_________________________________________________________________
batch_normalization_1 (Batch (None, 150, 150, 32)      128       
_________________________________________________________________
max_pooling2d_1 (MaxPooling2 (None, 75, 75, 32)        0         
_________________________________________________________________
dropout_1 (Dropout)          (None, 75, 75, 32)        0         
_________________________________________________________________
flatten_1 (Flatten)          (None, 180000)            0         
_________________________________________________________________
dense_1 (Dense)              (None, 64)                11520064  
_________________________________________________________________
activation_1 (Activation)    (None, 64)                0         
_________________________________________________________________
dropout_2 (Dropout)          (None, 64)                0         
_________________________________________________________________
dense_2 (Dense)              (None, 1)                 65        
_________________________________________________________________
activation_2 (Activation)    (None, 1)                 0         
=================================================================
Total params: 11,521,153
Trainable params: 11,521,089
Non-trainable params: 64
_________________________________________________________________

2018-05-29 21:05:51.919286PM --- acc = [0.55208333333333337, 0.72058823529411764]
2018-05-29 21:05:51.927572PM --- val_acc = [0.53125, 0.53125]
2018-05-29 21:05:51.928036PM --- loss = [4.6859051585197449, 4.2777054789407183]
…
